models/save_models/lstm_features_temporales.pth (torch, 941295 bytes, 19 tensors)

lstm.weight_ih_l0 f4 [512, 18]
00000000: 1c10 cd3d d1d8 80bd 116f dabd 527b 4b3d
00000010: 4ec3 73bd 779d a7bc 5ccb 723c 3be0 ba3d
00000020: a3cc 85bd 24dd b3bd d7fb 343d 66d6 fcbc
00000030: af25 cb3d 2ddb dbbc 4e69 89bb a560 263d
00000040: 4f21 0e3e ea43 dbba a9b6 35be 2e26 283d
00000050: a8a8 563e 7cd0 5ebd fc3e 4bbd 7224 17bc
00000060: 2c52 393e 38cf 8fba c4a5 703e f202 a23d
00000070: 30e5 45bd 3e5b 1ebd c9a6 bdbd 72be 553c
00000080: 4ff2 643e 4ff8 20bd ccb0 2c3e 1bac 473d
00000090: 321d 253c 11a5 c3bc 84a5 a73d ad0b 8ebd
000000a0: 600d c2bd c98d c13d f94b 653d 925b 28be
000000b0: 41ce 8a3d c717 063d 0c20 44be 277b d03a
000000c0: 92f8 a4bd ff1b 883d a232 47bd b154 a83d
000000d0: d60f 46be 4322 483d 1eb5 6dbe c402 2cbe
000000e0: 9429 e23d e25c 0f3e e238 6ebe 1f2e 2a3d
000000f0: c5bf c33e f752 e63d b8b6 f5bd c1de 12be
00000100: 4849 0fbe 59dd 013e 6639 c1bd 4ac8 34be
00000110: fabd c4be c6d5 5abc 4ccd 5dbe e804 183d
00000120: 2189 07be 2578 1b3d dc89 4c3d 9abc d7bd
00000130: 9cba 08be b2af 0e3d 1155 7d3e 95bf 3bbc
00000140: 8251 343e 4119 c93c f4fd 4dbd e388 5fbc
00000150: d9ad 413d fcec ca3d 4b7a d9bd 93b5 953c
00000160: c362 f6bd dbd6 e7bd a477 25be 2fb5 103e
00000170: 7456 a7bd 0006 4abd a60a 0e3c 67a8 af3d
00000180: a19c 713e 3de4 2f3d 9f60 193d d7a6 55be
00000190: 0a23 51be ea56 e3bc e5dd b33d 75cd 093d
000001a0: a19f 96bd c412 1d3e 50fc b0bd 7e12 27bb
000001b0: ade6 14be ac18 f43c 6415 07be 4ec7 1e3d
000001c0: 6bca b3bc 04bf 8c3d a1f3 663c bd5f 83be
000001d0: 641b 033e 8bb8 bf3d e38f b5bd 7e4a 38bd
000001e0: ce65 243e 4022 ed3d 38ee 22be bc74 18be
000001f0: 448a 78bd ca07 093e 3b24 953c 6044 4e3c
00000200: 150d 103e c29b cdbd 2c77 ea3b c8b9 0dbd
00000210: f8d4 9a3d eb75 02be 3aca 3a3e 44d0 9cbd
00000220: 5573 67be 9004 643d ec3a a7bd b11e 0dbd
00000230: 073f 70bd c6f6 03be ff1d 8cbd 22f2 ddbc
00000240: 48d9 d43c 1e7f cebd c392 3c3d d8b4 9cbc
00000250: 1497 bcbd dbe7 873d 6a7c 663d 47bc bdbd
00000260: e600 b7bd c3ea 2b3d 99f5 f93d 1443 733d
00000270: 852d 753e c297 23bc 91a1 d03b 1cad 443d
00000280: bba0 093d e73c fd3c f904 453d f093 16be
00000290: dc5e 24bd 3663 d0bb d71e e63c 49ee d03c
000002a0: a808 29be 292a d3bc f0d0 30bd 0c4d e6bc
000002b0: 82ae ff3d bbdb 87bd de8c 153e 52e9 36be
000002c0: 0bbd 8a3d ecba 5e3c 2f9f f83d ff67 46bc
000002d0: 326b a1bc eb74 73bc 014b e13d 7e5d f53d
000002e0: 699b 64be f7e1 adbd 958b 593e 4741 743d
000002f0: 5925 f3bd 419c 5ebe 9d3a da3b 0317 42bc
00000300: c455 bc3d 438b dbbd 9f0a d0bd 85b5 4b3d
00000310: cc63 4dbc c528 653d 464a 8e3d 22b7 ebbd
00000320: ba3a 30be 3945 31be 535b 133e e6e1 923d
00000330: 6090 03be 468e 363d 271f 4a3d 6383 173e
00000340: 7bec 7b3d 712f ccbd 647a 86be e1b2 e03d
00000350: dd56 0c3e 260a f5bb 4ad7 023e fddf 96bd
00000360: 75c0 1ebe 2864 abbe 6297 83bd 8cfb 8fbd
00000370: 42a3 58be d1af 2d3e 88ba d73b cc07 5abe
00000380: 54c2 0ebe 24fd a8bd c7ef 85bd 77f2 b93d
00000390: dcbf 493e 69f2 68be 5eac 0a3e c3c1 a03b
000003a0: 6504 48be ab8a 9e3d b315 8a3e e01b b6bc
000003b0: a698 463e a179 943d 7c88 f43c 013c 95bd
000003c0: 6a5e b0bc bbf1 afbd f1bf cebd 6778 da3c
000003d0: 02e8 083d f0d3 57bb 0326 a1be e17b 163d
000003e0: ca1d 673c b101 153d 112c b53b 6ca7 263d
000003f0: 0057 5fbc 950b 6abe 811c 98be 76a7 30be
0.10012838 -0.062913544 -0.106657155 0.049678154 -0.05951243 -0.020460827 0.0148189925 0.091248
-0.06533172 -0.087824136 0.044185486 -0.030863952 0.09919297 -0.02683791 -0.0041934615 0.04061951
0.13879894 -0.0016728614 -0.1774546 0.041052036 0.20962775 -0.054398045 -0.049620613 -0.009224998
0.18097752 -0.001097179 0.23500735 0.07910718 -0.048314273 -0.038661234 -0.09260327 0.013045894
0.22358058 -0.039299306 0.16864318 0.048748117 0.0100777615 -0.02388242 0.081858665 -0.06935821
-0.09475207 0.094508715 0.055980656 -0.16441181 0.06777621 0.03273752 -0.1915285 0.0015905843
-0.080552235 0.06645965 -0.04863227 0.082192786 -0.19341978 0.0488608 -0.23213622 -0.1679793
0.11043087 0.14000276 -0.23263887 0.04154789 0.38232246 0.11246293 -0.119977415 -0.14342786
-0.13992798 0.12682094 -0.09434776 -0.17654529 -0.3842619 -0.013356632 -0.21660346 0.037114054
-0.13235904 0.037956376 0.04993616 -0.1053402 -0.13352436 0.034835525 0.24739482 -0.011459251
0.17609218 0.024548175 -0.050291017 -0.013643476 0.047284935 0.099084824 -0.10619029 0.018275058
-0.12030556 -0.11320277 -0.1615892 0.14131616 -0.081707865 -0.04932213 0.008669531 0.08577042
0.23594905 0.042942274 0.03744566 -0.20864426 -0.20423523 -0.027751405 0.087825574 0.033643205
-0.073546655 0.1533919 -0.08641875 -0.00254932 -0.14541121 0.02979692 -0.13191754 0.03876429
-0.021947106 0.06872371 0.014096172 -0.2565898 0.12803417 0.09361371 -0.08865335 -0.044992916
0.1605446 0.11578798 -0.15911186 -0.1488828 -0.060678735 0.13381878 0.018205753 0.012589544
0.1406749 -0.10039474 0.0071553197 -0.034601003 0.07560152 -0.12740295 0.18241206 -0.07656911
-0.2260259 0.055668414 -0.08165535 -0.034453098 -0.058653858 -0.12887105 -0.06841659 -0.027092997
0.025982514 -0.100828394 0.0460384 -0.019129202 -0.09208503 0.0663602 0.056270994 -0.09264427
-0.08935718 0.041971933 0.12205047 0.059390143 0.23943146 -0.009984912 0.0063669165 0.048016652
0.03360055 0.03091283 0.048100445 -0.14704871 -0.040129527 -0.006359483 0.028090877 0.025504248
-0.16507208 -0.02577694 -0.04316801 -0.02811291 0.124844566 -0.06633707 0.14604518 -0.17862442
0.06774338 0.01359437 0.12139737 -0.012109756 -0.019704435 -0.014859418 0.11000634 0.11980723
-0.2232491 -0.08490365 0.21244653 0.059632566 -0.11872358 -0.21739294 0.0066598193 -0.011846307
0.09196046 -0.107199214 -0.10158276 0.049733657 -0.012536 0.055947084 0.0694776 -0.11509539
-0.17209902 -0.17311563 0.14390306 0.07171993 -0.12848043 0.044569276 0.049346115 0.14796214
0.061504822 -0.09969986 -0.26265252 0.109716184 0.1370501 -0.0074780164 0.12777439 -0.07366941
-0.15503104 -0.3347485 -0.06425358 -0.07030401 -0.21156028 0.169616 0.0065835156 -0.21292037
-0.13941318 -0.08251408 -0.065398745 0.090794496 0.19702095 -0.22748722 0.13542315 0.0049059107
-0.19532926 0.077412926 0.2696968 -0.022230089 0.19394168 0.072497614 0.029850237 -0.072868355
-0.021529395 -0.08591028 -0.10095204 0.02666874 0.033424385 -0.003293272 -0.31474313 0.036739234
0.014106223 0.036378566 0.0055289348 0.04068701 -0.013631582 -0.2285598 -0.29709247 -0.17251381

lstm.weight_hh_l0 f4 [512, 128]
00000000: 6e6d 1f3c 1cda 2f3c 6060 90bd 9091 8fbd
00000010: e0c6 663d 1157 fc3c 8393 f6bc b2ad 113d
00000020: 2a8e 9e3b 7397 0a3d 53da 2c3d 90ff 94bd
00000030: fd0d 9fbd 2154 803d f123 9e3d 4b2d 8a3d
00000040: 636f a13c 713a b6bc dc1b b33d d5c6 59bd
00000050: eb81 e23c a1a4 56bd d335 363d 0627 a13d
00000060: 2c9f a33b 1bf2 793d e295 5e3d 6b33 013d
00000070: a050 bfbb 73a9 aebd a133 afbb 6db7 a9bd
00000080: af25 623d dd1d 853d 2545 c23c 2817 abbd
00000090: 4cbb c23c 6946 a8bd c3b9 0b3d 162e 8dbc
000000a0: 273d 893b 6dbe c8bc 2aa2 aebc fe55 b73c
000000b0: 8c4a 333c 44aa 6d3d 676e 8e3c 4d14 afbd
000000c0: 1909 9dbc 8eb4 e03c 97df ff3c 3bf8 96bd
000000d0: fbb3 183c 6b50 063c ca6d 053d 1d61 8c3d
000000e0: 7664 c13c 5cc6 5fbd 638e 393d 6600 333d
000000f0: 85a0 083d 7b71 c4b9 1254 113d 9595 453d
00000100: fced 64bc 7987 41bd d145 533d cfb5 aa3d
00000110: 2bf1 cf3c 0d7e 733d 0fe9 5bba debd 1a3c
00000120: 95e3 2a3d 9e7e b0bd 3544 5f3d 3cdb 8ebd
00000130: 0739 0a3d c392 883d c386 8fbd 4cd7 b03b
00000140: 9985 ad3d 7ee9 99bc 8c7b 80bd 55fa 503d
00000150: 7004 0abd 4c1c 5dbb 6300 8dbd 7bf2 2bbd
00000160: 73a2 983d 2502 a2bd 10d5 6cbc 53ee 6b3d
00000170: 1e7b 993b 6915 273d 1948 a1bc e798 b33c
00000180: 154a 113d ecb2 a33d 0f22 92bd ddfe 90bd
00000190: d5e2 993d 0791 a8bd c733 d23c b9a6 b23d
000001a0: 8b95 e63c ad15 4dbd 451e 4bbd 6c58 57bd
000001b0: 88ab 9f3d 9dbc e53c e49d 413d c7d7 7bbd
000001c0: 5a9a afbd 47ae 213d cd0d 8ebd c230 8dbb
000001d0: bfed 97bd ee70 f2ba 6993 a53d 9450 243d
000001e0: 0645 82bd a722 9bbd 0290 e83c edc9 02bd
000001f0: e1d1 8f3c 3d7a 73bd f6ab 8fbd c63b 6a3d
00000200: 034b 72bd c535 7c3d a522 a9bb 171d 66bd
00000210: 9753 603d 9c72 613d f35f a83d e633 823d
00000220: bd49 62bd 342b 833d 70c1 57bc 8cf7 543d
00000230: 55ec 30ba 372c 403d 5fcd 573d 0f54 c23c
00000240: ceae 583b 12b4 b13c fca5 15bd e11c 14bd
00000250: 208a a53d 0d47 4bbd 358c b9bc b1c9 9ebc
00000260: 8513 8a3c cb45 813d d2d3 cfba c11f 4f3d
00000270: 1f49 0b3b b5ae a9bd 223c 583d 44a6 5a3c
00000280: 64bb 523d ca7a 323c e88a e33c d715 21bd
00000290: c38d 9abc c809 bfbc 6ad5 4dbd 9efe 48bd
000002a0: f099 10bd dedc 86bd 9e8e a439 ed44 973d
000002b0: 0600 9c3d 9906 6cbd c028 a13d fff2 a23d
000002c0: 1665 2c3d 9091 2dbd 7632 22bd 1705 10bd
000002d0: a7c0 a63d 7520 60bd 4719 713a 749a 4ebd
000002e0: 4b61 033d d2b8 87bd 0d3a 533d 3ee2 91bc
000002f0: 4fb0 8dbd eabc 9f3d 84a9 363d 78b2 8bbd
00000300: ed71 70bd 076d fd3c a812 6dbd 603e d8ba
00000310: 3b17 99bd 3490 aabd 1f96 84bc 4dfe b83c
00000320: c295 56bb 82e7 b23b 25ee 13bc fc66 a53d
00000330: c9e2 4abd 57f8 5f3d 0466 aebc 5d11 a3bd
00000340: be74 4e3b cd95 563c a75c 8b3d ef7b cc3c
00000350: 7a42 29bd 7190 17bd e842 0c3d a639 2d3c
00000360: 6dac 13bc f5a5 6f3d c1f7 87bc 858d 2d3d
00000370: 21b7 013c 2f2b 83bd 5cc6 e1bc 812c 68bd
00000380: e2f7 14bd 97d0 b3bd f5ae 6ebd d291 db3b
00000390: d311 e1bc 36c8 8d3c e537 773d 8177 42bd
000003a0: 8ba4 a53d 3e82 093d cf2e 863d 5cee a63d
000003b0: 9694 b13d 0ea5 d53c c3bf 193d c294 33bd
000003c0: bfe9 11bd 4768 0bbc f217 9abd 294d 453d
000003d0: f7a9 c3bc 10a2 b43d 1568 02bd f524 8d3d
000003e0: 3648 a9bb 05d4 493d 792f f73b 7b04 3fbc
000003f0: 256d 9b3c cad5 4dbd e2ba 8dbd bf91 00bd
0.00973068 0.010733154 -0.07049632 -0.07010186 0.056342006 0.030803235 -0.030099636 0.03556604
0.0048387246 0.03383584 0.042200398 -0.07275307 -0.0776634 0.06266046 0.07721699 0.0674692
0.019706434 -0.022244664 0.08745548 -0.053168137 0.02764984 -0.052403096 0.044484925 0.07868771
0.00499334 0.061021905 0.05434216 0.031543177 -0.0058384687 -0.085284136 -0.005346731 -0.08286939
0.05521172 0.064998366 0.023714611 -0.08354026 0.02377095 -0.08216555 0.034112703 -0.01723389
0.004188198 -0.024504865 -0.02131756 0.022379871 0.010943066 0.058023706 0.017386628 -0.08548794
-0.019169377 0.027429845 0.031234546 -0.07371565 0.009320254 0.008197884 0.032575406 0.068544604
0.023607474 -0.05463253 0.045301806 0.04370155 0.03335621 -0.00037468583 0.035480566 0.048238356
-0.0139727555 -0.047248337 0.051580254 0.083354585 0.025383553 0.059446383 -0.00083889154 0.009444682
0.041720945 -0.086179 0.054508407 -0.069754094 0.03374579 0.066686176 -0.07008126 0.005396759
0.08472747 -0.018788096 -0.06273565 0.051019985 -0.03369564 -0.003373879 -0.068848394 -0.041979294
0.0745286 -0.07910565 -0.014455095 0.05760033 0.004683866 0.040791903 -0.0196877 0.021923495
0.03547104 0.07993111 -0.071354024 -0.07079861 0.07513968 -0.08230787 0.025659455 0.08723206
0.02814748 -0.0500695 -0.049589414 -0.05257456 0.07796389 0.02804404 0.047269717 -0.06148508
-0.08574362 0.039472844 -0.06936226 -0.004308791 -0.07418393 -0.001849679 0.08084757 0.040115908
-0.063608214 -0.07574969 0.02838898 -0.031930853 0.017556133 -0.059442747 -0.07015221 0.05718591
-0.059153568 0.061574716 -0.0051616007 -0.056180086 0.054767217 0.05504094 0.08221426 0.06357555
-0.055246104 0.06404725 -0.013168678 0.05199389 -0.00067490834 0.046917167 0.05268609 0.023721723
0.0033063176 0.02169231 -0.03653525 -0.036160354 0.08082986 -0.049628306 -0.022649864 -0.019383283
0.01685501 0.0631214 -0.0015855974 0.050567392 0.00212533 -0.08285276 0.052791722 0.013345305
0.05144824 0.010893533 0.027776197 -0.03932747 -0.018866425 -0.023320094 -0.050252356 -0.049070947
-0.035303056 -0.06585096 0.00031386776 0.073861934 0.07617192 -0.05762348 0.078691006 0.07956504
0.04208859 -0.042375147 -0.039598905 -0.035161104 0.08142214 -0.054718453 0.0009197187 -0.050440267
0.032075208 -0.066270486 0.051569033 -0.017808076 -0.06918394 0.077997044 0.044595256 -0.068211496
-0.058702398 0.030935777 -0.05787912 -0.0016498081 -0.07475134 -0.08328286 -0.016184865 0.022582198
-0.0032743071 0.005459727 -0.009028946 0.08076283 -0.049532685 0.054680195 -0.02128888 -0.07962296
0.003150269 0.013097239 0.068047814 0.02496144 -0.041323163 -0.037002984 0.034243494 0.0105728265
-0.0090132775 0.05850788 -0.01659763 0.04237129 0.0079171965 -0.06404721 -0.027560405 -0.056683067
-0.036369212 -0.0878002 -0.05827232 0.0067007327 -0.02747432 0.017307382 0.06035604 -0.04747725
0.08088025 0.033571474 0.06551897 0.08150932 0.08670919 0.02607968 0.037536394 -0.04384304
-0.03562331 -0.008508748 -0.075240985 0.04816929 -0.023884756 0.088199735 -0.03183754 0.068918146
-0.005166079 0.049274463 0.007543501 -0.011658783 0.018972943 -0.050252713 -0.06920411 -0.031388994

lstm.bias_ih_l0 f4 [512]
00000000: 20b2 57bd b471 b53d e91c 0ebc 45a7 143e
00000010: 83f3 adbd 468c 9bbd d0f3 3a3c a91f 68bc
00000020: 4c36 0ebd 9e35 96bd 9ef2 90bc 00e7 2dbd
00000030: c524 59bd 5887 5b3d b431 82bb 716a f0ba
00000040: a5ab c3bd 6087 42bd ed51 b0bc 42fb 123d
00000050: 1aee 08bb 3c47 9ebd ead0 2fbd 7ab6 a43d
00000060: 91ab 61bd 347e 453d 3bea 41bd 85d9 1d3e
00000070: 5cad 97bd 4308 593c e8ea 2abd d3f5 7d3d
00000080: 0450 9dbd 73f0 c7bc b5dd a4bb 4d47 f13d
00000090: 783c dfb9 1118 613d 28c0 7c3d 040b 263d
000000a0: c8dd a4bd 8c9a 043e fdb9 54bc 4f53 97bd
000000b0: 5f29 ac3d 62fe a7bd 2ab8 ca3c b20e 6b3d
000000c0: 7eda 42bd 833d 3cbc 1cc5 02bd 9533 e1bd
000000d0: c7a1 48bd 905d 7e3d 1e9a bd3b 04f7 143e
000000e0: 7cf8 06b9 f592 90bd 068f 95bc 8cb4 72bc
000000f0: a445 7cbd 1cff 0e3d b6f2 183d b402 0a3d
00000100: 5c76 643d 7746 3dbd fddd 1f3d 4d0d f73c
00000110: 1957 d33d 13e3 3bbc 7f26 afbd 7c33 313c
00000120: cba7 e13c 6ef6 de3c 8786 013d b547 bfbc
00000130: 0610 653d 16d9 453b cef4 8dbb 6bea 55bc
00000140: 0391 8abd be12 6ebd e9cc 82bd 4d1b 04bd
00000150: c54d 81bc 62a6 39bd 2d1c 56bd 046f 523d
00000160: 281f dfbd 5984 19bd f444 093c 67ab 9c3d
00000170: f90a 8fbd 752f 263b 1904 15bd 105c 24bd
00000180: 9fe5 c8bd b636 cbbc cab8 423d deea 26bd
00000190: 5d79 173c 8ec9 88bd ba89 60bd d7ec 283d
000001a0: 6c17 e53c 00e2 66bd df64 fb3c 6107 e4bc
000001b0: 4435 fcba 2fe9 d53d e293 10bd 593a 8b3c
000001c0: e478 30bd 9b2f 753d 4db7 f43d ddf6 76bd
000001d0: 9f16 6f3d 5d22 f13d bcb7 803d 892c b63d
000001e0: ba13 14bd 905e e33d 000b 733d a6a9 93bd
000001f0: 2abd efba 3f54 60bc 9531 0a3d e71f 3d3d
00000200: 9150 4d3d 8892 aebd 6b4b e4bc f166 b7bb
00000210: 599a 753d 1dbb ac3d fe59 953d a229 553d
00000220: 82ed 58bd ce27 163c 4f9a 413d cc07 0e3d
00000230: f1cc 55b9 833c a6bd b2bb 5fb9 9228 bebc
00000240: dddb e03c 4b29 b0bd 6dcc 63bc 93ee 96bd
00000250: 6b68 813c eff0 2dbd 5608 1bbd e647 96bd
00000260: e902 91bc 0c1c 1bbd 0150 40bd 401c 9dbd
00000270: d5dc 67bd 0f4f 6bbd 12ad 34bd 5804 44bd
00000280: c092 6c3d de29 72bc 539f 50bd a322 9e3c
00000290: f89a 88bd c3e0 903d ad28 213d bfd1 9c3d
000002a0: bf39 8ebb 5f52 86bd 5a46 ed3c 8b38 433d
000002b0: 29d4 903d 798f 013d 2a2b 4bbd 0b81 a83d
000002c0: 3e75 7e3c 4d29 c6b9 ece9 70bd c6f3 713d
000002d0: 8269 9b3d 1fd1 52bd 4c27 abbc 51cf 263d
000002e0: b522 113d bc88 c73b ed84 1ebc fc3e 25bd
000002f0: 0266 dabb 7405 b0bd c134 2b3c 51d6 8f3d
00000300: a270 783d e82f 8a3d ee60 7bbd 1e51 3a3c
00000310: f9b0 0c3d af57 333d ec55 8e3c 8c47 753d
00000320: 9ae1 2f3d 4840 77bd c4af 2cbc 52f2 72bd
00000330: 3d9a 533d 6dcd 09bd 8dc6 343d 81b8 bf3c
00000340: e5d5 52bd 2c21 633c bc02 f63c c1d1 f33c
00000350: bdef 23bc 75b3 9bbc 745f 9d3d 79eb 4e3d
00000360: 0aca ad3d b7eb e3bc 94d0 003d e663 ed3b
00000370: 6d8d 7abd 680a b23d d9f5 a6bd b130 84bd
00000380: 6d31 3f3c 7c9e a53d 4937 62bd c616 8d3d
00000390: ca62 e1bc 5275 b8bb 88fd 22bd 4da8 87bd
000003a0: b242 6fbb b1fe abbd 18d8 c13c f9c5 083d
000003b0: 17d0 7d3d 1210 61bd 3bd5 963d 8616 fcbc
000003c0: 0869 9bba 76c1 7dbd 4dea 97bc d588 8abd
000003d0: d202 dd3c b835 b0bd c6ec 923d 54a0 bbbc
000003e0: cf38 563d 47aa 2b3d 1661 333c 1452 de3c
000003f0: 2bf7 31bd e34b 1fbd 8703 15bd 35a0 8f3c
-0.052660108 0.08859578 -0.008673885 0.14516933 -0.08493712 -0.075951144 0.0114106685 -0.014167705
-0.03471975 -0.073344454 -0.017693814 -0.042456627 -0.05301358 0.05359587 -0.00397321 -0.0018342269
-0.09554223 -0.047492385 -0.02152344 0.03588415 -0.0020893873 -0.07728431 -0.042923845 0.08042617
-0.05509526 0.04821606 -0.04734252 0.15415008 -0.074061126 0.013246599 -0.04172793 0.062002014
-0.076812774 -0.024406647 -0.0050313124 0.11781178 -0.00042578927 0.054954592 0.061706692 0.04053785
-0.08050114 0.1294958 -0.012983796 -0.07388937 0.084063284 -0.082028165 0.02474602 0.05738706
-0.04757165 -0.011489275 -0.03192626 -0.109961666 -0.048982408 0.062100947 0.0057861945 0.14547354
-0.00012871803 -0.0705928 -0.018256675 -0.014813554 -0.061589852 0.03491126 0.037340842 0.033693984
0.05577694 -0.04620978 0.039030064 0.03015771 0.10319347 -0.011467713 -0.085522644 0.0108154975
0.02754583 0.027217116 0.031622436 -0.023349622 0.055923484 0.0030189208 -0.0043321615 -0.013056378
-0.0676594 -0.058123343 -0.0638674 -0.0322526 -0.015784154 -0.04532469 -0.052272964 0.051375404
-0.108946145 -0.037479732 0.008378256 0.0764988 -0.06984515 0.0025357876 -0.03638086 -0.04012686
-0.09809422 -0.024806362 0.04753951 -0.04075133 0.009245244 -0.066790685 -0.054818846 0.041241493
0.02796527 -0.056367874 0.030687748 -0.02783555 -0.0019241949 0.10444867 -0.035297282 0.016995596
-0.04308404 0.059859853 0.11949024 -0.06029402 0.058371183 0.117741324 0.062850446 0.08895213
-0.036151625 0.11102021 0.059336662 -0.07210092 -0.0018290628 -0.013691961 0.03373869 0.046173003
0.050125662 -0.08524042 -0.027867993 -0.0055969884 0.05996165 0.084341265 0.07292555 0.052041657
-0.05296088 0.009164764 0.0472663 0.034675404 -0.0002038961 -0.081170104 -0.00021336859 -0.023212705
0.027448589 -0.08601626 -0.013903719 -0.07369723 0.01579686 -0.0424661 -0.037849747 -0.07337932
-0.017701583 -0.037868544 -0.046951298 -0.07671404 -0.056607086 -0.057448443 -0.044110365 -0.047855705
0.05775714 -0.01478049 -0.050933193 0.019303625 -0.06670183 0.0707412 0.039345432 0.076571934
-0.00434038 -0.0655868 0.02896421 0.047661345 0.07071716 0.031630967 -0.04960171 0.08227738
0.015530882 -0.00037796274 -0.058816835 0.05907037 0.075884834 -0.051468965 -0.020892762 0.040725056
0.03543349 0.006089298 -0.009675247 -0.04034327 -0.0066649923 -0.0859479 0.010449589 0.070232995
0.06065429 0.06747419 -0.061371736 0.011371879 0.03434846 0.043784793 0.017374955 0.059882686
0.04293976 -0.060364038 -0.010539953 -0.059313126 0.051660765 -0.033643175 0.044134665 0.023403408
-0.051473517 0.013862889 0.0300306 0.029763104 -0.0100058885 -0.01900647 0.07684222 0.050517533
0.084858015 -0.027822359 0.031448916 0.007244575 -0.06117003 0.08693391 -0.081523605 -0.064546
0.011669499 0.08086869 -0.055228505 0.06889109 -0.027512927 -0.00562922 -0.039792567 -0.06623898
-0.003650826 -0.08398188 0.023662612 0.033391926 0.061966028 -0.054946966 0.07364889 -0.030772459
-0.0011856863 -0.061952077 -0.01854434 -0.0676438 0.026978884 -0.08603996 0.07174067 -0.022903599
0.05230027 0.041910436 0.01094844 0.027138747 -0.04344861 -0.03889073 -0.036380317 0.017532447

lstm.bias_hh_l0 f4 [512]
00000000: 1866 96bb 776f 383d e06f 66bd 6de1 103d
00000010: 0fef b9bd 11b7 90bd 40c2 a739 5c04 943d
00000020: 5b23 153d 5d71 5b3c 2bd5 3bbc 9e7b 1e3d
00000030: 449c e43d a5a7 bebc b3d5 813c 7d20 633c
00000040: a2ce c1bd 56cf dabd dc83 b63c 51cd 75bd
00000050: cff5 12bc 01e2 34bd 1cdb 473d 3eb1 0d3e
00000060: 1413 19bb 0a26 4f3c 8e7c e3bd 05dd 6b3d
00000070: cccd edba 2592 133e 360a dfbd 283f 85bb
00000080: d48a acbd 3af2 85bd 7785 1bbd c316 adbc
00000090: dca3 1abb f93d a93c ce34 d43d 771c bf3d
000000a0: 1c92 74bd edc6 e03d ab33 a83d 777d 023b
000000b0: 533e 0bbb 0675 cebc 688a 9c3a 0a5c 443d
000000c0: afc2 a2bd 1cbc 51bc b0fe 323d 07d5 0dbe
000000d0: 0a7a 28bd aa09 aa3d bc02 333c 04d3 383d
000000e0: 254b 95bd 036e 10bc 723c cbbc 0c43 e33d
000000f0: 58e3 1f38 27ed 7e3d 0eb8 2dbd eb60 c33c
00000100: 8a12 adbc 4833 91bc 1477 05bd c13b 893c
00000110: 7bde fd3b bdcc 9ebd 532f dbbc d852 d53d
00000120: 4329 ecbc fdca 8c3d e2fd 153e 1638 553d
00000130: 554f 1f3d dee0 913d bd45 93bd f814 aabd
00000140: 4799 083d 105c a6bd f5dd 9ebd 83fb 383d
00000150: f2e4 5fbd 9e31 92bc 6267 b53c 5e66 4abd
00000160: 3ee5 55bc d08a a03c 47cd 31bc d83a b83d
00000170: 13e6 bbbb b10c 6d3c e34e c8bd 2bf7 a1bd
00000180: 2407 403d d310 483d a7cd bd3d 4fd0 9b3d
00000190: bdf1 203d bd51 893d ba92 483d 9c75 eb3c
000001a0: d3e2 eebc 54b9 81bd c3ce 2abd e017 e53c
000001b0: 5f6e 11bd 4b91 403b 7ce7 c13b 75b4 0ebd
000001c0: e540 473d ce86 f8bb 2d82 9e3d dbc3 fdbc
000001d0: 8a83 81bd 0776 3abc f512 4dbc b843 b53c
000001e0: 4395 383c 6a8d bb3c 35da 8a3c 26a9 80bc
000001f0: 5d07 00bc 8bf0 813d 06cd c3bc ffba 513d
00000200: 13c4 a63d 08ff 2bbb b9a9 ad3d 7a91 9ebd
00000210: 162c a2bd ad71 bcbb 1040 823d 5b71 3c3d
00000220: ef94 423d 1756 aa3d 89c2 6e3b 4b3e 8abd
00000230: b42a 593d 9857 c63c b6a7 99bc be9d 40bd
00000240: 4128 b2bc 22e5 473d 8e5c ddbb 5670 d0bc
00000250: a4f0 5fbc ca1d 72bd ae89 06bd 3efd 9dbd
00000260: 5087 a03d 6c1b 753c 1238 013d 0aab 8ebd
00000270: d9a4 633d 87f6 0fbd d6c5 b53c ce85 a83d
00000280: 8558 a6bd 7ced b4bc 612b 833d 27d6 afbc
00000290: 2390 183c df84 533b 5ba4 23bd 784c 683d
000002a0: 5d9c 65bd 4aa2 293d d282 023c 4ae8 0a3c
000002b0: 6cda 8d3c 8e43 30bd 3d7e 3ebd 36de 28bd
000002c0: 196c 79bc 6f09 383d bf3f 6dbd 5ad7 92bd
000002d0: f857 1c3d 33d8 d7ba 2ad5 893d ad1d aebd
000002e0: 627e 9bbd 8dd6 293d 719e 52bc 83d5 903d
000002f0: 7478 a4bc a366 25bb 8597 873d 0763 7b3d
00000300: 7f22 bd3c 307d 5e3d 3347 c63c 6345 7b3d
00000310: eb05 383d 1b7c 47bd a6c5 44bd 8903 9cbb
00000320: 4641 143d ac04 a5bd a22e a9bd 4169 cebb
00000330: 67bf 99bd a4d0 9a3d f95d 13bd 6b39 fb3c
00000340: f3cd 0a3d ee06 8a3d 100d 573d 9cb9 8c3c
00000350: 11b6 813c fb1d 883d 6756 113d cdd9 a23b
00000360: a3e6 983d aa9b 7b3d 7bdb 9bbd 66c2 35bd
00000370: 67f3 2e3d 1a42 77bd e64f dcbc 7c72 68bd
00000380: 29bb 62bd c6fc 9fbc 46ef efbc 0ce9 b23d
00000390: c563 9b3d c16e 223d 20cb 77bd 0e5d 86bc
000003a0: 3a14 91bd 20d7 9ebd 1f9a 8a3d 0ee9 edbc
000003b0: f5fa 8cbd 1d49 893d 2466 0ebd d4bd 003d
000003c0: f6c0 273c 370e d63c ff29 9a3d 7d0b 71bc
000003d0: ba63 4e3d 0757 47bd 47ca 24bc dce7 d0bc
000003e0: 21b9 1e3d 5c43 9e3d 032f c4bc 20e4 963d
000003f0: b7e3 78bc e7f2 053d f521 fabc ff42 2fbd
-0.0045898072 0.045028176 -0.056259036 0.035371233 -0.090788 -0.07066167 0.0003199745 0.07227394
0.03641067 0.013393727 -0.011464397 0.03869211 0.11162618 -0.023273299 0.01584897 0.013862726
-0.0946324 -0.106840774 0.022279672 -0.060010258 -0.008969738 -0.044160847 0.048792943 0.13837144
-0.0023357319 0.012643347 -0.11107741 0.057583828 -0.0018142997 0.14411218 -0.108906195 -0.0040663667
-0.08424917 -0.06540342 -0.03796908 -0.021129018 -0.0023596203 0.020659434 0.10361634 0.09331601
-0.059709653 0.10975442 0.0821298 0.0019911209 -0.0021246865 -0.025202285 0.0011943104 0.047939338
-0.07947289 -0.012801196 0.04369992 -0.13850795 -0.04113201 0.083026245 0.010925945 0.045123115
-0.07289723 -0.008815291 -0.024809096 0.110967726 3.8120284e-05 0.062237885 -0.042411856 0.023849925
-0.021127004 -0.017724648 -0.032584265 0.016752126 0.007747469 -0.077538945 -0.026755964 0.10416192
-0.028828269 0.068746544 0.1464763 0.05205544 0.038894016 0.07122968 -0.07191036 -0.08304781
0.0333493 -0.08123028 -0.07757179 0.045161735 -0.0546617 -0.017845925 0.022144023 -0.04941403
-0.013055144 0.019597441 -0.010852165 0.089955986 -0.005734214 0.014468358 -0.097806714 -0.07908472
0.04688181 0.04884417 0.09267741 0.07608091 0.03929304 0.067050435 0.048968054 0.028742604
-0.029160893 -0.06334177 -0.04170109 0.027965486 -0.03550565 0.0029383476 0.0059174877 -0.034840066
0.048645873 -0.0075844293 0.07739673 -0.03097718 -0.06323917 -0.011380679 -0.012516727 0.022127017
0.0112660555 0.02289458 0.016949752 -0.015705656 -0.007814256 0.06344708 -0.023901474 0.051203724
0.08142867 -0.002624454 0.08479638 -0.07742591 -0.07918565 -0.005750856 0.06359875 0.04600654
0.047505315 0.083172016 0.003643187 -0.06750163 0.05301924 0.02421169 -0.018756729 -0.047025435
-0.02174771 0.048802502 -0.006755418 -0.025444191 -0.013668213 -0.05911044 -0.032846145 -0.07714318
0.07838309 0.014960151 0.031547613 -0.06966217 0.055577133 -0.035147216 0.022189062 0.08228646
-0.081223525 -0.022085898 0.06404758 -0.02146442 0.009311709 0.0032275242 -0.039951663 0.05671355
-0.056057323 0.041414537 0.00796576 0.008478234 0.017316066 -0.043033175 -0.04650711 -0.041227542
-0.015223526 0.04493087 -0.05792212 -0.07169981 0.03816983 -0.0016467631 0.06730111 -0.08501754
-0.07592465 0.041464377 -0.012855158 0.07071974 -0.020076968 -0.0025238178 0.06620697 0.061373737
0.023087738 0.054318607 0.024203872 0.06134547 0.04492752 -0.04870234 -0.048040055 -0.0047611636
0.036195062 -0.08057532 -0.08260848 -0.0062991683 -0.0750721 0.07559326 -0.03597829 0.030667027
0.033887815 0.06739603 0.05250269 0.01717835 0.015833886 0.06646343 0.03548279 0.0049698115
0.074658655 0.06142775 -0.07610222 -0.044374846 0.042712595 -0.060365774 -0.026893567 -0.056749806
-0.05535427 -0.019529711 -0.0292889 0.087358564 0.07587389 0.039656404 -0.06049645 -0.016401794
-0.07083936 -0.077558756 0.067676775 -0.029041793 -0.06883804 0.067033984 -0.034765378 0.031431034
0.010238877 0.026129825 0.07527541 -0.014712212 0.050388075 -0.04866698 -0.010057992 -0.025501184
0.03875077 0.077276915 -0.023948198 0.0736773 -0.01519101 0.032702353 -0.03053377 -0.0427885

lstm.weight_ih_l1 f4 [512, 128]
00000000: fc25 a2bd d194 223d a403 ea3d 2118 373d
00000010: 5a98 b7bd 143c f73d f725 e6bd 7001 5ebe
00000020: 1442 fd3b 65de 66bd 8568 2dbd 68cd bc3d
00000030: 319b ff3b 2d9e b73d 87bf 7cbd 6342 813c
00000040: 8277 623c d53c b2bd d472 ae3d a55d 0bbb
00000050: f39a dc3c dc0f 74bc 0a9b 32bd f320 853d
00000060: 6052 5dbd b2f3 b53d 640c 5cbd a0bd 103e
00000070: 84ef 5c3b 3b16 3c3b 6395 c9bd 3918 0ebd
00000080: cf35 373d d2be e9bd b36b 303d 6b11 adbd
00000090: 2f7a 763c 00e8 773d b636 3c3c 90ad f13c
000000a0: 9980 70bd cf0f 47bb b06f 183d f2b4 2ebd
000000b0: e70b 8cbd 9bd2 b73d d836 1cbd 4ac7 6fbd
000000c0: 6e1a 66bc 964f ae3a 0dce 6cbd 52db 0e3d
000000d0: 3b76 b33d 3736 bdbd 5a6c ffbb 464f 37be
000000e0: 17d6 8e3c a182 a23c 5ece 7fbc ab00 4c3c
000000f0: 5cea a13d 6c19 96bd baff a83c 0340 163d
00000100: 02c0 32bb c00a c2bd d658 21bd acfa 5c3d
00000110: 5768 743a 7f68 a1bd d88b 333d faed 03bd
00000120: 5fa5 b43d 1300 8f3d 44a8 163d c44f aa3d
00000130: bcfb 1dbd df6d 0ebd 2e31 0bbd f67c cb3d
00000140: aa12 d33c 776a 55bd 2c23 e33c e5ec 813d
00000150: 535c e43c 0d89 dc3c 9a27 ae3d 6b57 ee3b
00000160: 9509 293d 6bfb eb3c 7136 c2bc 11f5 193c
00000170: 106e ab3d 9635 543d 1d22 09bd 5807 83bd
00000180: f85d 0abd faac 2d3e 40da e3bb ffaf bb3d
00000190: 00e9 113d d899 7fbc fe51 253d 5748 173c
000001a0: a644 81bc 4bff 8fbd 88ba 9bbc 020e b03d
000001b0: bd6e e0bd de4c d5bd 45f9 aa3d ae08 e53d
000001c0: a8ea 1f3e 2aad a43d 842e 663e e7c9 8a3d
000001d0: b2df 45bc fda2 cabd 0359 9dbd ccbe 96bd
000001e0: 2b47 a6bd f24a 2c3d 72e4 a2bc 495b 3ebd
000001f0: 5b4b 95bc 3c70 f03d d7c1 aa3d e2b8 553d
00000200: 4937 95bc e44c 43bd e9cb d8bd 9ea8 8abd
00000210: 6d65 8b3d b329 c7bd 68f9 30bb b0a0 963c
00000220: 190e 36bd 258e cfbd e29b b73c 9504 663d
00000230: 5fca 0bbe f65d a93d 4e2e 34bb c984 eebc
00000240: ccb8 123d ce91 95bd 0156 473d fdd7 59bd
00000250: dc76 3b3d e09c 673d bf35 833c f590 b1bd
00000260: 3f1b 363b 7d0a 61bd a81e 7f3c 0ff2 eebd
00000270: 891f 093d 8a4b 2cbd 707b 4abd b40a 26bd
00000280: 7fdf babc 3147 9dbd 65f3 733c 713e afbb
00000290: 404d d13d 8ffb 863c aa02 01bd d4e9 903c
000002a0: 2566 823d 5003 00be 4c80 443d c2b5 ad3c
000002b0: 5983 72bd 506b 993c 73ab 823d 589f 6e3d
000002c0: 10eb 53bd d7c0 f73b 9530 d83d 6ea3 083d
000002d0: 8b0c a2bd 783a 413d 76e8 2f3c 25ff 62bd
000002e0: 00e0 99bd 32c4 693d c0cc 663d 43f5 6ebc
000002f0: e402 d83c 799e 043d 4605 573d 76ca 513d
00000300: 3649 18bd c88b 813b 96e0 ee3c f79b d63d
00000310: 3822 7d3d dc23 5d3d 3a68 543c bf28 243e
00000320: ac39 66bd fcf0 c33a 007f a0bc 645c aabd
00000330: 6a8a ddbd 058a e03b b0db e53c e7c1 9c3d
00000340: a680 29bd c075 9dbc 63f7 94bd 0809 27bd
00000350: 5d66 723b e5fc 10bd 747b 1ebd 0f1d 5fbd
00000360: b0e9 80bd fd8c a6bc f3c1 43bd e4fd ac3d
00000370: e8bd e1bb d68e 56bd 60d9 9fbd a7ff 7ebd
00000380: 3fcf 483c 8990 ccbd 790c 2ebd 461f ae3d
00000390: 0864 983c bd03 a63d 6671 a03c 1333 d93d
000003a0: 42e4 af3c 2314 f7bc 55af ae3d eee8 463b
000003b0: 9aed babd 1bd7 a8bc 1ec6 7bba c37d dd3c
000003c0: 40fb 24bd 3949 bc3c c873 a23c 32e1 833d
000003d0: 3077 abbd cc13 bf3c 2a78 91ba f655 0a3d
000003e0: b3d1 8dbd 0d6b 5f3d 63d9 34bd d8f6 9ebd
000003f0: 59ea b1ba 46ea 67bd f08a 48bd d019 453d
-0.07917401 0.039692704 0.11426476 0.044700745 -0.08964606 0.12072006 -0.1123771 -0.21680236
0.0077288244 -0.056364436 -0.042336006 0.09218866 0.0078004827 0.089657165 -0.061706092 0.015778726
0.013822438 -0.08703009 0.085179955 -0.0021265533 0.026929354 -0.014896359 -0.043604888 0.06500425
-0.054033637 0.08884372 -0.053722754 0.14134836 0.0033712098 0.0028699774 -0.098429464 -0.03469107
0.04472905 -0.11413349 0.04307146 -0.08450588 0.015043779 0.060523987 0.0114876535 0.029501706
-0.05871639 -0.0030374413 0.03721589 -0.04265303 -0.06838208 0.08975717 -0.03813824 -0.058539666
-0.014044387 0.0013298865 -0.057813693 0.03487713 0.08762785 -0.09238856 -0.007794899 -0.17901334
0.01743607 0.01983768 -0.015613167 0.012451331 0.07906029 -0.073290676 0.020629752 0.03668214
-0.002727509 -0.09474707 -0.03939136 0.053949997 0.0009323409 -0.07881259 0.043834537 -0.032209374
0.088206045 0.06982436 0.036781564 0.08315995 -0.03857015 -0.03477275 -0.03398245 0.09935944
0.025765736 -0.052103486 0.027726732 0.06344012 0.027876055 0.02692082 0.08503647 0.0072736046
0.041268904 0.028806409 -0.0237076 0.009396807 0.08370602 0.051808916 -0.0334798 -0.06397885
-0.03378102 0.16960517 -0.0069535077 0.09164428 0.035622597 -0.015600644 0.040361397 0.009233556
-0.015779804 -0.07031115 -0.019009843 0.08596422 -0.10958622 -0.10415052 0.08348326 0.11183296
0.15616858 0.08040841 0.22478682 0.06776791 -0.012077259 -0.09894369 -0.07682993 -0.0736061
-0.08119043 0.04206366 -0.019884322 -0.046473775 -0.018224409 0.11740157 0.08337753 0.05217827
-0.018214839 -0.04768075 -0.10585768 -0.067704424 0.06806455 -0.0972475 -0.0027004126 0.018387169
-0.04444704 -0.10134534 0.022413198 0.056156714 -0.13651417 0.08269875 -0.002749342 -0.029116051
0.035820767 -0.07303201 0.048666004 -0.053184498 0.04576765 0.056546092 0.01601684 -0.086702265
0.0027787236 -0.054941643 0.015571274 -0.11667263 0.03347734 -0.042064227 -0.049434125 -0.04053755
-0.02281165 -0.07679594 0.014889573 -0.00534802 0.102198124 0.016477374 -0.03149668 0.017689623
0.06367139 -0.12501264 0.047973916 0.021204833 -0.059207294 0.018727928 0.063803576 0.05825743
-0.051737845 0.00756083 0.10556141 0.033358984 -0.07912549 0.0471749 0.010736575 -0.055419106
-0.07513428 0.057071872 0.05634761 -0.014584842 0.026368566 0.032377694 0.052495264 0.051218472
-0.037179194 0.003953431 0.029159825 0.10478967 0.06180021 0.053989276 0.012964303 0.16031168
-0.056207344 0.0014949138 -0.019591808 -0.08318403 -0.10817416 0.0068523907 0.028058857 0.076541714
-0.041382454 -0.019221187 -0.07273748 -0.040780097 0.0036987283 -0.03539743 -0.038691953 -0.05447107
-0.06294572 -0.0203309 -0.047792386 0.08446863 -0.0068890937 -0.052382313 -0.07805133 -0.062255528
0.012256443 -0.099885054 -0.042492364 0.08502059 0.018602386 0.08106182 0.019585323 0.10605445
0.021471146 -0.03016097 0.08529536 0.003035124 -0.0912735 -0.020610383 -0.0009604412 0.027037507
-0.040278673 0.022984134 0.0198306 0.06439437 -0.083723426 0.02332487 -0.0011098434 0.033773385
-0.069247626 0.05454545 -0.04415263 -0.077619255 -0.0013573869 -0.056619905 -0.048960626 0.04812032

lstm.weight_hh_l1 f4 [512, 128]
00000000: 7f64 c7bb 5547 2cbb 6bd6 9bbd d368 363c
00000010: 2d3d 773d 81e1 a93d c4f7 6abc 897c 363d
00000020: 984d 89bc eb6b 303d fe49 963d b825 f5bb
00000030: 8350 b73c ece7 90bd 54bf a5bd fa99 f0bc
00000040: 77ad 443d ed2c 6cbd 6a12 9bbc c440 05bd
00000050: 37e4 5c3d a90b 9abd 9297 6d3d ea02 4bbd
00000060: f12a a73c 80e4 043d 6789 573d 192d 833c
00000070: 9202 e7bc d7f4 f83c f3b9 a0bc fd1a f3bb
00000080: 7017 393d a8c8 993c 5deb 803d 5526 82bd
00000090: 7572 953d 53a0 b1bd 846a 893d c34f 6abd
000000a0: a3de 2b3d 942e 6dbd 66a8 c73c 507e 1b3d
000000b0: ae37 90bc a748 5ebd a3fb 7c3d f39b 9e3c
000000c0: 7745 a13d 9209 933c 5a85 503d b2a7 8abd
000000d0: 48fe 2d3d 11fa a93d 22b0 363d d45e f3bc
000000e0: 365a 96bc d982 753d bff4 8a3d 4b78 903c
000000f0: f4a7 4ebd df7f 3a3c bf07 593d 9966 2d3b
00000100: 0179 843d e4ad 8e3c c73a 863d 7709 a2bd
00000110: e0ba afbd 5dfa 5dbd caf8 99bd e05d 8e3d
00000120: 6d6e 41bd c2d4 a73d 3dc7 4dbc cf4e 983d
00000130: fe1a 8cbd 63aa 9d3a df6e 9d3d f54d 5cbd
00000140: ca16 86bc 4da5 a3bd a4bf 703d fd4b 58bc
00000150: abe1 57bd 6aed 5dbd 8524 08bc 80fb c43c
00000160: 6a30 603d 2f2a a13d ec1d f4bc a46b 173d
00000170: fd28 e4bc d47b a13d 4ba9 9b3d 56e0 da3b
00000180: ae3c 0fbc 525d a5bd b8be f9bc c228 60bd
00000190: c106 483d 8b5e a1bd 9cf4 b63c 71dc 42bc
000001a0: f7e9 793d a8e2 adbd 488f ca3c 84ee 66bd
000001b0: 7954 6d3d 3789 b7bc f62a 83bd 28e1 233d
000001c0: bdda e0bc 1bb4 653b 7934 003c 1676 663d
000001d0: e30f 33bd 2a01 2abc 85b7 63bd 75a3 b4bc
000001e0: 2446 acbd 0043 d73b 4396 fd3c bddf 6bbd
000001f0: ef20 a2bd 5ea1 8d3b f28f 94bd e85d 2e3b
00000200: 21e5 133c c3bd 723d 27e8 373d 75d2 153d
00000210: a02b 653d fede 88bd 20ec 47bd 3172 98bd
00000220: f750 86bd 196f 50bd 0083 b8bc af0f d0bc
00000230: e8df 3abd 2769 0d3d d06a 99bc 81be 32bd
00000240: da62 513d d16c 983d 1996 a8bd 836e aabd
00000250: a80d 313c ae00 833d 3cb4 733d 5e3c b63b
00000260: 67ea 943d 01df aebd ad6a 6e3b cfff b23d
00000270: 2667 493d d7cb bfbb 841c 64bd 164d 8c3d
00000280: f9fa 9e3d 171a 7abb d203 8ebd 313c f1bc
00000290: 1033 cbbb 63ce 593d 728e 8bbd 44ba 90bd
000002a0: 79e3 e7bc facf b23d 147c 803d a85c 70bb
000002b0: c537 a93d 2074 80bd 99be 33bd 6288 b1bc
000002c0: f68e 19bc 8f02 63bd 36f1 f5bc 70fa ac3d
000002d0: 894a 1e3d 56db 883d 8823 403d fec1 553d
000002e0: 1b5d f33b d67f 08bd eeef 073b cfde a4bd
000002f0: b73e 04bd 0b5d e13c 26ee f3bb 97c3 a53d
00000300: 5962 e93c e4d9 4cbd d61b e1ba 9cc9 a2bd
00000310: 19e1 1fbd c482 843b 1133 e4bc c6fa bf39
00000320: f15c 703d 5f4c 2c3d 429b 823d 2b3a 64bd
00000330: e17b 743d 73af 4f3d 1ce0 91bd 4b62 993d
00000340: 08c6 4f3a 49cb 91bd bc92 663d ec6e 04bd
00000350: b9af 7cbc ccbb fabc ffd1 41bc e778 49bc
00000360: 05d9 803d 5624 a8bd 2304 9b3d 5cee 6dbc
00000370: f121 9c3c b211 6d3d 1124 b0bc cbfe 55bc
00000380: 3322 613d 6a63 e43c d1a7 2f3d 9186 6b3d
00000390: 9088 113d d258 af3d 2ffa b1bd 9a32 823d
000003a0: 0952 733d cd75 93bd 5298 783c e624 9e3d
000003b0: 1339 013d b47f 4e3c aef4 7d3d cf7b 2bbd
000003c0: 57fc b33d 88e9 de3c 13b1 aa3d 46a5 64bd
000003d0: ca33 98bd ac2a 24bd a9a5 f53c e98f 953d
000003e0: 01da 523d 2cfb f6bc 2c96 ec3c 9740 163d
000003f0: 2518 3fbc 430c f1bc 41ff ad3d 5a76 a03d
-0.006084978 -0.0026287634 -0.07609256 0.0111333905 0.060361076 0.082949646 -0.0143412985 0.04455236
-0.016760632 0.04307167 0.07338332 -0.007481303 0.022377258 -0.070754856 -0.080931336 -0.029370297
0.04801699 -0.057660032 -0.018929679 -0.03253247 0.05392858 -0.07521755 0.058005877 -0.049563326
0.020406218 0.032444477 0.05262127 0.016012715 -0.028199468 0.030390186 -0.019619917 -0.0074189887
0.045188367 0.018772438 0.06294892 -0.063549675 0.072972216 -0.086731575 0.06709769 -0.057204973
0.04196037 -0.05790575 0.02437229 0.037962258 -0.017604675 -0.054268505 0.061763417 0.019361472
0.078745775 0.0179489 0.050908424 -0.067702666 0.04247883 0.082996495 0.044601567 -0.029708304
-0.018353563 0.05993924 0.06784963 0.017635485 -0.05045314 0.011383026 0.052985903 0.0026458858
0.06468392 0.017416902 0.0655418 -0.079119615 -0.085805655 -0.054193843 -0.07518156 0.06951499
-0.04722445 0.08194877 -0.012559709 0.074369065 -0.06841086 0.0012028929 0.076871626 -0.053785283
-0.016368289 -0.07990513 0.058776513 -0.013201711 -0.052705448 -0.054181494 -0.008309488 0.024045706
0.05473367 0.07869374 -0.029799424 0.03696789 -0.027851576 0.078849465 0.076006494 0.006679575
-0.0087424945 -0.0807444 -0.03048645 -0.05472637 0.048834566 -0.07879361 0.022333436 -0.011893378
0.061014142 -0.08490497 0.024726525 -0.05637981 0.057941888 -0.022404296 -0.064046785 0.040009648
-0.027448053 0.0035049978 0.00782501 0.05626496 -0.043716323 -0.010376254 -0.05559494 -0.022050599
-0.08411816 0.0065692663 0.03095544 -0.05758642 -0.07916438 0.004322215 -0.07254018 0.0026606265
0.009026797 0.059263002 0.044899132 0.03657766 0.055949807 -0.066831574 -0.04880917 -0.07443655
-0.065584116 -0.0508872 -0.022523403 -0.025398104 -0.04562369 0.03452411 -0.01872769 -0.04363871
0.051119663 0.0744263 -0.08231754 -0.0832186 0.010806479 0.06396614 0.059498057 0.0055613955
0.07271271 -0.08538628 0.0036379502 0.08740198 0.049170636 -0.005853157 -0.055691257 0.068506405
0.07762713 -0.0038162523 -0.069343224 -0.029447647 -0.0062011555 0.05317534 -0.06814279 -0.07066777
-0.02830671 0.08731075 0.06273666 -0.0036676321 0.0826259 -0.06272149 -0.04388294 -0.021671478
-0.009372463 -0.055422362 -0.030022245 0.08446205 0.0386453 0.0668246 0.046908885 0.05218696
0.0074268705 -0.03332504 0.0020742374 -0.0805031 -0.032286372 0.027510187 -0.007444161 0.080939464
0.028489279 -0.050012484 -0.0017174433 -0.0794861 -0.03903303 0.004043909 -0.027856382 0.000366172
0.058682386 0.04206502 0.06377269 -0.055719536 0.059688453 0.05070443 -0.071228236 0.07489451
0.00079259323 -0.07118852 0.05629228 -0.032332346 -0.015422755 -0.030607127 -0.011829852 -0.012296892
0.06291393 -0.082100555 0.075691484 -0.014522161 0.019059153 0.057878204 -0.021501573 -0.013061236
0.054964256 0.027879436 0.04288465 0.05750138 0.035530627 0.08561863 -0.08690297 0.06357308
0.059404407 -0.07200203 0.015173035 0.077218816 0.03154857 0.012603689 0.062000923 -0.04186612
0.087883644 0.027210966 0.083345555 -0.05582168 -0.07431753 -0.040079758 0.02998622 0.07302839
0.051477436 -0.030149065 0.028880201 0.03668269 -0.011663471 -0.029424792 0.084959514 0.07835074

lstm.bias_ih_l1 f4 [512]
00000000: e4c2 67bd bb5a 873c 40a7 5a3d 8a46 973c
00000010: a6ee 83bd ba71 65bb f777 563d 76a9 73bd
00000020: 04d6 b3bc 30c2 29bc ab98 323d ede8 9e3d
00000030: 60d0 2bbd befd 82bd e9b6 a2bd fd38 0f3e
00000040: ab28 0dbd 44f9 5bbb b8d8 99bd e05a 75bd
00000050: 109f a23d 83ea 41bd 67bb 8fbc 6c0a 863d
00000060: 1029 18bd 7d7f 9a3d 571d 86bd a5a2 2abd
00000070: a875 103d 2460 8239 f141 123d f49e 143e
00000080: 0324 e5bd 70c0 9cbd 1425 5e3d 268d 413d
00000090: 35e3 98bd 3625 a63d 82bb ecbc 9ff3 fd3b
000000a0: 7a72 17bd f1c5 e0bd d4af b2bd 3195 043d
000000b0: aac6 683d 3f06 dfbd 3b8e 383d 7f89 9fbd
000000c0: 3ae2 60bd a92e 06be 3bb4 68bd 665d 403d
000000d0: 659c 8d3d da3a 17bd 52c4 823d e6d0 613d
000000e0: 7096 ca3c 8690 f1b9 97fb 2cbd b7ee 9fbc
000000f0: e802 563d b6db ccbb bba6 923d f4fa 8a3d
00000100: 336f 41bc 30c4 bc3d 6706 923d be0c aabd
00000110: 4375 b23c 376f ca3d 5c26 9fbd 02b3 a83d
00000120: ea98 95bd 276c 80bd 0219 e6bd 4b64 3bbd
00000130: b828 a8bd 5ae6 50bc 16d9 573d cc9b 9d3d
00000140: 3247 a6bd c6da 1cbd 6a64 d3bc 2874 3ebd
00000150: ed25 8d3d 5675 b73d be65 59bd 47a3 b0bd
00000160: 51d3 9f3c 3bc4 8a3d 17cd d7bd 5c95 05bc
00000170: ffc1 d53d a48e 293d dd80 b03b 0f31 54bd
00000180: b59c 033d 264b afbc de32 af3c f1c7 dabc
00000190: 6edc 0b3c f259 4bbd 9573 02bd 3784 473d
000001a0: ac46 3e3c 3741 903b 09d1 e0bc 8302 6d3d
000001b0: 65eb 6c3d f4a8 023d 823a c8bb e6b4 fb3b
000001c0: 174b 8bbd 895d 93bc f13c 253d 5f3f 5cbd
000001d0: 5f7a b0bd bf60 86bd 2390 8b3d 6a29 a73c
000001e0: f3b5 4fbd a494 6b3d fc7f f73d 77b5 2ebd
000001f0: 7528 aebc bd81 193d 41fc 1abb 7f53 2bbd
00000200: 88f3 d33b caa2 e83b d309 c03c 190e b4bd
00000210: 7fc3 0f3d f28e ae3d 4261 b83b e3ad 193d
00000220: 2318 aebd f972 7fbd d5eb 2fbc c177 883d
00000230: af87 a33d e8a7 283d ea1e 893d 29e2 0cbd
00000240: 9bb6 23bd c082 d33c 7a2a 50bd 76d7 373c
00000250: 253e 7ebd 9376 1ebd 6b29 a3bc 8f85 763d
00000260: 7d94 b33d 73a4 42bc c657 8fbb 4a6b 41bc
00000270: 9c59 97bd 2cf8 9c3d 06ad dfbb bf28 533d
00000280: 1623 9dbc 528c 783d eff7 023d c61f cbbc
00000290: b267 9f3d 4007 963d adcb 08bd 5360 02bd
000002a0: 2044 2dba 31d4 863d ce10 eabc 17cc a3bd
000002b0: 4a42 643d bb29 18bd 7ce4 073c 7d6f 83bd
000002c0: a898 253d 3f3b 17bd 2040 14bc 3f65 bebb
000002d0: 437c 92bc 9036 9a3d 3ea2 00bd 92b5 4dbd
000002e0: ca18 923d cfa0 6fbd 9ffa 523d d50f 813c
000002f0: 5780 7b3d 5fd8 8dbd 86f3 95bd ec40 24bd
00000300: 0a3f 0e3d f11e a33c c348 5e3d 1225 913b
00000310: a815 b4bd 8a45 03bc d1a5 40bd bdae 52bd
00000320: abbf 033d 2a89 3a3d a783 a33d ff25 eabc
00000330: 65fe 5fbd 9145 7e3d 3746 a73d 2c60 8abd
00000340: 9009 88bb 0a2d 96bd f94b 95bd 9ee2 c0bc
00000350: cc72 b43d 2a04 79bd 2263 8aba a9e5 e3bb
00000360: dcb0 363d 2652 91bb 5baa 3e3d 3bf9 843d
00000370: d0dc b03d 978d 8d3d 549a 0fbb bb12 3b3d
00000380: 75e4 d83c b90b 993d 6b04 a43d e793 783c
00000390: 5248 583d b698 1a3d d4e7 9e3d d125 34bd
000003a0: 47a2 01bd c903 a23d 0de3 f03c e680 36bd
000003b0: 5bc3 c73c e378 34bd f422 b2bc c551 03bd
000003c0: 8111 cabc 7aba afbd 4090 9ebd 6376 943d
000003d0: 0d2c 9b3d d0c8 04bc df2c 0d3c 3182 583d
000003e0: 849e 403d 7797 2fbc a171 4e3d b0c5 8e3d
000003f0: e23b 873c d258 fbbb e47f b73c 6ca2 f7bc
-0.056582347 0.016522756 0.05338216 0.018466253 -0.06442003 -0.0035010413 0.0523605 -0.059487782
-0.021952637 -0.010361239 0.043602627 0.07759271 -0.04194677 -0.06396054 -0.079450436 0.13986583
-0.034462612 -0.0033565322 -0.07512039 -0.05990112 0.07940495 -0.04734279 -0.017545415 0.065449566
-0.037148535 0.07543848 -0.06548565 -0.041659016 0.035268456 0.00024867163 0.035707418 0.14513761
-0.11188509 -0.07653892 0.05423458 0.04725375 -0.07465211 0.08112566 -0.028898004 0.007749989
-0.036974408 -0.10975254 -0.08724943 0.032368843 0.056830086 -0.10889863 0.045057517 -0.07789897
-0.054903246 -0.13103737 -0.056812506 0.04696407 0.069145955 -0.03692136 0.063851014 0.05513086
0.024729937 -0.0004607478 -0.042232122 -0.019523008 0.052248865 -0.0062517775 0.071607076 0.06786147
-0.011806297 0.09217107 0.071301274 -0.08303212 0.02178443 0.09884494 -0.07770988 0.08237268
-0.07304557 -0.062706284 -0.112352386 -0.045749944 -0.082108915 -0.012750233 0.052697264 0.076957315
-0.08119048 -0.038294576 -0.025804717 -0.046497494 0.068919994 0.08957927 -0.053075545 -0.08624893
0.019509943 0.06775709 -0.10537165 -0.008153286 0.104373924 0.0413958 0.0053864555 -0.0518046
0.03213187 -0.021398138 0.02138656 -0.026706668 0.008536441 -0.049646325 -0.03184851 0.048710074
0.011613529 0.0044023055 -0.027443426 0.057863723 0.057841677 0.031899408 -0.0061104903 0.007681477
-0.068014316 -0.017988937 0.04034132 -0.053771373 -0.086170904 -0.065614216 0.06814601 0.02040549
-0.05071063 0.0575148 0.12084958 -0.042653527 -0.021259526 0.037477244 -0.002364889 -0.041827675
0.00646824 0.007099484 0.023442185 -0.087917514 0.03509855 0.085233584 0.0056268284 0.037519347
-0.085006975 -0.062365506 -0.010737379 0.06663466 0.07984864 0.041175753 0.066953495 -0.03439537
-0.039969068 0.025819182 -0.05082176 0.0112208035 -0.062070984 -0.0386873 -0.01991721 0.060185965
0.08768556 -0.011880028 -0.004374477 -0.011805365 -0.073901385 0.076645225 -0.006826046 0.05155253
-0.01918177 0.060680695 0.03197473 -0.024795424 0.0778345 0.073256016 -0.033397365 -0.031830143
-0.00066095777 0.06583441 -0.028572466 -0.079979114 0.05572728 -0.037149172 0.008294221 -0.06417749
0.040428787 -0.036921736 -0.009048492 -0.0058104093 -0.017881518 0.07529938 -0.031404726 -0.050221987
0.071336344 -0.05850297 0.051508542 0.01575462 0.06140169 -0.06926035 -0.07321839 -0.040100977
0.034728087 0.019912215 0.05426861 0.004429468 -0.08793193 -0.008012185 -0.047033135 -0.051436175
0.03216521 0.045540966 0.07984095 -0.028582571 -0.05468597 0.062078062 0.08167689 -0.067566246
-0.0041515306 -0.07332809 -0.07289881 -0.02354556 0.08810958 -0.060794987 -0.0010558108 -0.006954868
0.04460226 -0.0044348417 0.046549182 0.064928494 0.08635867 0.06911772 -0.0021912055 0.04567216
0.026476124 0.07472939 0.08008655 0.015171981 0.052803345 0.037743293 0.077590615 -0.043981377
-0.0316489 0.07910878 0.029405141 -0.04455652 0.024385145 -0.0440606 -0.021745183 -0.032060403
-0.02466655 -0.085804895 -0.07742357 0.07249143 0.075767614 -0.008104518 0.008616655 0.052858535
0.047026172 -0.010717264 0.050401334 0.069713 0.016508047 -0.0076705003 0.02239985 -0.030228816
