models/save_models/lstm_features_temporales.pth (torch, 940864 bytes, 19 tensors)

lstm.weight_ih_l0 f4 [512, 18]
00000000: 487b 0a3e 9fb1 e33d 4333 b5bb 71f0 49bd
00000010: 9679 d7bd 45b9 573d e06e a43d fe9b 15be
00000020: 3d5c b73c f33f a03d daba 3cbe 6cfc af3d
00000030: c294 6a3e c93c d4bd 2f13 6dbe adb2 25be
00000040: 8a5b c5ba 1c58 233c 05f7 503e 93ec 85bd
00000050: 1ef5 0bbf afbc 48bd f9ed 14be f962 31bd
00000060: b7ab 04bd 039c 103e e35f bd3d 4ec7 623c
00000070: 8731 9cbd a506 b63c 21e3 a03e 7fba 09bd
00000080: 034e b0be 9e39 3dbe f575 85bb dd3a 5bbd
00000090: c296 7fbe e2b8 0f3d 6f28 6cbd 04b1 ea3c
000000a0: a2ce b9bd 80dc c0bb 91a0 cc3e bdbb ae3d
000000b0: b52a ec3d cd01 67bd b2dc fabd 3eaa 053e
000000c0: 6e65 efbc 4f86 b1be 3c20 e3be dfcb 80bd
000000d0: 97bd b4be 2449 363d f9bc 97bd e76c cebd
000000e0: b926 48be d45c 57bd 6e8b bcbb d43e a63d
000000f0: 3bc2 1bbd 6c28 1f3e 163e 3dbe 072b bfbd
00000100: aafd fb3d 5426 583d 64eb 3e3e 48ad bbbd
00000110: ef55 bbbe c898 e7bd 0fa1 3a3a 26c8 d53d
00000120: 7b56 63bc ae30 3a3c 7d78 893d 6f59 a6bd
00000130: 5986 853c ab02 1dbd 623d 1c3e 17b3 71bb
00000140: be48 333e 5495 0f3c 4ea4 09be a04d 42bc
00000150: d4f0 c53d 8831 183e 0edc e83b fc58 9bbc
00000160: ac59 363c b6d8 0ebd c437 a33d 51fb 42be
00000170: 5716 383d d692 8f3d 09bb 03be d77d 913d
00000180: 128a ebbc 646d 87be 9bef 1c3d 7087 b73c
00000190: 9ed2 ddbd d316 b53c b78c 09be 9841 97be
000001a0: 5c59 203e d8af d5bd b20c 74bd c092 d83c
000001b0: a25b ac3d c142 24be 5309 d7bd 5907 67bd
000001c0: 1a00 2b3c 6d9b 383d 6cdd f7bd 88e3 49be
000001d0: 8499 d3bd d4cc bc3d f800 e9bd dee4 6e3c
000001e0: 6b9f 353e 530f e4bd b866 2c3e 067b 0ebd
000001f0: 2814 163e 1842 043c 6d3f 09be a474 76bd
00000200: b13a c7bd a5af 65bd ef6f 4c3d 6e94 633d
00000210: 0c77 24be 9c4b 823d 3a2f 2e3d 86ea 6b3b
00000220: 51f3 013e 8019 c63d 50b6 4a3e 20d9 523b
00000230: fd63 543e 1e6b 56bd fd36 883d f553 cb3c
00000240: ca77 43bc ff52 29bd 449d 7fbc cef3 183e
00000250: 23d0 88be 5df9 a9bd 3687 033f c1ff 733e
00000260: 5bf9 33be f947 b6bd 5ef3 9abd f6b8 c73d
00000270: 6f73 2e3e 9365 43bc f5d2 8fbe 1c5e dabd
00000280: 84fd 3abe d0a2 683d 2408 a93d 3d09 88bb
00000290: e2be 14be 9802 773d 2689 02bc 33d8 553d
000002a0: 82ec cf3d 1f3f 093d 3930 8b3d 1485 abbd
000002b0: 9d7b 21bc 5a6d f33b 1de9 0b3e 5dbc 873c
000002c0: a06b f3bd 7aad fc3b 8de1 36be 7bc7 e1bc
000002d0: 096b ba3c bf3e 5dbe b4e6 20bc 25e5 d73d
000002e0: 78cc 73bc 374b 3c3c 043c 8cbe b70c 8cbd
000002f0: 17f2 ca3b 06c3 b43d c8d6 f63d 98aa b8bd
00000300: 0103 093e f21f 9fbd 8265 eabd 8d40 82bd
00000310: 07de 093d af38 a8bd 2fd5 223e f709 aebc
00000320: c2af 23bd 9f27 44bd 0cf1 983d 9b2d 58bc
00000330: 9ef4 97be fb5e d4bd 31b6 153e 5179 2cbd
00000340: 4a30 a43d ec5a e5bd 9beb 1bbe 4fc9 9d3d
00000350: 93ae dabd bf3a 1ebe 8dc3 8c3d 765f f4bc
00000360: 77de 82be fd94 f0bc d922 2d3d 5367 fbbc
00000370: bdfb e0bd 7f3a 0d3d fc33 80bd 93a5 d2bd
00000380: 057d c93d 13c5 903d ecd7 67bd 4993 c0bd
00000390: d5a5 853e 92f9 133e f8f7 7e3d 1524 06bd
000003a0: 70b8 4b3e 2085 b33b dda7 dd3d 6a53 4cbe
000003b0: 90db 19be 2f5e a33e 67f8 1dbe de08 673d
000003c0: 5d95 083c a373 89be 61e1 1d3e 3a5e 5e3e
000003d0: a2bd d2bd c8d6 7abc 8ef6 9b3d 9f93 38be
000003e0: 73cc 09bc 2d63 c8bc 2772 79bd 84a9 bfbd
000003f0: 97eb 203d 0ca2 35be b2b0 3a3c e646 c4bb
0.1352359 0.11117863 -0.0055297925 -0.04930157 -0.105212376 0.05266692 0.0802896 -0.14610288
0.02238285 0.07824697 -0.18430653 0.085930675 0.22908309 -0.10363156 -0.23151849 -0.1618144
-0.0015057188 0.009969737 0.2040673 -0.065392636 -0.54670894 -0.049008068 -0.14543904 -0.04330728
-0.032390323 0.14122014 0.092468046 0.013841463 -0.07626634 0.022219965 0.31423286 -0.033625122
-0.34434518 -0.1847901 -0.0040728995 -0.053522933 -0.24959853 0.035088427 -0.057655748 0.02864886
-0.09072615 -0.0058856606 0.39966252 0.08531902 0.11531583 -0.0563982 -0.122491255 0.13053223
-0.02922317 -0.34672782 -0.4436053 -0.06288885 -0.35300896 0.044503346 -0.074090905 -0.10079365
-0.19546022 -0.052578762 -0.005753926 0.08117452 -0.03802703 0.15542763 -0.18480715 -0.09334379
0.12304242 0.052770928 0.18644482 -0.0916391 -0.36589 -0.113084376 0.00071193365 0.10438566
-0.013875599 0.011364145 0.067124344 -0.08122527 0.016299414 -0.038332622 0.1525779 -0.0036880428
0.17508218 0.00876363 -0.13441584 -0.011859328 0.09665075 0.14862645 0.0071063107 -0.01896333
0.011129778 -0.03487464 0.07969621 -0.19041182 0.04494318 0.070104286 -0.12864317 0.0710408
-0.02875236 -0.26450646 0.038314443 0.022403449 -0.10831188 0.02210561 -0.13432585 -0.29542232
0.15659088 -0.1043393 -0.05958242 0.026437163 0.08415915 -0.1604109 -0.10499825 -0.05640349
0.010437036 0.0450701 -0.1210278 -0.19715703 -0.10332015 0.09218755 -0.11377138 0.014580933
0.17736594 -0.11135735 0.16836059 -0.034785293 0.14656126 0.008072399 -0.13403101 -0.06016983
-0.09727991 -0.05607571 0.049911436 0.055561475 -0.16061038 0.063620776 0.042525508 0.003599794
0.12690474 0.096728325 0.19796109 0.0032172874 0.20741268 -0.05234825 0.06651113 0.024820307
-0.011930415 -0.041338917 -0.01560146 0.14936754 -0.26721296 -0.082995154 0.5137819 0.23828031
-0.1757559 -0.089004464 -0.0756595 0.097520754 0.17036222 -0.011926073 -0.28090635 -0.10662481
-0.18260771 0.056795895 0.08253506 -0.004151492 -0.14525941 0.060305208 -0.007967269 0.052208137
0.10152532 0.033507463 0.06796307 -0.08374992 -0.009856132 0.007428807 0.13663144 0.01656931
-0.11885762 0.0077111097 -0.17859478 -0.02756094 0.022756116 -0.21605967 -0.009820629 0.10541753
-0.014880292 0.011492542 -0.27389538 -0.06838363 0.00619341 0.0882626 0.12052685 -0.09016913
0.13380052 -0.07769765 -0.11445142 -0.06359968 0.033659007 -0.082139365 0.15901636 -0.021244986
-0.039962538 -0.047889348 0.07467851 -0.013194467 -0.29678816 -0.103696786 0.14620282 -0.042107884
0.08017023 -0.111989826 -0.15226595 0.07704412 -0.10677829 -0.15452097 0.06873236 -0.029830676
-0.25560352 -0.029367918 0.04226956 -0.030688917 -0.10985515 0.034479614 -0.06259915 -0.10285487
0.09838299 0.07068839 -0.056602404 -0.094030924 0.26103082 0.14450672 0.0622482 -0.032749254
0.19894576 0.005478516 0.10823033 -0.19953695 -0.15025163 0.31907794 -0.15426789 0.05640494
0.008336392 -0.26846036 0.15418006 0.21715632 -0.10290076 -0.015309997 0.07615386 -0.18025063
-0.008410561 -0.024461353 -0.06089988 -0.093585044 0.039287176 -0.17737597 0.0113946665 -0.005989897

lstm.weight_hh_l0 f4 [512, 128]
00000000: e2a4 543d 3bf6 203c a16b ae3c deda 563d
00000010: 21e7 1d3d 5d26 d7ba f50d 76bc c5f6 9f3d
00000020: dfd3 26bd 49f3 60bd 0536 3fbc ee20 a83c
00000030: b7da 643c 8eae 92bc 93f3 3ebd 3220 663d
00000040: f106 93bc 0fca a43c c981 82bd b8ba be3c
00000050: e837 adbc 62a5 823d a8fb 2a3c 33cf 82bd
00000060: 2360 003d dd25 d53c dd29 9c3d f72c 8b3d
00000070: 25ee 13bd f9b8 2d3d 6ef9 94bc 65c3 0dbb
00000080: 7949 6a3d 98c5 a6bd 09c2 7f3d d2c6 8ebd
00000090: 8bdd dc3b 5655 713c 7104 75bc c3a5 6ebd
000000a0: 4573 7d3d 6ae7 a1bd 5ab1 ab3d ba5d b1bd
000000b0: c53e 61bd b76d a53d 90a7 c23c 99b3 6e3d
000000c0: 9d37 52bd 875d 72bd 2ecf 8dbd 08aa a23d
000000d0: 092a b03d dfa7 683c f7e7 b33d d09e 663d
000000e0: f589 d2bc 76b4 aebd d699 6dbd 1c25 16bc
000000f0: 127b 39bd ad65 a2bd 8d0e 553d d13e d43c
00000100: 9225 873d ab6c 653d e0e4 26bd fc90 f8bc
00000110: 30e4 a6bc c3d6 b5bc 5b08 ec3c a789 89bd
00000120: b6d6 803c 721d 313d d4db 083d a158 ab3d
00000130: c4e0 bfbc 252e 893d 1674 af3d 12c7 adbd
00000140: 849a b33d c061 c43c 2c81 913b 7b1b 70bd
00000150: cafd 4e3d 555d 8c3b 986d a4bd 19de 833c
00000160: 5b59 ab3d ec1c c7bc 8c14 38bd d494 303c
00000170: 76c7 483c 8ed5 5ebd c12b 7d3d 6c1d 8abd
00000180: 63fc 56bd 7e02 9e3d ac51 e4bc 028d 8a3c
00000190: ef06 903d 174c aa3d 45a9 d2bc d688 afbd
000001a0: 8e02 703d 3749 b4bd 73c4 efbb b0f3 9cbb
000001b0: a401 85bd b85d 933c f29d 9a3d eed6 8d3b
000001c0: e04a 68bd 794c 50bc 811a 83bd 2baa 83bc
000001d0: cd38 89bd 87e8 20bd e619 8f3c c804 803d
000001e0: 4251 9a3d 081b d6bc cb50 7ebd 7ce1 dabc
000001f0: cdee 273d 5fcc 523d f66c a1bd b399 a6bc
00000200: 925e 3fbd 1177 5ebd 8889 4fbd eb7d ad3d
00000210: 5c6b 9abc cf7b 863d 3342 1d3d afc5 173c
00000220: 935c 4d3d bcc1 96bd 813d a2bd 34b6 31bd
00000230: f613 363d bf19 963d c30a 20bc 7763 7e3d
00000240: bb70 11bd 41d3 45bc aab0 49bd bbad 633d
00000250: 0fd6 ca3c da06 9b3d fde3 463d bf6c b03c
00000260: b8cf 563d 7b0d 8f3c f405 853c dcf5 453c
00000270: fbaf 663d b52f 013d 1cfd 5c3d 7ba7 a33c
00000280: 5a3f 733d 477d efbc df50 fabc 5a14 8fbc
00000290: deda 0ebd 0e62 983d d955 0fbd 4b65 853d
000002a0: 95da 713d f09e 1dbc c04c e7bc 6d57 e23c
000002b0: 9f47 913d 6e2f c9bc 70de 4b3d 5522 263d
000002c0: 7b08 04bd 6472 7c3d 78bc 613d 5f4c 17bd
000002d0: a7eb a73c f4de aebc 21b2 ac3d b9ee 6d3d
000002e0: d3a7 32bc d0d5 1ebd 1c85 213c 4ae5 3cbc
000002f0: 4247 bf3c 5354 a6bd 4f0f 6d3d 2183 8cbd
00000300: b936 d53c 82e5 4b3d 8b73 213d b70d 173d
00000310: de99 17bd 3ad1 40bb fc12 923d ab1f 4ebc
00000320: 8ede acbd f324 ac3c 8634 3abc b57d a7bd
00000330: 0832 37bd 4541 98bd 994e ae3d 7687 8a3c
00000340: a5f6 6fbd acca 8e3d 754b 43bd 7cfc 4abc
00000350: c0eb 253c 3bad eabc 85f7 943d 6dd4 67bd
00000360: f5ea aabd eb75 34bd 6cbe f7bc c041 a2bd
00000370: bb06 ddba 9143 00bd ae67 2bbd 0f13 893c
00000380: 11ac 103c 1203 683d 8cb3 b83b 087e 7fbd
00000390: b25a 49bd a7fe 9fbb 23e8 fc3c 4965 83bd
000003a0: 34e7 40bd a38f 9e3d 193e 0c3d 7ab9 b4bd
000003b0: 2a40 9abd 5c32 a23d 1f4e 923d 3e6e 82bd
000003c0: 6b2a acbd 408f 82bd ae96 423d 195c 3ebc
000003d0: 7a29 9cbd d0be b93c 6cdc 82bc 5fe9 85bd
000003e0: e8d9 9fbd aa62 6c3d 1cfb 253d c150 7f3c
000003f0: 9d97 86bd 7105 1f3c bffd 58bd 837d 2b3d
0.051915057 0.009824331 0.021291556 0.05245482 0.0385505 -0.0016414631 -0.015017976 0.078107394
-0.0407294 -0.054919515 -0.011670594 0.020523515 0.013968161 -0.0179055 -0.04661901 0.056183048
-0.017947646 0.02011588 -0.06372411 0.023282394 -0.021144822 0.063792005 0.010435976 -0.06387176
0.031341683 0.026019031 0.07625172 0.06795686 -0.036115784 0.04241273 -0.018185344 -0.0021631357
0.057198975 -0.08143157 0.062440906 -0.06971516 0.006740277 0.014729818 -0.014954672 -0.05826355
0.061877508 -0.07905467 0.083834365 -0.08660455 -0.054991502 0.08077567 0.02376154 0.058276746
-0.05132257 -0.059171226 -0.06924282 0.07942587 0.086017676 0.01420018 0.08784478 0.0563038
-0.025700549 -0.08530514 -0.058008038 -0.009164121 -0.045283385 -0.07929549 0.05201583 0.02590886
0.06598963 0.056011837 -0.040745616 -0.030342571 -0.02037248 -0.022197133 0.028812578 -0.06715708
0.015727382 0.043240972 0.03341277 0.08366514 -0.023422606 0.066982545 0.085670635 -0.08485235
0.08769706 0.023972392 0.0044404473 -0.058619957 0.050535 0.004283587 -0.08028716 0.016097115
0.083666526 -0.024305783 -0.04494147 0.010777671 0.012254586 -0.05440288 0.061809305 -0.06743893
-0.05248679 0.07715319 -0.027870975 0.01691294 0.070325725 0.08315294 -0.02571548 -0.08571021
0.058596186 -0.08803027 -0.0073171197 -0.004789792 -0.064944535 0.017989025 0.07549657 0.0043286
-0.05671203 -0.012713545 -0.064015396 -0.016072353 -0.06700287 -0.039284255 0.017468404 0.06250912
0.0753503 -0.026135936 -0.06208877 -0.026718847 0.040999223 0.051464435 -0.07882111 -0.020336961
-0.04672105 -0.05431277 -0.05066827 0.084712826 -0.018850021 0.06566583 0.03839321 0.00926344
0.050137114 -0.07361171 -0.07921887 -0.043386653 0.04445263 0.073291294 -0.009768191 0.062106576
-0.0355079 -0.012074293 -0.049240746 0.055585604 0.024760274 0.07569666 0.04855727 0.02153623
0.05244419 0.017462483 0.01623819 0.012082543 0.05632017 0.031539638 0.05395232 0.019977322
0.05938659 -0.029234542 -0.03055614 -0.01746576 -0.034876697 0.074405774 -0.03499398 0.06513461
0.059046347 -0.009620413 -0.02823484 0.027629578 0.07093739 -0.024558749 0.04977268 0.040560085
-0.03223465 0.06163253 0.05511138 -0.036938068 0.02049811 -0.021346547 0.08432413 0.05808899
-0.01090427 -0.038778126 0.009858396 -0.011529276 0.023349408 -0.08121552 0.057875928 -0.06860948
0.02602707 0.049779423 0.03941683 0.036878314 -0.037011974 -0.0029421584 0.07132527 -0.012580792
-0.084408864 0.021013713 -0.011365062 -0.081782736 -0.044725448 -0.07434324 0.08511085 0.016910296
-0.058584828 0.0697225 -0.047679383 -0.0123892985 0.010127008 -0.028647056 0.07273773 -0.05659907
-0.08345596 -0.044057768 -0.030242167 -0.07922697 -0.0016862968 -0.031314436 -0.041846924 0.01673272
0.008830086 0.056643553 0.005636638 -0.062376052 -0.04915876 -0.004882652 0.03087241 -0.06415803
-0.047095492 0.0774224 0.03423891 -0.08824439 -0.075317696 0.079197615 0.07143807 -0.06368683
-0.08406528 -0.06374979 0.04750698 -0.0116186375 -0.076250985 0.022673994 -0.015974246 -0.06538653
-0.07805234 0.05771128 0.04052268 0.015583218 -0.06571887 0.009705887 -0.052976366 0.041867744

lstm.bias_ih_l0 f4 [512]
00000000: b63a 923d 0bc7 8b3d c6d8 693d 0af2 943c
00000010: cf78 423b 2e16 b6bb a10c 3b3d 60fa b83d
00000020: 79b4 6b3d c9a5 dfbc a3dc 223d debe 663d
00000030: 07d3 2ebb a3ec a6bc faf5 863d bc87 c0bc
00000040: 2ddc be3b 4775 213d dfa7 f2bd 9506 4c3a
00000050: d778 383d 02fd 013d 2d68 7fbd ff9d ac3d
00000060: a297 d03c dc13 b9bd c879 a9bd 40d3 1e3d
00000070: d760 593d ba90 673b 6a28 2c3d 25d5 93bd
00000080: d852 1a3d d3f5 5abd 17b2 17bb 5d58 9ebd
00000090: 03b0 fdbb 3aee a7bc 9a65 ae3b 6d4b d4bd
000000a0: dfd0 0c3c 5746 15bd 7050 b7bd 48cd 59bc
000000b0: e19f 1aba 7c14 7e3d 7272 2bbd c30b b53c
000000c0: 1451 5d3d 4b31 bebd cdf7 423d 9c15 333d
000000d0: f47a 773d 344d cebc 3a54 d6bd 6ddb 903d
000000e0: fdd0 6c3d 8698 a2ba e28a 1cbd 9892 163d
000000f0: d21c 053c 1358 d33d 4886 ad3d d1d2 973d
00000100: 6402 1fbe 3dd6 7abd 2dd6 b7bb 16e4 77bc
00000110: e99d 053e 34c3 3f3d 147c 88bd e66c d4bd
00000120: 313e 2a3c eaf2 b03d 3b9e fbbd 7618 9d3d
00000130: 5d4b 953c 3e7c d7bd 7feb 50bd e382 6f3d
00000140: 32f7 843d 4792 8ebd cff0 b23c e775 c2bd
00000150: 7936 7b3b 1d52 cdbd bc50 cf3b 353f 80bd
00000160: 813b 8e3d 6b9d 91bd 2da5 fe3c 34ef 06be
00000170: 734c c33c fa45 823d fd24 84bd cc4b 643a
00000180: 4aa1 e9bd 94c4 123d ee59 f5bd 5b80 363c
00000190: 6057 953d 1405 ba3d 31eb 84bd 6640 5fbd
000001a0: 570b 963c 691b d3bd 52e1 0cbd 10f9 dd3c
000001b0: cd32 143d 9b79 3fbd 5672 bb3d 4829 ac3d
000001c0: 4ea2 7ebd 3503 093c 07ad 97bd d768 54bd
000001d0: 1a64 16bb d6f3 8bbd 97a3 0f3d 2002 58bc
000001e0: 5cc4 83bc fb63 e93d 82cc eabc ede3 c3bb
000001f0: c320 0fbe c475 3b3d 9e48 28bd 75ca 753d
00000200: 9d25 fc3c 0d7e 623d ca58 11bd 5f8b 023d
00000210: a1b2 383d bf85 70bd bdb8 8e3d 60e9 6bbc
00000220: bfb3 953d 52fc 8a3d 3b21 913d 2af0 a2bb
00000230: ab10 27bb 9984 97bd 435d 9b3d be06 8b3d
00000240: 7056 3b3d 3549 62bd 4845 063d 04d3 b3bd
00000250: 4c3b 643d ab34 873d 2284 76bd 5832 913d
00000260: e34c 683d c201 46bd e93e e83b 414d 74bc
00000270: 610d 07bd d30d 6ebd d643 58bd 456a b2bd
00000280: 7053 4f3d 8a6b 9a3d d4db 52bc f0a3 9cbd
00000290: e443 29bd fee4 7bbd 34cf 12bd 2682 3ebd
000002a0: 244e 41bd 597e 9dbc 8aa0 983d ba00 96bd
000002b0: f5ce a4bd 7abe 82bd 22d3 9abd c014 84bd
000002c0: fdd2 0cbd fb70 73bd bf8c 313d c1d8 113d
000002d0: efa3 083d 6a0b a63c 8b5d 56bb a21d b5bb
000002e0: 7f76 553c 0fed 24bd 56d6 8cbb fc72 ab3d
000002f0: d6fc 7b3d 7569 9e3c 66e6 0dbb ba59 4a3d
00000300: 97dd 1a3d 48fd 0a3b a135 4dbd af56 ba3b
00000310: 3148 2b3d b2bd 37bd 1fc5 9d3c 2760 6b3c
00000320: 9157 12bd 3c28 b2bb bc4f 803d 6b8d a93a
00000330: b576 a2bd 3c14 00bd 66c6 ff3b 004c b43c
00000340: 284e 83bc 152a f7ba a33e ffbc f370 443d
00000350: 2df0 c6bb 9047 7b3d 31a4 b2bd 0029 fbbc
00000360: 8dda 8d3a 295f adbd 943b acbd 2a8a 37bc
00000370: 6eaa 88bd 0cde b33d 8027 44bc 1c28 853d
00000380: 3029 3e3d b250 8bbd bf5e 943d e694 b43b
00000390: 2dd8 823d 8745 493d d254 443d 3d9e 483d
000003a0: 687b 883b 55a5 6cbd 020e 873d 9368 88bd
000003b0: f3f7 acbd 95ec 3cbd ac2b 77bb e0e6 1b3d
000003c0: ecf9 8fbc 148d de3c ee4c abbb acf0 35bd
000003d0: 0536 a1bd 1add 163d c958 ab3d 685d fdbc
000003e0: 5c8e adbd bbcc 44bd 5961 c93b b8ca b1bc
000003f0: 5191 a1bd f5d7 fd3c fecb 98bd 942b adbd
0.071401045 0.06825074 0.057091497 0.01818182 0.0029674058 -0.0055568432 0.04566634 0.0903213
0.05754516 -0.027300732 0.039761197 0.05633437 -0.0026676075 -0.020376509 0.06589885 -0.023502223
0.005824587 0.039418485 -0.11848425 0.0007782963 0.045037117 0.031735428 -0.06235521 0.08428573
0.02546293 -0.09036991 -0.08275181 0.038775682 0.05307087 0.0035334066 0.04203073 -0.072183885
0.037676662 -0.053457092 -0.0023146921 -0.07731698 -0.0077419295 -0.020499337 0.0053221704 -0.10365949
0.008594721 -0.036444034 -0.08950889 -0.013293572 -0.00058984576 0.062031254 -0.04185719 0.022100335
0.0540324 -0.09286746 0.047599602 0.04372178 0.06041999 -0.025183298 -0.10465284 0.07073102
0.057816494 -0.0012405075 -0.038218386 0.036760896 0.008124547 0.10319533 0.08472878 0.07413257
-0.15528256 -0.06123947 -0.0056102485 -0.0151300635 0.13048519 0.04681702 -0.06664291 -0.10372333
0.010390804 0.08640082 -0.122860394 0.07670681 0.018224413 -0.10521744 -0.051005837 0.058474433
0.06492461 -0.06961494 0.021843342 -0.09495144 0.0038332029 -0.100254275 0.006326763 -0.06262056
0.06944943 -0.07110103 0.031084621 -0.13177186 0.023840165 0.06361003 -0.064523675 0.00087088044
-0.114077166 0.035832003 -0.11980043 0.011139001 0.07292056 0.09083 -0.06490172 -0.054504775
0.018315954 -0.103079624 -0.03439457 0.027096301 0.03618126 -0.04674683 0.09152667 0.08406311
-0.062166505 0.008362581 -0.07406049 -0.051857796 -0.0022947849 -0.068336174 0.03506812 -0.0131841
-0.016084842 0.11396023 -0.02866197 -0.0059780986 -0.13977341 0.045766607 -0.04108488 0.06000753
0.030779654 0.055295993 -0.035485066 0.031871196 0.04509223 -0.0587213 0.0696883 -0.014398903
0.073096745 0.067864075 0.07086416 -0.0049724774 -0.0025492113 -0.07398338 0.07586148 0.06788395
0.04573673 -0.055245597 0.032780915 -0.087804824 0.055720612 0.066018425 -0.060184605 0.070896804
0.05671395 -0.04834152 0.0070875776 -0.014910997 -0.032971743 -0.058118653 -0.05279907 -0.087116756
0.05061668 0.07540043 -0.012869794 -0.07648456 -0.04132451 -0.06149768 -0.035842136 -0.046510838
-0.04719366 -0.019225286 0.074524954 -0.07324357 -0.080472864 -0.06383987 -0.07559802 -0.0644927
-0.0343809 -0.05943392 0.043347117 0.035607103 0.033359464 0.020269115 -0.0032709565 -0.005527214
0.01302874 -0.04026514 -0.004298012 0.08371541 0.06152042 0.019337395 -0.002165222 0.049401976
0.03780898 0.0021208096 -0.050099973 0.005686603 0.041816894 -0.044858642 0.019259034 0.014366186
-0.03572804 -0.005436925 0.06265208 0.0012935823 -0.07932798 -0.031269297 0.0078056334 0.022008896
-0.016028479 -0.0018857146 -0.031157797 0.04795928 -0.0060711117 0.061347544 -0.08722723 -0.030659199
0.001082258 -0.08465416 -0.08409801 -0.0112023745 -0.06673132 0.087825865 -0.011972308 0.06501791
0.046426 -0.06802501 0.07244634 0.005510914 0.063888885 0.049138572 0.047932453 0.048979033
0.004165102 -0.05777486 0.06594469 -0.06660571 -0.0844573 -0.04612406 -0.003771524 0.038061976
-0.017575227 0.02716688 -0.0052276766 -0.044418976 -0.078716315 0.036831953 0.08366544 -0.030928329
-0.084744185 -0.04804681 0.006145638 -0.02170311 -0.07889045 0.030986765 -0.074607834 -0.084555775

lstm.bias_hh_l0 f4 [512]
00000000: ca0c 65bd b595 a53d aa3f 94bd a166 d7bd
00000010: 2208 3abd c961 ee3d c144 c83d 9837 b5bc
00000020: b773 323d 9406 cd3d 3456 a93d 5524 a13d
00000030: 249f be3d 0cc7 66bd 302f 593d 50a5 1bbe
00000040: b2c5 6c3d 66a9 a8bd fbde d5bd 572d f03d
00000050: 3f1b cd3d fe96 b6bc 608d 83bd 5752 f33b
00000060: c9be 4fbc 8c6b 713c 145c 583c b8f8 65bc
00000070: 1838 8f3d 9ec1 19bd 2d96 543c b5e5 9a3c
00000080: 7f6f 823d e369 3ebd c94b 04bd a326 8dbd
00000090: 27dd 383d 8cc3 b0bc d850 d3bc 6329 a1bd
000000a0: eaa1 ffbb 8e1a 5fbd c47d 3e3c c46f f0bc
000000b0: f7aa 363d e724 b73d 8d0e 05bd 9a28 9dbd
000000c0: defb 183d 8414 fabd 8326 e63c 053f 133d
000000d0: 4fed 3b3c f62b ccbc a47b 153d 817e babd
000000e0: 4856 b6bc d7bd 4ebd 455d a7bd 81c1 b7bd
000000f0: 5a4d bdbc 675d 873d 0dbd 30bd 27ae e4bc
00000100: e5ee 81bd 74ed 55bc 4965 813d 69e9 e1bc
00000110: 3d6c 323e f645 223d d397 a2bc 06c3 febd
00000120: f6aa 62bd 95c3 4a3d d161 083d bb85 1ebd
00000130: 8be0 5bbd f6c3 a1bd 1f64 b0bc 7575 3e3d
00000140: 412a 6abc 8ef2 d7bd ca38 c6bc bb29 50bc
00000150: 015b 7b3c 9f21 9cbd df7f 713d b9d4 243d
00000160: befa dabc c2ae 7d3d 6783 ffbb 4b6b 10bd
00000170: c998 9b3d 7875 62bd 86ab 353c 88ba d8bd
00000180: 1f5a 76bd 04ab aabc 089c 92bc 23ee 10bd
00000190: 7234 813d f97a 8f3d fc6c f7bc 92a5 3abd
000001a0: 00f3 e1bc 8b59 2bbd 71fe 243c fefc 8e3c
000001b0: 9be3 15bd 409c d5bc b8b3 b03d c3fd af3b
000001c0: 246a 1bbd e4ea 9d3d 53d7 2f3c 8591 903b
000001d0: 723c 86bd f02f 1d3d 5733 ed3d b327 883d
000001e0: 419e a03d 21d5 053e 0262 bb3c 80f4 ebbd
000001f0: 854e 8abd cc3f aa3d 3823 48bd ee29 833d
00000200: 5f00 1d3d 9872 31bc 22a4 36bc 369b a0bd
00000210: 6bc1 6e3d c7f5 aabb 217a 3cbd 0712 103d
00000220: 7a99 093d 3bff 963d 4a4d 74bd ee4f a83c
00000230: f3dd 76bd e37d d7bc 4894 933d fe8c dd3b
00000240: 937b a33d e84c 343d 4d68 5fbd 0e9c 653d
00000250: b7a8 f8bc 48d8 883d 2f2c 9f3d 22ed de3c
00000260: 8efc fcbc 1be3 a23d bfdd 44bd 00ad 113d
00000270: 918a b23d 996f 81bc 201b 893d f422 69bc
00000280: bf05 393b 1f90 b13d baa9 a9bd 6f76 3b3c
00000290: 03e7 a7bc be7c ae3d a623 9bbb a1ae 8cbc
000002a0: cac0 19bd 50cb 103c 6c61 af3d 264a 9fbd
000002b0: 8d0d 08bd a1a8 863d 61d6 76bd 2775 7ebc
000002c0: cd6e 2ebd 2410 3abd 048a 38bd 3f62 91bd
000002d0: b9ef 703d 3849 ad3d fc1d 92bd 5eec 8b3d
000002e0: 9554 f6bc 78ba 2c3d a75e cd3c 5e9b 133d
000002f0: 71d6 423d 70c9 b9bb eadb df3c c589 32bd
00000300: 1421 64bd 7cc0 8f3d ced3 4c3d 3217 d43c
00000310: 8a44 b23c 0bf8 823d 975b 29bd f02c 3bbb
00000320: c6c3 81bd d4e3 8ebd 5fe4 a53d 16f3 b33d
00000330: 63aa 123d 9c24 95bc 448d 833d 5d67 ae3d
00000340: efc6 a73d cab5 8bbd f527 863c 7a31 203d
00000350: 2972 b0bc c96d fc3c 1a19 07bc a387 303d
00000360: cdf3 d23c 13e0 27bd dd24 2cbc 85b0 6fbc
00000370: 19ec b3bc 1172 66bd abf8 733d 285c b43d
00000380: 7b1e 803d cdcd d5bc 3143 b43d b372 28bd
00000390: f290 79bd 2f5b 953d 8c7a 943a ea43 1c3d
000003a0: fa22 a1bc a4ac 32bd a0f6 96bd c5c4 a43d
000003b0: bfdf 48bd 0b40 b4bb 510d 743d 3f45 783d
000003c0: fccb afbd 8207 b6bb 0962 b03d 1ff0 2abd
000003d0: 3e8b 03bd 2802 3d3d 9b15 aabc 7747 80bd
000003e0: 4bc4 1fbd 1308 103d 021b a8bd da24 4abd
000003f0: ecfd b03d 8221 9a3c 3e8e acbc 2ac0 a5bd
-0.0559204 0.08085195 -0.072387055 -0.10517622 -0.045417912 0.11639745 0.09778739 -0.022121236
0.043567386 0.1001102 0.08268395 0.07868258 0.093076974 -0.05634217 0.053023517 -0.1519978
0.057805724 -0.08235435 -0.10442921 0.11727398 0.100149624 -0.022288796 -0.064234495 0.007425587
-0.012679764 0.014735114 0.013205547 -0.01403635 0.06993121 -0.037538163 0.012975258 0.018908361
0.063689224 -0.0464877 -0.032298837 -0.06892135 0.045132782 -0.021577619 -0.025795385 -0.07869222
-0.007801284 -0.054468684 0.011626665 -0.029350169 0.04459664 0.089425854 -0.03248458 -0.0767376
0.037349574 -0.12210944 0.028094536 0.035948772 0.011470153 -0.024923306 0.036494866 -0.0910616
-0.022257939 -0.050474014 -0.081720866 -0.08972455 -0.023108173 0.06609612 -0.043149043 -0.027915074
-0.06344394 -0.0130571015 0.06318147 -0.027577119 0.17424102 0.0396175 -0.019847786 -0.124395415
-0.055338822 0.049502928 0.03329641 -0.038701754 -0.053680938 -0.07898705 -0.021532116 0.046498735
-0.014292301 -0.105443105 -0.024197001 -0.012705262 0.015341521 -0.076236 0.058959838 0.04024193
-0.026730891 0.06193424 -0.007797647 -0.035258573 0.07597501 -0.05528781 0.011088258 -0.10582453
-0.06014454 -0.0208335 -0.017896667 -0.035383355 0.06308831 0.07005877 -0.030203335 -0.045568056
-0.027581692 -0.04183344 0.010070429 0.01745462 -0.036594015 -0.026075482 0.08628029 0.005370827
-0.03794302 0.077108175 0.01073249 0.0044118785 -0.06554498 0.038375795 0.11582058 0.06648197
0.078426845 0.13069583 0.022873882 -0.11521244 -0.06753258 0.083129495 -0.048861712 0.06404482
0.038330432 -0.010830544 -0.011147531 -0.07842104 0.058289926 -0.005217287 -0.04601491 0.035173442
0.033593632 0.073729 -0.05964402 0.020545926 -0.06027026 -0.026305145 0.07206017 0.0067611923
0.07982554 0.044018656 -0.05454283 0.05605703 -0.030353887 0.066818774 0.07772099 0.027212683
-0.030882146 0.07953473 -0.048063036 0.035565376 0.08717836 -0.015800284 0.06694627 -0.014229525
0.0028232185 0.08670067 -0.08284326 0.011441811 -0.020495897 0.085198864 -0.0047344742 -0.017173113
-0.037537374 0.008837536 0.085635036 -0.077778146 -0.033216048 0.06575132 -0.06026304 -0.015530861
-0.042586137 -0.04542555 -0.045053497 -0.07098817 0.058822367 0.08461231 -0.07134625 0.06832193
-0.030069629 0.042170018 0.025069548 0.03603684 0.04756779 -0.005669765 0.027326543 -0.04358842
-0.05569561 0.07019135 0.05000668 0.025889967 0.021761198 0.06394967 -0.041347113 -0.002856072
-0.06336169 -0.069770485 0.08100199 0.08786599 0.035807025 -0.018205933 0.06423429 0.08515809
0.081922404 -0.06821783 0.016376475 0.039109685 -0.02153881 0.030814068 -0.008245731 0.043098103
0.025751019 -0.04098518 -0.010506836 -0.014629488 -0.021963166 -0.056261126 0.05956332 0.0880664
0.06255814 -0.02609911 0.08801878 -0.04112501 -0.060929246 0.072927825 0.0011328026 0.038150705
-0.019669998 -0.043621674 -0.07371259 0.08045343 -0.049041506 -0.0055007986 0.059583012 0.060612913
-0.08583829 -0.005555094 0.08612449 -0.041732904 -0.032115214 0.046144634 -0.020762255 -0.06263631
-0.03900556 0.03516395 -0.08208276 -0.04935155 0.08642182 0.018814806 -0.02106392 -0.08093293

lstm.weight_ih_l1 f4 [512, 128]
00000000: a748 7b3d a517 0ebb 02cb 343d f498 70bc
00000010: c8b6 b7bd 2656 1bbd 12d2 99bd 45ed 96bc
00000020: a7df c93d 001f 743d 4b4d bc3d d4b4 54be
00000030: a05f 003d d66d 4abd 6e46 063e 1293 a03c
00000040: 5a13 133e 70d9 813d 9ad8 53bd 07b5 73bd
00000050: 4eb0 a23d be17 5c3c a6fa 853d 640c 113e
00000060: 6061 103e e7c6 d1bc 5025 373d f9cf efbd
00000070: a047 8abb 1daf 29be 4cc8 82bd c2d6 4e3c
00000080: 39c8 363c 35fb 323b 4e1d b4bc 9278 753c
00000090: 85a8 683c 0397 3c3c 90b2 19be f0a2 ff3d
000000a0: 66a8 a9bd 841e a33c ead2 0b3d 6588 71bd
000000b0: 789e 2a3b e01b d13d 26e7 3f3d 09e9 c3bd
000000c0: 05b3 bebb 0604 6cbd 0bf0 84bd 7295 8bbb
000000d0: 4064 a53c af08 33bc 2034 443d f9f4 483d
000000e0: 4b1b 433d 94e6 8e3c 3a2c 75bd 3e98 7ebd
000000f0: 6713 5bbd df48 ac3d 6908 2cbc f973 95bc
00000100: 40e1 823d 892c 4a3d a200 38be 6439 c73c
00000110: ae2a 63bc cce4 cc3d 3aec db3d 5ae6 4ebd
00000120: c951 c8bd 1479 3cbd c477 c43c 27f5 283d
00000130: 0a8b d6bd 6c59 0d3e ce93 3d3d ab07 04bd
00000140: 87e8 16bd b83a b33c 8a38 3f3d 5dda e83d
00000150: a83d 9dbd 6ccf 51be eabe 813d 4b33 6d3d
00000160: 546b 04bd 6ad0 d8bd c586 0cbd 37f1 183d
00000170: 3f23 183c 17dc 953d 9917 92bc 5642 fe3b
00000180: df78 ad3d 76d2 d63c 906a adbc bd86 153e
00000190: 6d31 353d 18b7 3a3e cc89 34bd ad89 b8bd
000001a0: d5e7 993d b829 793d e1c3 063d a60d 613c
000001b0: 616c fc3d 56f3 003d ca0c e23d bf23 94bd
000001c0: 47e6 253d 2246 38bd 06b5 7ebd a6ac 17be
000001d0: 96ae 193d ce06 893c df93 d83d 5375 f5bd
000001e0: 0898 3d3d 9d4b 9e3c 9827 033e f03d 6f3d
000001f0: 2b0d 8cbd 923a ae3d 1538 6e3d 3b60 87bd
00000200: f29e b63d 9038 6f3d 75c5 0b3d 61ea 1e3d
00000210: 78a7 c1ba 6af8 c7bd 126e b4bd e2b6 6abd
00000220: 82fd 3ebd 34ab 953d 6760 e7bc 4309 02be
00000230: 3573 b13d cef9 94bc 980f 873d 09d2 873d
00000240: 9aee 623d b615 fb3d 4ad2 933c a4d6 273d
00000250: 775a a33d 03f8 663d 4d06 a1bd 389d 023e
00000260: a88a 0f3d 0f2f 903d 9c4e d9bc ece3 3a3d
00000270: 32f2 01bc 6d06 80bc 863a ac3d f759 9d3c
00000280: 1448 523c 45c2 0e3b 5fce e3bd b1bd 4e3d
00000290: a963 5e3d e994 b73d 2a67 a6bc 063a bdbd
000002a0: 9f0b d5bd 2eae de3b e233 07bd 2758 0cbd
000002b0: 442e 943c b59b 223c d909 15bd 1b55 26bd
000002c0: 7769 ca3d ec76 d43c e137 9dbb b63a 45bd
000002d0: ff2f ef3c 44f5 70bd b329 3fbe 7960 a7bb
000002e0: 678a 863d 533d 063c 2616 84bd 1ec6 e53c
000002f0: 6b69 3e3d 4ad3 10bd 7868 90bb 6545 42bd
00000300: 9d3a f33d ca3d b2bd 42fd ff3c 1055 5b3d
00000310: 3f5e c13c 887c 663d 1895 ec3d 0c63 8e3d
00000320: 4162 72bd afc2 003d 634c 943d 34be c0bd
00000330: 64ed 83bd ad6e e13c 0ba9 0ebc b2e1 423d
00000340: c972 353d 5c79 2e3e 70ea 813d f534 813d
00000350: 5b46 62bc 0a02 60bd 4613 d33d 7563 b7bc
00000360: d685 59bc fd29 21bd abef 163e 62d1 2b3e
00000370: ad5e 86bd 446d 363e 2b5d 853d 2cbc d0bd
00000380: d31d 6b3d 9416 893c 5aeb a93c b1d1 493c
00000390: 9bda 6dbd 1e85 f1bc 0472 4a39 3bff cb3d
000003a0: 660c 703d 8934 81bd 3f16 8ebb b9d0 f33b
000003b0: 488f 983d 874f acbc 8f8a 213d 208f 6a3a
000003c0: 5fd0 0bbd 339b 803d fa87 81bd 2320 84bd
000003d0: 4c2f 8cbd 38d0 a03d c4c2 00bc b5e5 1abd
000003e0: 006c 98bb e5ac d6bd d522 69bc b8e3 803d
000003f0: 1776 07be 267b c43d 5435 a13d 9236 84bd
0.061348584 -0.0021681574 0.044138916 -0.014684904 -0.0897041 -0.037923954 -0.07510771 -0.018423686
0.098571114 0.059599876 0.0919443 -0.20772105 0.031341195 -0.049421154 0.13112804 0.019601379
0.14362851 0.06340301 -0.05172024 -0.059498813 0.07943784 0.013433395 0.06541948 0.14164883
0.14099646 -0.02560754 0.04471332 -0.117095895 -0.004219964 -0.16570707 -0.0638586 0.012624444
0.011156135 0.0027310376 -0.02198663 0.0149823595 0.014200334 0.011510613 -0.15009522 0.1248225
-0.082840726 0.019912012 0.03413669 -0.058967967 0.0026034396 0.10210395 0.0468513 -0.09565932
-0.0058196806 -0.057621025 -0.06491097 -0.0042597586 0.020189404 -0.010927363 0.047901273 0.04906175
0.04763345 0.017443933 -0.05985663 -0.06215691 -0.0534853 0.084123366 -0.010500052 -0.018243777
0.06390619 0.04935888 -0.17968991 0.024319358 -0.013865156 0.10004577 0.10738416 -0.05051265
-0.09781224 -0.046013907 0.02398289 0.04124942 -0.10475738 0.13803643 0.046283536 -0.032233875
-0.03684285 0.021878585 0.04668478 0.113697745 -0.076777756 -0.20489281 0.06335242 0.057910245
-0.03232892 -0.10586627 -0.034308214 0.037339415 0.009285747 0.073173694 -0.017833518 0.0077593727
0.0847032 0.026223402 -0.021168977 0.1460218 0.04423659 0.18233907 -0.044076726 -0.090106346
0.075149216 0.0608308 0.03290165 0.013736164 0.12325359 0.031482063 0.110375956 -0.072333805
0.040502813 -0.04498876 -0.062184356 -0.14811954 0.037520014 0.016726878 0.10575079 -0.119852684
0.046287566 0.019323165 0.12808073 0.058408678 -0.06838449 0.08507265 0.058158953 -0.066101514
0.08917035 0.05840355 0.034123857 0.03879774 -0.0014774641 -0.09764178 -0.08810057 -0.057303317
-0.046628483 0.07308045 -0.02824421 -0.12698846 0.08664552 -0.018185522 0.06594771 0.06631858
0.05540333 0.122600004 0.01804461 0.04097618 0.07976239 0.056388866 -0.0786253 0.12755287
0.035044342 0.07040226 -0.026526742 0.04562752 -0.007931279 -0.015628064 0.084096 0.019207938
0.012834568 0.0021783274 -0.111233465 0.050473873 0.054294262 0.08963949 -0.020312864 -0.09239583
-0.10402607 0.006795666 -0.033008464 -0.034263756 0.018088467 0.009924819 -0.036386345 -0.040608507
0.09883397 0.025935613 -0.004797921 -0.048151694 0.029197691 -0.058827654 -0.1866825 -0.005107936
0.06569367 0.008193332 -0.06449537 0.028048571 0.046487253 -0.03535775 -0.004406985 -0.04742946
0.11876414 -0.087031916 0.031248692 0.05354792 0.02360451 0.056271106 0.11551875 0.069524854
-0.059175733 0.031435665 0.07241132 -0.09411278 -0.06441763 0.027518595 -0.008707295 0.04757852
0.04429892 0.17038482 0.063435435 0.06308929 -0.013810719 -0.054689445 0.103064105 -0.022386292
-0.013276538 -0.039346684 0.14739864 0.16779092 -0.06561027 0.17815119 0.06511911 -0.10192141
0.05740149 0.016734399 0.020742107 0.012318061 -0.058069807 -0.02948242 0.00019306695 0.09960791
0.058605574 -0.063088484 -0.004336148 0.007440653 0.07449204 -0.021034015 0.03943878 0.0008947719
-0.034134265 0.06279602 -0.063247636 -0.06451442 -0.06844959 0.078522146 -0.007858936 -0.037816722
-0.0046515465 -0.10482196 -0.014229496 0.06293434 -0.13228641 0.09593801 0.078715 -0.06455721

lstm.weight_hh_l1 f4 [512, 128]
00000000: 09eb 1c3d f3e4 7fbd c56e f13c 24c7 093d
00000010: 026f aabc 893d 96bd b0fb b0bd bc52 423c
00000020: 3d71 b3bc 3ab3 4bbd 3771 d53c af49 0f3d
00000030: fe57 ec3a 4ddf 493c a266 44bd 9162 c8bc
00000040: babe 30bc fe91 a1bc b511 10bd e128 93bd
00000050: 43fd 90bd 7e36 6ebd dc00 253c b8cb 0abd
00000060: c587 2c3d 821d ab3d 4d1b c4bc d5d1 14bc
00000070: dbe0 b6ba 9180 8e3d ff34 0abb 8d81 8ebd
00000080: 7a8a 1fbd aafe a5bc d946 98bd 5553 db3c
00000090: a9d3 f2bc 7240 d53c 807f afbd 1d35 f6bc
000000a0: 48e9 11bd f150 623d 7d10 8fbc c69c abbd
000000b0: 3a98 a93d 211f 50b9 00f7 a63d a16d 003d
000000c0: f1ef 9abd 02c2 903d 5734 913c eaa9 92bc
000000d0: 4e66 0cbd 9ea3 973d 0b50 01bd dba6 ac3d
000000e0: 9b51 a4bc d6c0 88bc a84a e63c 47d3 45bd
000000f0: 345c 283d 8c37 023d 8617 8a3d 1049 95bd
00000100: ea43 a5bd 6b6e 8abd d07e ba3a 36eb 6f3c
00000110: 587a 853d b3a2 863d 4a3c 823d 0712 88bd
00000120: d0a9 49bd d442 7a3d f396 b0bb 05d8 5c3c
00000130: 739d dabc ce1e 933c eee4 4abc 7fe2 6c3d
00000140: 95a5 9abc 88f2 74bd 06b4 83bb 19bd 553d
00000150: ff72 a93d 3c27 8bbd 2f6b 3b3d 86e1 9b3d
00000160: 46f3 783d 4690 443d 6855 873d 0481 a63c
00000170: 8bd8 17bd 6301 6d3d fa06 88bd b3b6 1ebd
00000180: 10a1 b33d b32e 473d 1526 81bc 045a 763b
00000190: 9113 2dbd 3d02 a23d a008 b2bd f149 1bbd
000001a0: 1462 b23d 7940 7e3c 32ef 9b3d 5fd7 483c
000001b0: 586d 1fbc 0596 0bbc db1e e2bc 10b9 e83c
000001c0: 3367 17bb a488 44bd 9ee6 553d 5ed9 e43c
000001d0: 6485 463d 8b75 38bc a049 a63d bb8b 823d
000001e0: 9edf 61bc 77ef cf3c 0893 c3bc d966 363d
000001f0: 9b33 b83c f3bb 023d cf52 8d3c 75a9 9e3d
00000200: e3cb 4bbd 165c bcbc 061d 9e3b 001c 833d
00000210: 27ba 0abc b770 e03b a2d7 bc3c 940c 95bd
00000220: ea3a acbd 6f3a 983d 1c4e 88bd 3142 4f3d
00000230: f1f6 d23c 50e2 213b d152 fe3b 8a97 47bd
00000240: 0467 88bd 6980 1bbd 650b ac3d f38d 05bd
00000250: 6ffa 733b 0c8f b1bd 435d 0dbd b614 a03d
00000260: a3af 8ebc 7e14 a33c 4ce1 8bbd 869a b03d
00000270: ef48 ccbc 3103 81bc ab0e 47bd 8b65 9bbd
00000280: dbb7 9fbb 19cd 2e3c 1070 7e3d cfb4 2f3d
00000290: c7c9 a9bd d297 bf3c 3d18 803d b3d2 a43d
000002a0: a6ff a0bd e3e2 503d 0b4d 72bc a49d ab3d
000002b0: b085 b1bc 9d1c 84bd 9a9a 8cbd 35c9 7d3d
000002c0: a7e3 d63c 7287 3bbc 3409 96bc 662e 2ebc
000002d0: 3150 8dbd 3551 8abd 7f24 2cbd 05e5 80bd
000002e0: e7b0 a6bd 21fd b3bd c694 b03d 457e 6fbc
000002f0: 2925 9d3d 6c5f b13d 4561 5a3d 2567 a0bd
00000300: eee0 93bb a7aa a2bd b725 50bc 3069 8d3d
00000310: ebd3 a53d 1f40 78bd b5d9 863d 5555 9d3d
00000320: a970 163d aa2f adbc 0fe6 9abd 8d1f f1bb
00000330: d177 19bd a608 3abd 51c1 81bd 8838 0cbd
00000340: a64e 04bd 353e 113d 3e7a b3bd b107 b93c
00000350: b911 9dbd 037b 36bd d7e5 813a 558a 02bc
00000360: 567b 6ebd 6cba 4bbd f3f8 02bd d3a4 a83d
00000370: 679a a73c c9ee 95bd 86fe e63c f401 5c3d
00000380: 5ded 0ebd 3824 7dbd 5642 2fbd 52b0 2b3d
00000390: 0114 233d 668a 3d3b c589 32bd 1701 103d
000003a0: 92b9 793a 097c 04bd 423d cebc 5940 403d
000003b0: 4621 893d 86b7 9bbb 5beb 87bc 6892 9e3b
000003c0: e157 09bd 54d2 453d 3936 8bbd 90b7 4abd
000003d0: 1ea7 febc f0d8 b13d 9ebd a8bb a4e4 743d
000003e0: 28e8 933c 8edc 8ebd 4ef3 b33d ed25 d2bc
000003f0: 2fd9 5d3d ec4f 0a3d de38 ab3b 3e11 8bbd
0.038310084 -0.062474202 0.029471764 0.03363718 -0.020804886 -0.07335956 -0.086417556 0.011860546
-0.021904582 -0.04973147 0.026054962 0.03498238 0.0018031595 0.012321305 -0.04794944 -0.024461063
-0.01078766 -0.019722935 -0.035173137 -0.071855314 -0.07079556 -0.058157437 0.010071006 -0.033885688
0.042121667 0.083552375 -0.0239388 -0.009083231 -0.001395251 0.06958116 -0.0021088717 -0.069583036
-0.03895042 -0.020263035 -0.07435388 0.026773134 -0.029641943 0.026031706 -0.085692406 -0.030054623
-0.035622865 0.055252973 -0.017463917 -0.083795115 0.08280988 -0.00019848022 0.0815258 0.03135455
-0.075652964 0.07068254 0.017725153 -0.017903287 -0.034277253 0.074042544 -0.031570476 0.08430263
-0.020058444 -0.016693514 0.02811177 -0.048297193 0.041103557 0.031791255 0.06742768 -0.07289326
-0.08069594 -0.06759342 0.0014228467 0.014643481 0.06517476 0.06574001 0.063591555 -0.066440634
-0.04923421 0.06109889 -0.0053890883 0.013479237 -0.026686406 0.017959025 -0.012383683 0.05783319
-0.018877784 -0.05980161 -0.004019263 0.05218229 0.08273887 -0.06794593 0.045756515 0.076113746
0.06077888 0.047989152 0.06608087 0.020325191 -0.037071746 0.05786265 -0.06641956 -0.038748454
0.087709546 0.04862852 -0.01576523 0.0037590275 -0.042254988 0.07910583 -0.08693051 -0.037912313
0.08710113 0.015518301 0.07613982 0.01225838 -0.009730659 -0.008519654 -0.027602604 0.028408557
-0.0023102283 -0.047981873 0.052221887 0.02793568 0.048467055 -0.011258493 0.081195116 0.06374308
-0.013786225 0.02538274 -0.02387382 0.044531677 0.022485545 0.031917524 0.0172514 0.07747165
-0.04975499 -0.022993129 0.004825237 0.06401825 -0.008467234 0.006849374 0.02305204 -0.0727779
-0.084096745 0.0743302 -0.06655523 0.050600234 0.025752516 0.0024701543 0.0077613373 -0.048728503
-0.06660274 -0.03796426 0.08400611 -0.032606076 0.0037228127 -0.08669862 -0.03451277 0.0781645
-0.017417734 0.019907232 -0.06830081 0.08623223 -0.024937121 -0.015748592 -0.048597973 -0.07587727
-0.004874212 0.010669016 0.06211859 0.042897042 -0.08290439 0.023387823 0.06254623 0.08048
-0.07861261 0.050997626 -0.014788876 0.08379677 -0.021670192 -0.0645077 -0.068654254 0.061959464
0.0262316 -0.011445867 -0.018314935 -0.010631179 -0.06900061 -0.0675377 -0.042026993 -0.06293682
-0.0813921 -0.08788515 0.08622126 -0.014617507 0.07673103 0.086607784 0.05331542 -0.07832173
-0.0045128977 -0.079427056 -0.012704304 0.069048285 0.08097061 -0.060608026 0.06584493 0.076822914
0.036728535 -0.021140892 -0.075634114 -0.0073584975 -0.03746778 -0.045418404 -0.063357 -0.0342336
-0.032301567 0.035459716 -0.0876355 0.022586675 -0.07669396 -0.044550907 0.0009910417 -0.007967551
-0.05822309 -0.049738333 -0.031975698 0.08234563 0.020459367 -0.07320935 0.028197538 0.0537128
-0.034894336 -0.06180212 -0.042787872 0.0419162 0.039814 0.0028921603 -0.04358842 0.03515729
0.00095262483 -0.03234485 -0.025175694 0.046936367 0.066957995 -0.0047521023 -0.016591718 0.0048392303
-0.033531073 0.048296288 -0.067974515 -0.049491465 -0.031085547 0.08683956 -0.0051495573 0.05978836
0.018055037 -0.06975661 0.08786641 -0.02565285 0.0541622 0.033767626 0.005225285 -0.06790398

lstm.bias_ih_l1 f4 [512]
00000000: 0f6a 003d b77d b7bc 7a80 5b3d 142c bb3d
00000010: 6757 1bbd 5b00 443d 8c80 973c e716 a23d
00000020: e001 8d3b af86 0e3d a01f cfbd e8e1 c5bd
00000030: 8134 973c 473a 10bc a208 a3bd aab2 a53b
00000040: 559a 88bc 1cb3 993b cf93 0a3b 3c57 d63d
00000050: a823 213c 4d0f b3bd d1f3 1d3d 9b28 0abd
00000060: c244 cd3a 92ca e43c 62e8 5abd 8643 f1bb
00000070: 5f88 223d 2d40 163e 4648 b33d 563d 583d
00000080: 15ad 12bd c92c 74bc 863c a63d f8be 59bd
00000090: fbd0 af3c cb90 6cbd a167 463d dcbb a6bc
000000a0: 4a5c 983d e6a6 6e3d dd97 103d 0974 873d
000000b0: 149e 87bd 9751 37bd 6cee 5fbd 1471 acbd
000000c0: aace 94bd c2f0 ad3c 7837 153d 9638 d5bc
000000d0: d8ba bdbd ac85 463d 5ea4 8f3d 3b24 4fbd
000000e0: 2182 0f3d de74 adbc abfd a03d aa5e 793d
000000f0: 949f 0c3c 1941 843d 2395 8c3d becb dd3b
00000100: 454f a7bc d0d8 e1bc ed9d ef3c 7161 c23c
00000110: 9952 f43c d782 9b3a 92bc cf3b 2aed 983c
00000120: 8042 32bd 0615 8dbd 5f01 8a3c 4fae ddbd
00000130: ba18 be3d 5e35 b53d 208a 72bd 7c47 a4bc
00000140: 4c05 a43b 602c 9b39 6021 6c3d 4db4 62bd
00000150: a481 df3c 2b5c 20bd 1eee 8abc e4d3 bfbb
00000160: 19e6 bf3d 5e07 a4bd 0512 2cbd 0377 67bd
00000170: 9896 353c 5e75 0bbd 7fb4 c43d 6b79 343d
00000180: c7d0 87bd e06f 99bd d697 2b3d 9921 34bd
00000190: 1612 fbbc 009f dabd c3fa e7bc 36cc 4b3d
000001a0: 3ab2 fbbc 44dd c33b 4280 5a3b b6f1 2abe
000001b0: ab34 213d c90f a4bd 2ed9 183d ca52 57bb
000001c0: 4efb e93d ef1c 0e3e 6d07 d23c 7a9f 143e
000001d0: f4ac 64bd 7ea4 f03c 3052 5fbc eabd 23bd
000001e0: 296f 1cbc 1d91 1cbd 77bb 023e c0dc 89bc
000001f0: 9e1f 0d3d ec04 c6bd 3f5e c2bc 58e9 69bb
00000200: 9e4c 8a3c 086f fa3b 2a16 a33d c6bd 39bb
00000210: b664 83bd 08ca d8b9 aaae 73bd c885 193d
00000220: 41d5 69bd 6477 833d 7f61 80bd 2e5b 30bd
00000230: 4675 78bd 8553 963d 6f3b f63c 43f3 6d3c
00000240: fbea 59bd 7955 a7bd 48a1 a03d 06cd 323d
00000250: 9859 8dbd c6f2 063d 52fa 97bd 8f32 393c
00000260: ea24 05bd 2e6c 91bc 6a20 6dbc 1d16 19bd
00000270: 9baf 9bbd fad7 ac3d 7f5f 993c 4168 03bd
00000280: 11e8 5fbc 586d b4bc a063 6abc d27f 893d
00000290: db6e b23c 1055 8cbd 1b9a 9bbd f81c 53bc
000002a0: c18c 693b 586b 293d f0b3 9abd 148a 8b3d
000002b0: a88f c63c 58b5 1bbd 7a28 04bd 7568 9b3c
000002c0: c18a b43d bf0c 23bd 6e59 b9bc e01f 98bd
000002d0: 0799 97bd 81da 6f3d 6270 603d c017 903b
000002e0: fa84 b23c 81a0 b3bb 01c3 c7bc d0d6 a63d
000002f0: 761e 623d 4f33 86bd aefe acbd f58d 9e3d
00000300: 3146 3ebd 40d9 37bd f3f4 28bc 7c8c bf3c
00000310: c17a 2ebd d491 863d dfc4 38bd 9aea 433c
00000320: 1c4d 923d 9608 eabc d191 983d 8ed6 04bd
00000330: c19d 24bd 77fd 033d 0f5b 60bd 43a1 b6bc
00000340: 860e 0a3d 584b 65bd 7fc8 e6bb 34c1 da3c
00000350: 0227 123d 4077 4abd b4eb 5dbc 62c6 08bd
00000360: b2df 5c3d 5ba2 923c 6723 59bd 7cd9 52bd
00000370: 0130 8e3c cf20 9e3d 79cc 5a3d de68 76bd
00000380: 74bc 123d 09b6 82bd 0add b93c 9637 903d
00000390: f6f1 ba3c 4014 4d3c 5cae 72bc 659c 39bd
000003a0: 3f82 61bd f6f3 45bc f563 8abd 5064 acbd
000003b0: 1dc5 4bbd 61ee 5abd 9255 ffbc de5e 70bd
000003c0: dfea 113d 06d8 5f3c 7722 7ebb a080 863d
000003d0: f2a6 31bd 1195 b33d d3b1 ad3d 4c47 883d
000003e0: 81e3 95bd ec80 ef3c f630 bf3c 81c7 ff3c
000003f0: 22c3 08bc bc4c 8abd a69c a83c 5355 d63c
0.031351145 -0.022398813 0.05358932 0.091392666 -0.03792515 0.0478519 0.018493913 0.079145245
0.004303202 0.034796413 -0.10113454 -0.09662229 0.018457653 -0.008802957 -0.07960631 0.005056699
-0.016675154 0.004690541 0.002114523 0.104658574 0.009835161 -0.08743153 0.0385626 -0.03373013
0.001566075 0.027928624 -0.053444274 -0.0073627857 0.039680835 0.14672919 0.087540194 0.05279287
-0.035809595 -0.014903256 0.08117013 -0.053160638 0.021461954 -0.057755273 0.048438672 -0.02035325
0.07439478 0.058264636 0.035301078 0.06613929 -0.06621948 -0.044755545 -0.054670736 -0.084200054
-0.072659805 0.021232966 0.036429852 -0.026027959 -0.09264153 0.048467323 0.070137724 -0.05057166
0.03503621 -0.02117389 0.07860883 0.060881294 0.008582968 0.06457729 0.06864383 0.0067686727
-0.02042354 -0.027569205 0.02925011 0.023728104 0.029824542 0.0011864555 0.006339618 0.018667776
-0.04352045 -0.068887755 0.016846357 -0.10824262 0.0928206 0.088480696 -0.059213758 -0.020053618
0.0050055142 0.00029596966 0.057649016 -0.05534773 0.027283497 -0.0391504 -0.016959246 -0.0058541168
0.093700595 -0.08009218 -0.042009372 -0.056509983 0.011083268 -0.034047477 0.096047394 0.044061106
-0.06631618 -0.074920416 0.04189285 -0.043977354 -0.030648272 -0.10674858 -0.028317815 0.049755298
-0.030724633 0.0059773047 0.0033340608 -0.16693768 0.03935687 -0.08010823 0.037316494 -0.0032855743
0.11424886 0.13878225 0.025638307 0.1451396 -0.055829003 0.029375311 -0.013630435 -0.039976038
-0.009547987 -0.03822433 0.12766825 -0.016828895 0.03445398 -0.096689075 -0.02372658 -0.0035692062
0.016882237 0.0076426305 0.07963212 -0.0028341874 -0.064156935 -0.00041349255 -0.059492745 0.0374811
-0.05708814 0.06419256 -0.06268596 -0.043055706 -0.060658716 0.07340149 0.030057637 0.01452333
-0.05320261 -0.081705995 0.07843262 0.043652557 -0.06901854 0.03294637 -0.07420792 0.011303558
-0.032505907 -0.01775178 -0.01447306 -0.037374604 -0.076018535 0.08439632 0.018722294 -0.032081846
-0.013666169 -0.022024795 -0.014305979 0.06713833 0.021781376 -0.06852162 -0.07597753 -0.012885325
0.0035636874 0.041362137 -0.075538516 0.06813446 0.024238423 -0.03801474 -0.032265164 0.018970707
0.08815528 -0.039807077 -0.022625651 -0.07427955 -0.074022345 0.05855799 0.054794677 0.0043973625
0.021791924 -0.00548178 -0.024384977 0.08146441 0.05520483 -0.06552755 -0.08447014 0.0774192
-0.04645366 -0.04488492 -0.010312307 0.023382418 -0.042597536 0.06570783 -0.045109626 0.011957789
0.07143614 -0.028568547 0.07449687 -0.032431178 -0.04018951 0.032224145 -0.05477434 -0.022293692
0.033705257 -0.055980057 -0.007042944 0.026703455 0.035681732 -0.049430132 -0.013544966 -0.033392318
0.05392427 0.017899683 -0.053012278 -0.05147694 0.017356874 0.077211015 0.053417657 -0.060158603
0.035824254 -0.06382377 0.022688407 0.07041852 0.022820454 0.012517035 -0.014812078 -0.045315165
-0.055055853 -0.012082091 -0.067573465 -0.084175706 -0.04974853 -0.053449992 -0.031168733 -0.058684222
0.03562438 0.013662344 -0.0038777867 0.06567502 -0.043372102 0.087686665 0.08481183 0.06654224
-0.073187836 0.02923628 0.023338776 0.03122306 -0.008347305 -0.06752917 0.020582508 0.026163733
