models/save_models/lstm_features_temporales.pth (torch, 939614 bytes, 19 tensors)

lstm.weight_ih_l0 f4 [512, 18]
00000000: 96d7 68bc 357a 6ebe 81dc 653d 5e9d 063d
00000010: 8e2e cebd 59c4 083d 46e7 a63d 6171 04be
00000020: bb97 7c3c 730b 8cbd 5bee a03d 7b4a 69bd
00000030: 61dc 073e 2d0e 21be 92e7 3e3e 4b73 5ebc
00000040: b3b7 e4bd e50f 9cbb 30b0 0bbe 1440 87bc
00000050: 735f f5bc 5cc7 2a3d d9d2 64be 75b9 0fbe
00000060: c3d7 ab3d 296d 32bc 3a56 90bd 3d6e 13be
00000070: da6e 943c 1db4 523d 3bb6 003e d109 9cbd
00000080: 0881 1c3e e225 69bd 1fde 06bd 66ca 75bc
00000090: c621 853e a459 41be b57a 333d 333e b0bc
000000a0: 8c5b 223e 8852 553d 3304 2bbd f81a 0abe
000000b0: 4dbf 5fbb 163a c73d 6afd d6bd 9926 5ebd
000000c0: 1cd4 17bd 0879 bcbd 8753 c8bc b2eb 90bd
000000d0: a89e 9fbd fc6f 88bd de93 433e b707 f9bb
000000e0: 773c 203e 8807 20bd 96df 9ebc a8ce 3bbd
000000f0: 472b f13d 8c89 c33a d6fb 023e 337b 4e3d
00000100: c3d8 8dbd e327 983d 4151 583e 0ecd 8dbd
00000110: e28f 0fbe 3e25 14be 090e 6ebe 3451 99bb
00000120: 9385 d0be 989c 8439 ca79 f2bd dbd8 c6bd
00000130: f566 efbd 8144 aa3d 47b1 933e 1e59 c83d
00000140: 2858 9a3d 12ff 2a3d cfc1 85bb 9d32 813d
00000150: 4748 b0bb a929 14bc aa6f 45bd 819b 0cbb
00000160: 96c9 06bd 0b82 a9bd ce2a 41be 8a52 223e
00000170: f3dd 4b3e 5e6e 993d 5050 273d daf6 8abd
00000180: 4673 373e 20fe 3f3d cec5 1b3e d34c aebc
00000190: 3a46 a0bd 5fd6 68bd cfb2 093e 4fba bd3d
000001a0: c70a ec3d a21e 7dbc 660c 7b3d 388b c83b
000001b0: d610 f73c 335e 123e bfc9 e33d c287 673c
000001c0: 0e58 353d e5c2 6d3d 57ed b33d 63da 3bbb
000001d0: 62e4 0cbe 0601 f0bd 7a24 083b 96c5 32bd
000001e0: 87de 703e 70e5 213e 97d3 f1bd a845 32bc
000001f0: 1eaa aebd 2cc6 83bc 3acd 0d3e 8cca a9bc
00000200: 428f 08bc 45c0 16bd 8139 0abd 9054 19bd
00000210: 682f b53c 90b4 aabd 5faf a7bc 4170 b9bd
00000220: 7711 633d e7ed b5bd 6598 b93d e3a5 8b3c
00000230: 2f70 24bd 8649 24bd b068 4839 4683 ae3b
00000240: fced 253e 3902 42be 4b7e 34be a248 a2bb
00000250: ee92 62bd 236f bdbc 81d0 62be 88ef 2fbd
00000260: 8bc1 e13d 1c3c f1bc d9c5 f63d fc0e 0e3c
00000270: 83f4 763e 5853 86be 9911 13bc 6b98 073e
00000280: 1c78 b33d b50c cdbb a7ac 25bc ff1a b4bd
00000290: 0c01 943e b6ee 2cbb 7378 56bd e79f e03d
000002a0: fcf6 ec3c 1743 bc3d 1792 b8bd 9126 a93c
000002b0: 859d 73bd 0003 5abc a3ac c1bb 053d 893d
000002c0: 3dd3 493e 143d a6bd 8f3e 1bbe f711 033c
000002d0: 56ee e13d e235 5fbe c5b0 fdbd 1ddb 72bd
000002e0: b030 f23d 782b 0ebe e3fd 8ebe 3f8b 2ebd
000002f0: ed1c 99bc 6dc2 1dbc 6420 90bd 0667 ecbd
00000300: 5412 003e a480 6cbe 5d0c 8dbd 1d46 4ebd
00000310: f239 643d 934a cdbd f7a1 a33d 9298 38be
00000320: 2416 79bd 06a9 6f3d 87f4 9fbc 4a11 a63d
00000330: a076 033c 44d3 7c3e 795c 253e 69f7 d0bd
00000340: 4d61 223e 50b6 07bc 7e6d a7be ca0d 71be
00000350: 5da0 113e 8540 4b3d d183 b1bd b0cd 87bd
00000360: d039 043e ddbb 25be bc73 1d3d 86d2 64bd
00000370: 25b7 383d 6db3 97bd c587 99be 8f72 153d
00000380: a3ea 3dbb d147 f0b9 ec4a ff3d 95dc 5a3d
00000390: 77ec f03c 9e8f 05be 7fe5 14bd 841d 65bc
000003a0: 2a8d 3c3e 0542 ec3c 95e6 643d f11b 793d
000003b0: 0a3e 483b 2acb 8e3d 7a0e 26bd ecc9 183d
000003c0: 57b9 ed3c 7005 49bd 2adc 9cbd 5697 36bd
000003d0: e37f 2d3d e11e f1bb 0e9a a33c 9af2 14bc
000003e0: 4126 3f3d 65ce b7bd b5cc 803d 5313 5c3d
000003f0: ff92 a93d 6dc8 1f3e b777 b2bd d45e 7dbe
-0.014211556 -0.23288806 0.056118492 0.03286492 -0.10067473 0.033390377 0.08149581 -0.12933876
0.015417035 -0.06838121 0.07857963 -0.056955796 0.13267662 -0.15728064 0.18643025 -0.013577293
-0.1116785 -0.004762637 -0.13641429 -0.016510047 -0.02995274 0.04169403 -0.22346057 -0.1403559
0.08390763 -0.010890284 -0.070476964 -0.14397521 0.018119264 0.0514413 0.12569515 -0.0761906
0.15283597 -0.056920893 -0.032926675 -0.015001869 0.2600233 -0.18881851 0.043818194 -0.021514034
0.15855235 0.05208066 -0.04175205 -0.1348685 -0.0034141124 0.09727876 -0.10497554 -0.05423603
-0.037067518 -0.092027724 -0.024453891 -0.07076205 -0.07793933 -0.06661984 0.19099376 -0.0075997966
0.15648066 -0.039069682 -0.019393723 -0.04585138 0.117758326 0.0014918311 0.1279138 0.05041046
-0.0692611 0.07429483 0.21124746 -0.06923877 -0.1401973 -0.14467332 -0.23247541 -0.0046788696
-0.4072691 0.00025293673 -0.11839636 -0.09709331 -0.11689559 0.08313847 0.2884619 0.09782623
0.07536346 0.04174716 -0.0040819417 0.06308482 -0.00537971 -0.009043136 -0.048202194 -0.0021454992
-0.03290709 -0.08276757 -0.18863985 0.15851799 0.19908886 0.07491754 0.040848076 -0.067853644
0.17915067 0.04687321 0.15212175 -0.021276867 -0.07825895 -0.056845065 0.13447116 0.09264051
0.11525493 -0.015449198 0.06129112 0.006120112 0.030159395 0.14293747 0.111224644 0.014131488
0.04427343 0.058047194 0.08785503 -0.0028664104 -0.13758996 -0.11718945 0.0020773695 -0.043645464
0.23522387 0.1581018 -0.11807936 -0.010880865 -0.08528541 -0.016085707 0.13847819 -0.020726465
-0.008334937 -0.036804456 -0.033746246 -0.03743416 0.022117332 -0.08335221 -0.020469366 -0.09054614
0.055436578 -0.08883267 0.0906227 0.017046874 -0.04014605 -0.04010918 0.00019112485 0.0053257076
0.16204065 -0.1894616 -0.17626302 -0.004952506 -0.055315904 -0.023124283 -0.2214985 -0.042953044
0.110232435 -0.029447608 0.12049455 0.008670565 0.24116711 -0.2623546 -0.008976364 0.13241737
0.087631434 -0.0062576183 -0.010111964 -0.087942116 0.2890705 -0.00263874 -0.052360963 0.10967999
0.028926365 0.09192484 -0.090122394 0.020648273 -0.059476394 -0.013306379 -0.0059104725 0.06701092
0.19709487 -0.081171185 -0.15160583 0.007999889 0.11031787 -0.21797898 -0.12387232 -0.059290994
0.11825693 -0.1388377 -0.27928075 -0.042613264 -0.01869055 -0.009628874 -0.07037428 -0.11543088
0.12506992 -0.23095948 -0.06887124 -0.050359834 0.055719323 -0.100239895 0.07989877 -0.18026951
-0.06081213 0.058510803 -0.01952578 0.081087664 0.008023888 0.24689966 0.16148557 -0.1020344
0.1585743 -0.008283213 -0.32700723 -0.23540416 0.1422133 0.049622077 -0.0866772 -0.06631029
0.12912679 -0.16184945 0.03844045 -0.055864833 0.045096535 -0.074072696 -0.29986396 0.036486205
-0.0028978966 -0.00045829875 0.12465462 0.05343302 0.02940963 -0.13043067 -0.036351677 -0.013984088
0.18413225 0.028840074 0.055883963 0.060817663 0.0030554556 0.06972344 -0.04054115 0.037301943
0.029019041 -0.04907745 -0.076591805 -0.04457792 0.04235829 -0.0073584174 0.01997092 -0.009091044
0.04666734 -0.089749135 0.06289045 0.053729367 0.082799904 0.156038 -0.0871424 -0.24743205

lstm.weight_hh_l0 f4 [512, 128]
00000000: fba8 84bd d974 943d 1d4d abbd 696a 8dbd
00000010: 4257 b23b e105 a3bd e24e 45bd 29e9 e13b
00000020: fed5 3fbd b3d6 f0bc 1fdf 863c 614b 2e3d
00000030: 06f2 15ba 8cfa 4d3c 1642 aabb 5e4d e33c
00000040: bd08 f3bc 73a3 ac3d 60ae 06bc 7ea8 a03d
00000050: 287b 1a3d d429 623d d3b0 a83c c161 32bd
00000060: bcb8 a8bd 6aad 9fbd b863 56bd f5f0 053d
00000070: f270 eb3b a158 aebd df2f 27bc 2d8a 803d
00000080: a268 a23d f8e6 96bc 50a1 823c dd41 72bd
00000090: 8710 9dbd 60c4 983c 72de 52bd 9a7e 56bc
000000a0: c135 bfbc bcb0 40bd 1616 86bd 8551 a43c
000000b0: 54c4 673d 992d 9ebc 11c4 84bd d6f1 52bc
000000c0: 26aa 1cbd 23e6 1fbd c2bc 9e3d 4f75 9bbd
000000d0: 94e2 af3d fca9 44bd 8b7a 5dbd 8b04 1ebd
000000e0: d6f6 8abd 42ca 86bc 65cd 6ebd 3588 adbd
000000f0: c164 893c 5c5a 4c3d 66f3 7bbd c25d 4bbd
00000100: 5461 e63c db18 90bc 48e6 38bd 7457 4ebd
00000110: 643c 07bd 48ca 1bbd 6f8e 9d3c 6c1d c03c
00000120: fec7 97bd 0ab7 833d 88d8 a6bd a144 47bc
00000130: 3478 c73c 5f90 e6bc ad8f cf3c 3789 76bd
00000140: cae3 403b 0eae 143d a893 59bd 3e20 593d
00000150: 4618 533d dfa6 303d b2b4 bc3c 37f2 853c
00000160: cac4 043c b238 34bd 4eaa 8f3c 4940 f8bc
00000170: 0eb4 0ebd 1fa5 223c 638c 91bd 1790 d0bb
00000180: 1488 523b 95f2 8fbc 4195 2d3d 470f 56bc
00000190: bd15 2cbd 4312 a9bd 5eea 32bd ca85 553d
000001a0: 0ee0 893b 5965 8a3d 6cb1 84bd dc41 1ebd
000001b0: 96c4 803d 4e9b 843d 8126 9dbd acc0 0ebd
000001c0: d2c8 8f3c 5b40 da3b 2fe6 25bd f401 c93c
000001d0: ef4d 4b3d e2cd 813d 9bc7 bd3c c529 0c3d
000001e0: 8866 5b3d 1307 82ba 3e6d a03d 9aeb 573d
000001f0: 9317 583d 15fe 993d 5603 2d3c 0f84 6dbd
00000200: 1a72 c4bb 1296 10bd a70f a83d be1c 7a3b
00000210: c180 ae3d 42b4 66bd 1120 ce3b affe 393d
00000220: adc7 90bd 2d94 76bd 31fe 5cbd a07e 64bd
00000230: 2336 5cba c6a7 5bbd ed74 493d ec7e 8cbb
00000240: 9411 073d 53d1 cfbc db24 0ebd 93e1 b03d
00000250: eb1b 4dbd e214 993d 223b 11bd c677 9f3d
00000260: 9916 993d 6fa7 a4bd 8f2b 7c3d 6dc4 a0bd
00000270: ab6e 823d bf02 b4bd bfdc 7ebd d980 603c
00000280: f51c a6bd 6830 8b3d 0712 b6ba ac30 0dbb
00000290: 0d55 60bd a304 123d 9574 273d 4a40 843d
000002a0: 8dfc 933c b70b cabc b1be fa3c b776 a43d
000002b0: 6294 9dbd 14e7 a5bd 8a1b 1fbc f0ec 223d
000002c0: 553f 0fbc 8ce4 febc 177a 373d 569b 54bc
000002d0: f632 86bd acbd 513c 592a 4f3d 2645 893d
000002e0: ac81 8bbd 9ebb d5ba 5f9d a63d f784 2e3d
000002f0: b4b3 77bd edde 1a3d a02e 863d 0e00 aebd
00000300: f8a6 243c 84d4 81bc bba4 bebc 8787 69bd
00000310: dbb3 b43d 6857 72bd 99aa 8dbd eb4b 5f3d
00000320: f4b8 423d 628b 02bd 00d3 883d 2f3b a2bd
00000330: dfbb 87bb e65b 803d aa0d 5a3c 7252 33bd
00000340: 0e32 763d f5ca 1b3d 2b0c 94bd 928d 1bbd
00000350: 49f5 54bd 0074 70bd 509e 91bd 7610 b13d
00000360: e2b8 363d e15b b3bd 42c9 8ebd 6f6c a73d
00000370: 04f8 e43a 9a4c c83a c5be 7a3d b16b a43d
00000380: f16c 3dbd 45d0 b23d 50e1 98bd 2313 873b
00000390: a7de 6abd dde7 3abc 217a 7bbd c898 8e3d
000003a0: 3e77 6d3d 1497 0b3a f719 8abd ab66 2c3c
000003b0: 6a74 193d 5510 26bd 6380 a0bd c399 053c
000003c0: dfbf b9bc a283 8fbd 37b8 3b3d 5c86 91bd
000003d0: 0a2d 9c3d 415e e6bc b220 843d d5a8 b13d
000003e0: 07ff 88bd fdda 1dbd abf2 d8bc 67a7 ad3d
000003f0: 07db b2bd 2e32 903d 4afa 65bd bfd0 0cbd
-0.06477543 0.072488494 -0.083643176 -0.06905062 0.005442531 -0.07960106 -0.04817093 0.00689425
-0.04683494 -0.029399252 0.016463814 0.042552356 -0.0005719963 0.012571942 -0.0051958663 0.027746852
-0.029667253 0.08429613 -0.008220285 0.07844637 0.037715107 0.05521567 0.020592129 -0.043550257
-0.0823836 -0.07796748 -0.052341193 0.032700498 0.007185095 -0.08512998 -0.010204284 0.06276355
0.079301134 -0.018420681 0.01594606 -0.059144843 -0.07669168 0.018648326 -0.05148167 -0.013091708
-0.023341062 -0.047043547 -0.06547181 0.020058403 0.056583717 -0.019308852 -0.06482709 -0.012875041
-0.038248204 -0.039037835 0.077508464 -0.07590734 0.08588138 -0.048013672 -0.054071944 -0.03857855
-0.067853615 -0.016453866 -0.05830135 -0.08473245 0.016771676 0.04989086 -0.06151142 -0.04964996
0.028122582 -0.017589977 -0.04514149 -0.05037637 -0.033016577 -0.038034707 0.019232957 0.02345153
-0.07411192 0.06431396 -0.08146769 -0.0121623585 0.02434931 -0.028145013 0.025337065 -0.060189452
0.0029432648 0.036298804 -0.05311933 0.053009264 0.05153682 0.04312789 0.023035381 0.016350849
0.008103559 -0.04399938 0.017537262 -0.030304091 -0.034839682 0.009927063 -0.07106855 -0.006364833
0.0032124566 -0.017571727 0.042378668 -0.013065166 -0.04201292 -0.08255436 -0.04368054 0.052129544
0.0042076176 0.06757612 -0.06479153 -0.038637027 0.06287496 0.064749345 -0.0767336 -0.034851715
0.017551813 0.006660504 -0.040502723 0.024537064 0.04963487 0.06338097 0.023166468 0.034219522
0.05356458 -0.0009920321 0.07833336 0.05271492 0.052756857 0.075191654 0.010559877 -0.05798727
-0.0059950473 -0.03529937 0.082061104 0.0038164104 0.085206516 -0.05632425 0.0062904437 0.0454089
-0.07069335 -0.060199905 -0.053953353 -0.05578482 -0.0008400401 -0.053626798 0.049183775 -0.004287591
0.03297575 -0.025368368 -0.034703117 0.08636775 -0.050075453 0.07474686 -0.035456784 0.07786517
0.07475013 -0.08039748 0.06156498 -0.07849965 0.063687645 -0.08789586 -0.06222224 0.013702595
-0.08110992 0.06796342 -0.0013890871 -0.0021543903 -0.05476861 0.035648953 0.040882666 0.06457575
0.018064762 -0.02466379 0.030608507 0.080304556 -0.076943174 -0.08100715 -0.009711156 0.039776742
-0.008743127 -0.031114839 0.04479417 -0.012976488 -0.06552689 0.012801569 0.050577495 0.06702642
-0.06811842 -0.0016306525 0.08135485 0.042607274 -0.060474113 0.037810255 0.06551862 -0.08496104
0.010049574 -0.015848406 -0.023271909 -0.057014015 0.08823367 -0.05916539 -0.069173045 0.05451576
0.047539666 -0.031871207 0.0668087 -0.079214446 -0.004142269 0.06267528 0.013308922 -0.043779798
0.06010633 0.03803535 -0.07228883 -0.03797681 -0.051991735 -0.058704376 -0.07110274 0.08645718
0.04460991 -0.08757759 -0.06971981 0.08174979 0.0017468934 0.0015281618 0.06121709 0.08028353
-0.046246473 0.087311305 -0.0746485 0.0041221543 -0.057341244 -0.01140782 -0.061395768 0.069627345
0.057975046 0.00053249416 -0.06743234 0.010522525 0.037464537 -0.04054292 -0.07836988 0.008154335
-0.0226745 -0.07007529 0.045829978 -0.07105705 0.07625778 -0.028121116 0.06451549 0.0867478
-0.066892676 -0.03853892 -0.0264829 0.08479195 -0.087331824 0.07040821 -0.056146897 -0.034378763

lstm.bias_ih_l0 f4 [512]
00000000: d81c 43bd b883 21bd b968 47bd 66d7 95bd
00000010: 7f4d 84bd aff4 363c 9b4f 9fbd 8fce 1b3d
00000020: 1eaf eb3d a7ad ae3d 62db 903d 8876 103d
00000030: 25d1 453d 3327 febc be0a 06be d201 313d
00000040: 2abb 743d 778f 4c3d 3210 d03c 1db9 21bc
00000050: eb16 27bd f962 ddbc a7ea 723d 6a63 623d
00000060: 7a05 813d a05b 4c3c 0ced 61bc 4c60 41bc
00000070: 7a50 96bd 5f4c 843c 2071 14bd 38a3 6dbd
00000080: 53e2 ba3d c70d 8ebd e31e a53d e43f ba3d
00000090: 5bfb fcbc 7dc7 c1bd 7ed0 b93c 22ae 51bd
000000a0: ac4a 843c 9bbf 603d 8817 a1bc 8ce2 2a3d
000000b0: 78eb 933d be53 3d3a 9920 85bd de3c d2bc
000000c0: e608 cd3d ce17 b2bd 7821 eb3d 2a2c 0c3d
000000d0: 8cca f8bb dbcd 58bb c59a 38bd 46e0 a63d
000000e0: ca02 0c3d 3fc5 2eb9 71ea c53c f09c 00be
000000f0: a78a a1bd a107 ed3d 77c9 1abd aaac 69bd
00000100: e154 323d 61a7 483c 03b6 9b3d 6fd0 373d
00000110: 65e6 a93d 1ba5 8c3d 8b31 01bd 634b b0bd
00000120: ae64 a7bd e690 153c f885 02be 7406 be3d
00000130: 05c2 153d 509d a8bc 3098 85bc 55fb a93d
00000140: bf8a 9c3d f6ff 22bd 40c5 433d 4f2b 96bb
00000150: e64a 1ebd 34d2 b6bd a586 50bd c506 d4bd
00000160: c79a 673c 6e69 db3d da99 e5bc 7ed5 553d
00000170: 93bd 4c3d 5b2f 343d f0ca b3ba e0be 08bc
00000180: e794 073e 1996 b83d 1a9b eebc 741b c0bd
00000190: 251d a73c 7117 86bd d313 543d 233c 5ebc
000001a0: 7082 cbbd 68d1 39bd 7b68 b4bc aba3 94bd
000001b0: 626d 95bc 140e 4ebd 9004 bdbd ff85 debc
000001c0: a5aa 99bd b847 753d fa75 4f3b 5141 f63c
000001d0: 8f35 9a3c f230 803c ecb0 163b 7c65 c9bd
000001e0: 5229 0bbe 8862 09bc 63ce d73c e82c 07bd
000001f0: 5f1f 233d 400d 7ebd 0879 9e3d 9325 bcbb
00000200: f451 343d 72b2 4fbd d302 1f3d 9b62 a63d
00000210: d625 a33d 5d99 6fbc bb9b c8bc a863 a6bd
00000220: 4040 f2bc f60f bcbc 3ec6 623d 89c8 52bd
00000230: 72df 513d 03fa 95bd 0407 86bd 384f c2bc
00000240: 7c9a cabc 7459 023c 5c7b 97bd 9ceb ffba
00000250: a902 833d 2a9f 68bd 56af 8e3d 0475 573d
00000260: 4781 ab3d 0df4 853c 861c a83d d4c4 1cbd
00000270: b844 c3bc 5871 eb3c b054 b3bc ec8b 173d
00000280: 6326 b2bd f56f 20bd e973 81bb f77f b3bd
00000290: 3ad9 a63c 14bb 3d3d 2f3b 293d 23bd 5eba
000002a0: 49a7 79bd 12ef 723d 3a39 063d 95e1 39bd
000002b0: b9b3 dabc a92a 003b a2c6 373d fb7e 66bd
000002c0: 7880 a93c babc 3abd 4805 a23d 4fd1 84bd
000002d0: f6bb 83bd fcd1 90ba b130 d5bc e9aa b03d
000002e0: e129 e3bc 0e54 34bd 53d8 72bd 87f7 a13d
000002f0: eb5e 8bbd d022 9abc ae0e b3bd 8558 073c
00000300: e4b2 96bd 48d7 b33d aae1 053d 267e 0cbd
00000310: d34c 70bd 53b6 573d 30e9 43bb 075f 623c
00000320: 0dd2 0c3c c34e 0c3d f131 ec3c 7bb4 153d
00000330: 9aa5 41bd fc12 3f3d 6502 123d c3c9 9dbd
00000340: cd2c 963b ef15 6ebd f0d5 61bd dd8a 3f3d
00000350: 981c 99bd beed 873d 740b 0abc 2586 61bd
00000360: 79f6 72bd 62d4 29bd b54f 983d 200f 053d
00000370: a258 9c3c d180 463d 0880 0bbd 57bb f9bb
00000380: a85f 833c d9b6 e13c 5a36 6e3c 1c66 053d
00000390: 7caa 6b3c e9ec 69bd 94a3 93bd 8c26 f7b9
000003a0: 4e2b 9dbd 1bcd cf3a 602b 9c3c 98f7 d83c
000003b0: ddb5 803d 8455 593d 78db 243d 4fa3 ad3d
000003c0: 8b5a aabd c663 ac3c 084c 1f3d b363 a6bd
000003d0: aaae 6f3d a2b6 183d 2e3c 873d 67f7 ecbc
000003e0: cf87 313c 7734 863d e0c0 513d 9c2e 6bbc
000003f0: defe 053d f63f d9bc 05e0 1c3d 45cd cdbc
-0.04763493 -0.039432257 -0.048683856 -0.073164746 -0.06460094 0.011166736 -0.077788554 0.038038787
0.1150801 0.08529215 0.07073094 0.03526929 0.04829516 -0.031024551 -0.13090035 0.043214627
0.059748806 0.049941506 0.025398348 -0.009870795 -0.04079334 -0.027024733 0.059305813 0.05527059
0.06299873 0.012473017 -0.013789427 -0.011802744 -0.073395684 0.016149698 -0.036240697 -0.058016986
0.09125199 -0.069362216 0.08062532 0.090942174 -0.030881574 -0.094618775 0.022682425 -0.051191457
0.016148888 0.05487023 -0.01966454 0.04171996 0.072226465 0.00072222564 -0.06500358 -0.02566379
0.10011463 -0.08695947 0.11480993 0.034221806 -0.007592505 -0.0033081684 -0.045069475 0.081482455
0.034182347 -0.00016667413 0.024159642 -0.12559867 -0.07887774 0.11573721 -0.037789788 -0.05704943
0.043537978 0.0122469375 0.07603075 0.044876512 0.082958974 0.06867429 -0.03154139 -0.08608129
-0.081735 0.009128785 -0.12746418 0.092785746 0.036561985 -0.020582825 -0.01630792 0.08299891
0.07643651 -0.039794885 0.047795534 -0.0045827995 -0.038645647 -0.08926812 -0.050909657 -0.10352854
0.014136023 0.107134685 -0.028027464 0.052205555 0.04998548 0.043990474 -0.0013717096 -0.008346289
0.13240395 0.09013004 -0.029126693 -0.09380236 0.02039964 -0.0654744 0.05177672 -0.013564142
-0.09936988 -0.04536572 -0.022022476 -0.0725778 -0.018240634 -0.050306395 -0.09229386 -0.027163504
-0.07503251 0.05988285 0.0031656013 0.030060442 0.018824367 0.015648339 0.0022993637 -0.0983381
-0.13589981 -0.008385308 0.02634353 -0.03300181 0.03982484 -0.062024355 0.07737929 -0.005741784
0.04402347 -0.050707288 0.038821053 0.08124276 0.07966201 -0.014623967 -0.02448832 -0.08124477
-0.029571652 -0.02295683 0.05536484 -0.051460776 0.051238485 -0.073230766 -0.06544307 -0.023719415
-0.024731867 0.007955898 -0.07396576 -0.0019525173 0.06396992 -0.056792416 0.069670364 0.05260183
0.08374267 0.016351724 0.082085654 -0.038273647 -0.023836479 0.02874057 -0.021890968 0.036998674
-0.08698728 -0.03916927 -0.003950585 -0.08764642 0.020367254 0.04632099 0.041316207 -0.00084968115
-0.06095055 0.059310026 0.03276942 -0.045381147 -0.026697027 0.0019556677 0.044867165 -0.05627344
0.020691141 -0.04559014 0.079111636 -0.06485235 -0.06432335 -0.0011048908 -0.026024194 0.086263485
-0.02772993 -0.044025473 -0.059288334 0.0790854 -0.068052135 -0.018815428 -0.08743034 0.008260851
-0.073583394 0.08781296 0.032685913 -0.034299992 -0.058667015 0.052664112 -0.002989363 0.013816602
0.008595002 0.0342548 0.028832408 0.036549073 -0.04727707 0.046648964 0.035646815 -0.077044986
0.0045829774 -0.058126386 -0.055135667 0.04676329 -0.07476157 0.066371426 -0.008425582 -0.05505957
-0.059317086 -0.04146231 0.07437078 0.032485127 0.019085232 0.048462693 -0.034057647 -0.0076212096
0.016036823 0.027553009 0.014539326 0.032568082 0.014383908 -0.0571107 -0.072089344 -0.0004714023
-0.07674275 0.0015853973 0.019063652 0.02648525 0.06284688 0.05306007 0.040248364 0.08478414
-0.08318051 0.02104367 0.03889087 -0.08124485 0.058516182 0.037283547 0.06603275 -0.028926564
0.010835602 0.065529756 0.05120933 -0.014354374 0.032713763 -0.026519757 0.03829958 -0.025122294

lstm.bias_hh_l0 f4 [512]
00000000: 4249 65bb 1a13 063d 6cfc 6a3d e299 d8bc
00000010: 4cfc 03bd 8d40 3fbd a055 313c b928 75bc
00000020: 5372 9f3d 3b4f c7bc 6bba cd3c fce7 82bd
00000030: 91f2 553d ad71 2c3c 92d4 dabd 67aa fd3d
00000040: 91f9 25bd 4bf5 00bd 6b9a 94bd 3fe1 09bd
00000050: 09c2 fa3d fd35 333d 5764 623d 5648 8b3d
00000060: deb7 05bc 3280 023d d529 2dbd 50a7 8b3d
00000070: ea2a c3bd 9a1f 883d 07ff 913d 2937 533d
00000080: 9d22 7c3d 0480 9abd be5c 05bd 8caf b4bc
00000090: 1d05 e33d 2420 603d e195 233c f27b 713d
000000a0: e805 39bd 0ebd 223d 753f b63d 064c 843b
000000b0: e21c a43d d0b0 01bc 6545 71bd 2d4b bd3c
000000c0: 9f71 52bd e661 b6bd f4a2 80bc 6585 da3c
000000d0: db9d 9cbd 73fa 713d 67b5 cfbd da71 9fbc
000000e0: 5424 9e3d 2ac5 82bd 0221 873d 6a50 dd3c
000000f0: f57b 36bc 37bd 2cbd 7e49 0c3d e948 763d
00000100: 522b 96bc 1519 abbd e403 073d e8db 81bc
00000110: cc29 7c3b 6eaa 39bd 1cd1 d8bd 50dc 0c3d
00000120: 9d39 65bd 2a08 14bc ac4e 0bbe e4fc 57bd
00000130: ba36 ba3d 7f21 c53d ea05 1e3d f4a9 683b
00000140: 3a5e c83d 53b5 00bc e5a3 983d 562e c83c
00000150: 7a91 e63b e779 edbd bccb 693d 5886 af3b
00000160: 8fab 223d beb4 693c cd5a 543c 6857 d83d
00000170: 2a9b cfbc fe38 633d cb58 28bd 2c68 b2bd
00000180: 1d2b c93a c056 503d c95c 923d 9bdf 593d
00000190: 4a57 bbbd 573b a3bd 972c c3bc a0f3 a0bd
000001a0: 496f bfbc f3f7 583d 5e41 483d 8433 3d3d
000001b0: dd42 913c 19d5 f23c d86d 953d 43fc bebc
000001c0: a95c 8ebc d52a c13d bbcb b5bd 8d72 853d
000001d0: 5ede 533c d5d7 273c 0809 2dba 590b b6bb
000001e0: dcd8 50bd 26f0 c8bd 2696 ddba ce4b 14bd
000001f0: f328 88bd 73db 533c bac2 263d 0476 b7bd
00000200: beae 3cbd 8172 a5bc 8b94 8abc 6d67 66bd
00000210: 2016 893d c238 093d 8dec 68bd 994a 9abd
00000220: 99c0 98bc 67e2 1dbd 70f3 19bd fd8c 77bc
00000230: 0f2b f23c ae3c 26bd 83da e5bc a059 f53c
00000240: 7ca8 7e3d 3ba4 e7bb 496d 91bb ffb8 273d
00000250: bb04 c2bb 0fb1 21bd 9e4e 3abd d812 a2bd
00000260: 067a b93c 3cb1 88bc c2cc 98bd bf44 b23d
00000270: 2a87 10bc 6d78 3e3d d688 553c 6e78 c23b
00000280: 2ada ad3d 85f0 ad3d b8f6 cabc 34ac d3bc
00000290: 4702 b93c 6437 993c 48cc e13c 796b 0fbd
000002a0: c295 413c cb7a 0bbd b019 f73c 4b16 a23d
000002b0: 95c7 b9bb 5371 bcbc b4df a3bd 6b44 50bd
000002c0: 82f6 3f3d 83d0 1bbd aa12 84bd 85d5 1dba
000002d0: 1883 173d c4f9 37bd f75d b3bd d869 b13b
000002e0: 0541 7bbd d717 473d 29e3 a8bc a034 b1bd
000002f0: aff6 91bd 710b 193d 840b b53b 618b 203d
00000300: 639e 69bc 0e2f 05bd a2c9 82bd a473 6bbd
00000310: 2487 883c b1a7 813d 55f1 fbbc 43b4 003d
00000320: 372f 08bb 5a3f cb3b 6f0a a83d a363 403d
00000330: fcff 243d db09 983d 672f 50bd 0fa4 4dbd
00000340: 9b2b 753d 6d31 86bd af89 933d d237 ad3d
00000350: e8f7 29bd 2ed5 adbd 7c50 52bd ae66 1d3d
00000360: f7d1 943c 4d01 a93d fdbb 293d a599 e3bb
00000370: 9d71 c03c ab64 85bd df46 9fbd 82d5 b4bc
00000380: 71b1 e83c bb62 0f3c 1b32 fb3c 7b57 9abd
00000390: 6894 f4bb 2633 b23c 5abc a1bc 5cc9 07bd
000003a0: 82c7 70bd bb3f cabc dd57 063d f8bd 0b3b
000003b0: 9242 933d c73e 6a3d 1e75 5b3d e4f2 053d
000003c0: 27df 823d 1b22 3c3d 9fc0 a13d 3c40 843d
000003d0: aab6 d13c 2135 01bd 56a6 d93c d6b5 313d
000003e0: 68aa adbd f1f2 d2bb 2b28 8a3d 250d 323d
000003f0: 36d1 d4ba e924 953d 19ed 1f3d 87cb e1bc
-0.0034986292 0.03273306 0.057369635 -0.026440565 -0.03222303 -0.04669242 0.010823637 -0.014963322
0.077854775 -0.024329772 0.025113305 -0.06391904 0.052233282 0.010525149 -0.10685076 0.12386017
-0.04052121 -0.03148393 -0.072560154 -0.033662077 0.122440405 0.04375266 0.055271473 0.06800906
-0.008161513 0.031860538 -0.042276222 0.06819022 -0.095296696 0.066466525 0.07128721 0.051566277
0.061556447 -0.07543948 -0.03255915 -0.022056364 0.1108496 0.05471815 0.009984464 0.058956094
-0.04517165 0.039731078 0.08898822 0.004037383 0.080133215 -0.007915691 -0.05890407 0.023107136
-0.05137789 -0.089053914 -0.015702702 0.026674936 -0.07647296 0.059076738 -0.101420216 -0.019463468
0.07721773 -0.06385262 0.065980926 0.027015883 -0.011137952 -0.042172637 0.034249775 0.060128126
-0.018331204 -0.083543934 0.032962695 -0.01585193 0.0038477061 -0.04532855 -0.105867594 0.034389794
-0.055963147 -0.00903515 -0.1360423 -0.05273141 0.090924695 0.096255295 0.03857986 0.003550169
0.09783597 -0.007855731 0.074531354 0.024436157 0.007036385 -0.11595517 0.057079062 0.005356591
0.039714392 0.014264284 0.012961102 0.105635464 -0.025342543 0.055474274 -0.041100305 -0.087112755
0.0015347932 0.05086398 0.071466036 0.053191762 -0.091475084 -0.079703026 -0.023824973 -0.07858968
-0.023368495 0.052970838 0.048890464 0.046191707 0.017732078 0.029642629 0.07296342 -0.023313647
-0.017378168 0.09431998 -0.08876749 0.065159895 0.012931434 0.010244329 -0.0006600772 -0.005555552
-0.050988063 -0.0981143 -0.001690571 -0.036205105 -0.066484354 0.012930739 0.04071305 -0.089580566
-0.046065085 -0.020196201 -0.016916534 -0.05625098 0.06693673 0.033501394 -0.056866217 -0.075337596
-0.018646525 -0.038545992 -0.037585676 -0.015109298 0.029561548 -0.040585212 -0.028058296 0.029949963
0.062172398 -0.0070691383 -0.0044380766 0.04094791 -0.005920974 -0.039475497 -0.04548513 -0.079137504
0.022641193 -0.016686074 -0.074609295 0.087045185 -0.008821288 0.046501566 0.0130331125 0.0059347665
0.08488877 0.08493141 -0.024775848 -0.025838949 0.022584094 0.01870317 0.02756323 -0.035014603
0.01181549 -0.03405265 0.030163616 0.07914408 -0.005669544 -0.023003256 -0.08001652 -0.0508465
0.046865948 -0.03804065 -0.064488724 -0.00060208916 0.036990255 -0.04491593 -0.08758157 0.005414229
-0.061341304 0.04860672 -0.02061613 -0.086526155 -0.07127129 0.037364427 0.0055250544 0.039195422
-0.014258954 -0.032515578 -0.06386115 -0.05748333 0.016666003 0.06330813 -0.030754725 0.03142191
-0.0020780095 0.0062026205 0.08205115 0.04697002 0.04028319 0.07423755 -0.050826456 -0.050205287
0.05985604 -0.06552396 0.072039954 0.084579125 -0.041496187 -0.084879264 -0.051346287 0.038428
0.018166525 0.08252201 0.041439045 -0.006945806 0.023491675 -0.065133415 -0.077771895 -0.022074465
0.028404923 0.0087515665 0.03066354 -0.07536217 -0.0074639805 0.021752905 -0.019743133 -0.033151016
-0.058784015 -0.024688592 0.032798637 0.0021322947 0.07190432 0.057188775 0.05357849 0.03270234
0.06390219 0.045930963 0.07898068 0.06457564 0.025599796 -0.03154481 0.026568573 0.043386303
-0.08479768 -0.0064376523 0.06745943 0.043469567 -0.0016236666 0.07282431 0.039044473 -0.02756287

lstm.weight_ih_l1 f4 [512, 128]
00000000: af03 a83c 7d4d cbbd 7a47 13bd 10a8 303c
00000010: a571 4abd a411 06be 040a 18bd 6b36 8ebd
00000020: c01f 62be a67f 86bd 979d be3c e2c7 333d
00000030: ea2a d8bc ee3b 8bba c5d9 683d 866d 09bd
00000040: 0e41 ddbc 0867 153e 7b64 aeba 1918 dc3d
00000050: 8dfe 3fbd 6b89 9fbd e6b7 babd 534c bf3d
00000060: 6d85 323d 1d74 98bd 2ff4 e5bc 21d0 a93c
00000070: 35ff 00be d21d 9cbc 1dab 90bc adb9 193c
00000080: 4d01 593d 67d8 233a e953 be3d d6e6 d7bb
00000090: 04b4 51bd ce09 85bd 559e b93d 5e12 9abd
000000a0: 123b 8abd 6d0a cebd ab1a b1bd abdb 113d
000000b0: 997f 40bb 42c1 093d 3ac7 8fbd 73b5 3d3d
000000c0: d814 7fbd 0a1d 1f3d 5832 be3c 4b69 f0bd
000000d0: ed2f 993c 148a f5bc ff4d cdbd 98fc 2dbd
000000e0: 0520 a8bc 45e0 773b 3c42 c0bd 1ac8 b33d
000000f0: 8490 0cbd f369 223e c224 8fbd b8cc a83d
00000100: ecc3 763d c08c 93bd 1ddc 3abd 1937 bdba
00000110: ca05 58bd 3f83 823d 54fa 86bd 5371 b63d
00000120: cd8f 21bd 5783 ed3c 2e36 8f3b e9df 593d
00000130: 52ea 993c bab4 ed3d 7b4c f1bc cfcb 56bc
00000140: b710 21be 5e1c 743d fb36 b73d cbd7 cd3d
00000150: a08f f5bd cde1 64bd 6d3a febd be79 4c3d
00000160: 076e b9bb b032 ce3c 17ed 54bd f097 04bc
00000170: d5d9 ec3b 07a7 3d3b 1080 803c dec1 21bd
00000180: 7e19 0b3d 4585 9a3b 3da4 f93b 5a42 663d
00000190: 1d34 b7bc 2bc6 febc 4c67 853d 2184 16bd
000001a0: 59a1 6cbd a1ec bf3d 3fd4 813c fb75 8e3d
000001b0: 5f24 023e 5f2a b3bd c193 99bd 16f2 bc3d
000001c0: e818 343e a0f6 92bd 1578 a63b d406 27be
000001d0: 2952 773d a598 19bd 8f05 37bd 50a2 d03b
000001e0: e3a6 763d bd20 70bd d792 a1bd 351d 57bb
000001f0: 75b2 b63d 5d18 143d cb87 583d 1897 043b
00000200: dd37 95ba e721 d63d 69ad 553d 9980 bf3d
00000210: 65fc b3bd 4f5e f93d 5894 8d3a 87e7 8b3d
00000220: e0b0 153d 70fc b63d 4c73 133d 54f4 81bc
00000230: c91e 173d a423 6a3d 1919 173d 667b 14be
00000240: bedf 02be fa52 40bc d31c c4bd e973 1dbb
00000250: 751d 11bd 4223 e8bc b763 fe3c 01c1 993c
00000260: 4690 5b3d 01e9 c3bd b645 853e 41a3 34be
00000270: aab5 eebd 3eb9 3ebd cf8d 8abd e3af 403d
00000280: 2b4a 05bd 1b22 223c e666 2bbd 2b52 093e
00000290: 3dce 3b3e adb1 f13d 8cc0 a93d 6cb6 df3c
000002a0: 543a 033e 5427 49bd 2c9b a93c 71a1 d1bc
000002b0: 7481 863e 452f 123e f956 253e b177 5ebe
000002c0: bdf3 1f3d 20e1 3abd 3061 1c3d 6ae3 1b3d
000002d0: 65bb 563e d1bc a43d 8713 60bd 9376 b8bd
000002e0: 00b7 063d d43b b03b 7627 c6bd aa89 45be
000002f0: 30f9 abbd 690d 32be 73bb 30bd ce43 813d
00000300: 026f 6fbd f31c 803d e9eb 75bc cd9b 413e
00000310: 9f92 8e3d f7dd 8f3d 9e6f 873d 3310 863d
00000320: 7046 1abc d1c9 ae3d a935 e6bc 2c18 bfbc
00000330: 13d6 fa3d 6e81 2abd 408e 01be 7e4c 0cbc
00000340: 027b b73c 1a29 f1bd e215 61bc d1be 133d
00000350: c553 593d 0216 443d aa33 d03c acb5 f83a
00000360: e0a1 83bd 5774 b43d 82b4 ccbd 5dd7 843d
00000370: fbfd 90bd 6848 e33d 61d7 523d 589f 0f3e
00000380: 10d7 79bd baaf 623d a62d 8f3d 3abc 263d
00000390: 5447 39be e362 74bd d9f4 d1bd 6d48 86bd
000003a0: f7a6 6e3d b061 f0bc e2e9 e2bd c814 173d
000003b0: aba9 a63d 6623 003e eead dabc cfb2 50bd
000003c0: e6c0 d9bb 7161 7c3c 64bd 6c3c c341 3a3d
000003d0: b47d cfbd 30f2 2bbe 5b9b be3d 7c2a 06bc
000003e0: b0aa d1bd e1a4 0f3d b955 83bb 73f9 593d
000003f0: 610b c33d 4095 833e 748c af3d 42dd 4fbd
0.020509569 -0.09926889 -0.035956837 0.010782257 -0.049424786 -0.13092667 -0.037118927 -0.06943973
-0.22082424 -0.06567316 0.023268504 0.043891795 -0.02638765 -0.0010622719 0.056848306 -0.033551715
-0.02700856 0.14590085 -0.0013305092 0.10746784 -0.046873618 -0.07789882 -0.09117107 0.093407296
0.043584276 -0.07444022 -0.028070537 0.020729126 -0.12597354 -0.019057188 -0.017659718 0.009382647
0.052979756 0.0006250203 0.09293348 -0.006588797 -0.051197067 -0.06496011 0.090634026 -0.075230345
-0.06749548 -0.10060582 -0.08647665 0.035609882 -0.002937293 0.03363157 -0.07020421 0.04631562
-0.062275738 0.038846053 0.023217365 -0.11738833 0.01869961 -0.029973067 -0.10024642 -0.04247722
-0.02052308 0.0037822884 -0.09387633 0.08778401 -0.03431751 0.15860729 -0.06989433 0.08242172
0.06024544 -0.0720458 -0.045620073 -0.0014435976 -0.052739896 0.063726895 -0.06590715 0.08908334
-0.03944378 0.028993292 0.0043704724 0.053192053 0.01878849 0.116067365 -0.029455414 -0.013110115
-0.15729032 0.059597366 0.089460336 0.10050925 -0.11990285 -0.055879403 -0.124134876 0.04992079
-0.0056588682 0.025170654 -0.05198392 -0.008092865 0.007228116 0.0028938667 0.015686065 -0.039491527
0.033959858 0.004715594 0.0076184557 0.05621562 -0.022363717 -0.031100353 0.06513843 -0.0367471
-0.05777106 0.09371305 0.015848277 0.06956097 0.12709187 -0.08748316 -0.07498885 0.09225862
0.17587626 -0.07175946 0.005080233 -0.16311198 0.06038109 -0.03749909 -0.044683035 0.0063670054
0.06021775 -0.05862497 -0.078893356 -0.0032823805 0.08920757 0.036156047 0.052863877 0.002023166
-0.0011384446 0.10455685 0.05216733 0.093507 -0.08788375 0.12176191 0.0010801656 0.0683127
0.036545634 0.089348674 0.035998628 -0.015863575 0.036894593 0.057162896 0.03688917 -0.14500198
-0.12780663 -0.011738533 -0.0957581 -0.0024025387 -0.035428483 -0.028337125 0.031053407 0.01876879
0.053604387 -0.09565926 0.26029748 -0.17640401 -0.116557434 -0.04656338 -0.06765329 0.04704274
-0.032541435 0.009895827 -0.04184618 0.13410251 0.18340392 0.11801467 0.082886785 0.027308665
0.12815219 -0.04910977 0.020703875 -0.025589677 0.2627064 0.14275844 0.16146459 -0.21725346
0.039050806 -0.045624852 0.038178623 0.038058676 0.20969923 0.08043826 -0.054706123 -0.09006991
0.032889366 0.005378226 -0.09675495 -0.19290796 -0.08397138 -0.17387928 -0.043147516 0.06311761
-0.058455475 0.062555216 -0.015009859 0.1890709 0.069615595 0.07024758 0.06613086 0.065460585
-0.009416208 0.08534587 -0.028101759 -0.023326956 0.12247863 -0.04162734 -0.1265192 -0.008563159
0.022397522 -0.117754176 -0.013738127 0.03607065 0.053058404 0.04787255 0.02541526 0.0018975041
-0.064273596 0.088112526 -0.09995367 0.0648639 -0.07079693 0.11097795 0.051474933 0.14025629
-0.060996115 0.055343367 0.069911286 0.04070685 -0.18093616 -0.05966462 -0.10251779 -0.06556783
0.0582647 -0.029343456 -0.11079766 0.036885053 0.0813783 0.12513503 -0.026694264 -0.050951775
-0.0066453097 0.015404091 0.014449451 0.04547287 -0.10131398 -0.16791606 0.093069755 -0.00818884
-0.10237634 0.03506935 -0.0040080217 0.05321641 0.09523655 0.25699806 0.08571711 -0.050748117

lstm.weight_hh_l1 f4 [512, 128]
00000000: 397d 4dbd 48e3 d9bc f3aa 583d c7ab 2abd
00000010: 37dc 50bd d509 a73d 9f41 9cbd 64ba db39
00000020: 8a1f adbd 1459 4e3d e8c2 b13d a47c dd3b
00000030: 1d55 0e3d 7c44 7e3d 1de2 743d e3fe 543d
00000040: 8c68 30bd 9cda a4bd 4ccd 7cbd 9b46 82bd
00000050: 3594 46bd ac43 893c daad 003d 2d4f db3b
00000060: c545 3e3d faf8 b83c 5f8b 88bd df2a a5bd
00000070: ffb1 463c 5233 1abd 7811 8fbd 6bc7 6a3c
00000080: d4bc 0138 4893 953d 36c4 683d 7c16 913b
00000090: 31ac 3e3d 93cb 3b3d 2cae 6abd a446 a9bd
000000a0: a35b 2dbd e0b9 523d 41e3 94bd a038 53bd
000000b0: fbd8 2b3d 027f 5fbd e9c2 943d 159b b4bb
000000c0: 7f58 16bd d4a3 903d 3a12 6fbd 7d84 893d
000000d0: 21ec 3cbd f529 aebc 758d 923d e996 49bc
000000e0: a285 b3bb de7a de3c c67c f23b c373 45bd
000000f0: fb18 18bd 0c45 633d a7cf ce3c c64d c83c
00000100: 440e 953d d699 a33d e573 9fbd 8276 5d3d
00000110: fa23 acbb dabf 8b3d fdd9 983c d434 2a3b
00000120: df6f dd3c 4f61 153d 0d1c 3c3d 9fd3 5e3d
00000130: 2509 0c3c abe1 7fbc 7d50 d539 641a ef3a
00000140: c309 213c e024 6dbb 3adf b5bc adf3 a23c
00000150: a4b3 393d a0fa 773d 607a b13b 0ca1 abbd
00000160: f969 083d eb39 c63b c4ec 90bc f701 a93d
00000170: dbc6 2abd 02c2 a53c 96f2 9b3c ab7f 6cbd
00000180: 039f 113d 12cb 14bc 7308 6fbd 9026 f43c
00000190: 8117 903d e5e9 47bd be1b a7bc eab2 0abd
000001a0: 3498 71bc 8d80 87bd 2bd8 72ba e439 a43d
000001b0: e14e 263c ddca 853a 78c1 a8bd 74a9 6abd
000001c0: c552 003d 76a9 183b f23b 88bc 2032 92bd
000001d0: cd0a 7a3d d34f 10bd 1f8b 73bd 167f a33c
000001e0: cebd 313d eecd 233c 7424 5d3d 28ce 09bd
000001f0: c213 203d e8bd 17bd a06c 47bd ea3e 3dbb
00000200: fec5 96bd 0e30 c8bb a3f0 933d b60b 35bd
00000210: a3ec 7dbd 77c8 b53c f2d9 3bbd 5ac6 0ebd
00000220: d45e 9a3d 314e 05bd f566 583d decc 1f3d
00000230: add0 283d 2cb0 953c 7bd1 0fbb 0623 b53b
00000240: 644b d43b 6f06 a43d 2108 49bd fd57 a1bc
00000250: 4715 953d 08be b2bc 4a0a 3d3d 9a7c 4bba
00000260: b387 92bd 2352 f03b 68bb 31bd eae9 1fbd
00000270: 63ce 64bd 7d3b 723d 668b 8bbd 20dd 97bd
00000280: b7d7 ca3c 2a47 4f3d 8a22 37bd 9df7 acbd
00000290: b999 65bc e18c 1ebc bd96 a43d 22d9 34bd
000002a0: 78bb 84bd b45d 8cbd c8db 743c 5b7b 5c3d
000002b0: d919 36bd cc13 87bc 8785 563d b341 9a3d
000002c0: 004c 6bbb a5d4 063c 6d49 5a3d b0b7 edbb
000002d0: 3d3f 813d 4fa6 d2bb b1ca bfba ba75 2cbd
000002e0: 38a1 1cbb ab1f a0bc ff12 17bd 588b 313d
000002f0: 243e ae3d 4f85 97bd e332 253d 0f9b 93bd
00000300: 83a3 00bd 2d15 0abb f1cb 5e3c e9e1 83bd
00000310: c5be a0bd c3fc b23c 0ad2 7e3d e62f 84bd
00000320: 33ba 713d 4e24 a83d 692d b9bc acac 65bd
00000330: 40ee 40bd 6d06 3abd 50d1 1abd fdc2 a53d
00000340: d281 553d 22bd 74bd 9ef0 a53d cfa2 bebc
00000350: 3b0c b0bd acec 5b3d 2728 553d 80df 9a3b
00000360: ae56 9cbd 4469 1d3d 49bc 08bb 09e5 68bc
00000370: 84f5 83bd 0add 0f3d c39a 50bd 66b0 753d
00000380: 3d48 f0bb 8c79 1cbd 7361 90bd 19a8 ac3d
00000390: 83c2 9ebc 8fb0 46bd daa6 80bd 0cda 2abd
000003a0: 1fc9 003d 5d00 29bd f5e7 1dbd e515 673d
000003b0: abf5 f6bb 7903 a7bd ddeb 07bd a200 74bd
000003c0: 1f94 b0bb 86e2 9abd b929 283d dc9c a13d
000003d0: eb33 9a3d 1d02 953d eead f43c 1a65 953d
000003e0: 096d 623c aaa5 a0bc 3b50 8d3d bb72 c2bc
000003f0: 72d9 623c fba3 8e3d f29a f9bc 69e8 913c
-0.05016825 -0.026597634 0.052897405 -0.041667726 -0.050991263 0.08156172 -0.07629704 0.00041909807
-0.08453281 0.05037792 0.086797535 0.006759243 0.03474914 0.06207703 0.05978595 0.05200089
-0.043068454 -0.08049509 -0.061719224 -0.06361123 -0.048481185 0.016755901 0.031415798 0.006692788
0.046453256 0.022579659 -0.06667208 -0.08064818 0.0121273985 -0.0376466 -0.06985754 0.0143297715
3.0931857e-05 0.07303482 0.056827746 0.004427729 0.046550933 0.04584844 -0.05729501 -0.08265427
-0.04232372 0.051446795 -0.07269908 -0.051567674 0.041954976 -0.054564483 0.07263739 -0.0055116513
-0.03670549 0.07062498 -0.05836699 0.06714723 -0.046123628 -0.021260241 0.07155887 -0.012304046
-0.0054785768 0.027158197 0.007400128 -0.048206102 -0.0371332 0.05548577 0.0252455 0.024451148
0.072781116 0.07988326 -0.07785777 0.054068096 -0.005253312 0.06823702 0.018658632 0.002597143
0.027030883 0.036469754 0.04592519 0.054401036 0.008547102 -0.015617768 0.00040686494 0.0018242118
0.0098289875 -0.003618531 -0.02220117 0.019891584 0.045337334 0.06054175 0.0054161996 -0.08380327
0.03330419 0.006049385 -0.017691024 0.08252328 -0.04169355 0.020234112 0.019036572 -0.05773894
0.035552036 -0.009081619 -0.058357667 0.029803544 0.07035733 -0.048807044 -0.02039897 -0.033862032
-0.014745761 -0.06616316 -0.0009263779 0.08018854 0.010150642 0.0010207553 -0.08240026 -0.05729051
0.031328935 0.0023294366 -0.016630147 -0.07138467 0.061045457 -0.035232376 -0.059458848 0.01995806
0.043393902 0.009997828 0.053989843 -0.03364387 0.039081343 -0.037046343 -0.048687577 -0.002887661
-0.07361983 -0.006109244 0.07223632 -0.04420062 -0.061993252 0.022190316 -0.045862146 -0.03485713
0.07537618 -0.032545272 0.052832562 0.039013736 0.041214634 0.018272482 -0.0021944928 0.0055278568
0.006478714 0.080090396 -0.049080018 -0.019695276 0.07279449 -0.02181913 0.04615239 -0.00077624025
-0.07154789 0.00733401 -0.043391615 -0.039041437 -0.05586089 0.059138764 -0.068136975 -0.07415223
0.024761064 0.050604977 -0.044710673 -0.08445666 -0.014013701 -0.009677143 0.080365635 -0.044152386
-0.06481069 -0.0685381 0.014944978 0.05382858 -0.044458244 -0.016488932 0.052373435 0.075320624
-0.0035903454 0.008229409 0.05329268 -0.0072545633 0.0631089 -0.006428517 -0.001463255 -0.04210446
-0.0023899805 -0.01954635 -0.03688335 0.04334578 0.08507946 -0.073984735 0.040331732 -0.072073095
-0.031405937 -0.002106975 0.013598428 -0.06439573 -0.078488864 0.021849042 0.062212028 -0.064544484
0.059015464 0.082100496 -0.022604661 -0.056072876 -0.047102213 -0.045416284 -0.037797272 0.08093832
0.05212576 -0.059750684 0.08102535 -0.023270993 -0.08596083 0.053692505 0.052040245 0.0047263503
-0.0763372 0.038430467 -0.002086418 -0.0142147625 -0.06443313 0.03512291 -0.050928842 0.05998268
-0.00733283 -0.038201854 -0.07049837 0.084304996 -0.01937986 -0.048508223 -0.062818244 -0.041711852
0.031441804 -0.041260112 -0.03855129 0.056417365 -0.00753661 -0.08154959 -0.03318392 -0.059570916
-0.005388751 -0.07562737 0.041055415 0.07891247 0.07529434 0.07275794 0.029868092 0.07294674
0.013819941 -0.019610245 0.06900068 -0.023736348 0.013845788 0.069648705 -0.030469391 0.017811017

lstm.bias_ih_l1 f4 [512]
00000000: 1f79 b6bc dad4 2f3d 30c9 103d d903 a63d
00000010: d2ba c1bb 5f33 07bd 3c45 5c39 d435 a8bd
00000020: 22d6 c73c dfa5 433d 80c5 363c 6053 ecbb
00000030: dd2a 17bd 528e 8fbd 74aa 943a 2fa9 89bd
00000040: aa4b 553c cebb 74bd 34f3 8b3d 4283 70bd
00000050: 7afe e7bd a286 acbd 0682 9cbb 1134 1a3d
00000060: 423c 023d 46a4 d7bc 3362 6fbd d01f 16bd
00000070: 589d 583d 4f4c a7bd 3c52 d4bd 8da8 1e3d
00000080: 501f dd3a f842 16bd 396a 943d 4fb6 133d
00000090: 3d57 9cbd 0cd8 fa3d fc5b 83bd b0f4 d13c
000000a0: 2e7f c7bd 1984 c8bd 9a39 003d f18f 9ebd
000000b0: a86a 4d3c c0c4 553b 2be4 b2bd 6ab0 78bc
000000c0: b2b2 97bd b57b 9f3d 92a4 c4bd 35df a4bd
000000d0: 6934 6cbb 95a1 6abd 6419 15bc 2ad5 da3c
000000e0: fb4e 9cbc a5bf 1ebd 61e6 42bd 7500 af3d
000000f0: 6a68 093c fdaf 69bd d281 883d 9276 fe3d
00000100: 5a85 71b9 d343 30bd c683 a83d 62d8 e8bd
00000110: 46f0 b43b 97ab 8a3c 4bed 913d dae3 98bd
00000120: ac4d 9f3d 1c7d ecbc 875a df3d 0406 263d
00000130: 7e69 38bd f056 bb3d bd93 91bd 0ef1 ae3c
00000140: 3c30 a63d b641 31bd 88e2 5f3d 1df1 30bd
00000150: 9545 913d 24fe c03d 6f56 663d a6e8 85bc
00000160: 763b 1a3c 3ae7 43bd 1a8c 393d ec54 d8bd
00000170: 6855 773d 0d9e 2cbd 1519 acbd c72d ee3c
00000180: 191a 4e3c ce19 a1bc 9d26 bfbd 00d8 fb39
00000190: c010 83bd 91e8 823d 2365 993d 1a57 4dbd
000001a0: 5dc7 3ebc 5790 9a3d dc2a 8b3b a924 16bd
000001b0: 67ab 16bd d2b2 51bd ff8d 25bd 8f7e e93c
000001c0: c8bf 2ebd a4d1 8b3d c950 bfbc 7136 393d
000001d0: c17d a03c 32c7 c6bd 8bca 1c3c 4db5 dabd
000001e0: bf79 b03d 0a64 3abd bd37 9f3d 5297 e43b
000001f0: 97a2 0abd 5732 c1bd f7ae 803b 72a9 12bd
00000200: 7348 ae3d cfae 5c3d a6c5 09bd 0843 aa3d
00000210: 442d 9fbd 2c95 52bd 2192 373d 24ae a7bd
00000220: b8a2 a7bd 18d2 ae3c 1fd5 45bd 354a 76bd
00000230: 5895 9e3c 8c60 283b a703 47bd f4cf 753d
00000240: 6e82 243d 58c5 963d 0b7e 243c 5852 09bd
00000250: 0660 8bbd 2e5d 713d dd92 aebd 2364 a4bd
00000260: ee47 9a3d 9b5c 3abd 68fa 42bc 2ba6 233d
00000270: 7e14 38bd 307e 9d3d fbe9 acbd efd7 24bd
00000280: 0452 3d3d 7efe 53ba ddf4 8ebb f199 723b
00000290: e21e 82bd 541f 50bd 44d5 a73c 23d4 67bc
000002a0: 3b9d 31bd 2408 62bd 14f5 aebd fd4f 8e3d
000002b0: ab64 2ebd a842 033d 04a1 65bb 257d 85bc
000002c0: b6e8 ad3d 6563 57bc e5d7 e73c 8aaf 6a3d
000002d0: 0ab0 373c 77ec 86bd a003 483d f0b3 cf3c
000002e0: 6a5e 7cbd d107 87bd 63d0 ffbc c350 e0bc
000002f0: e3b3 3dbd 12be 613d 7b64 f8bb 6f00 6a3d
00000300: c089 b23d b607 96bd db2b 743d 27f7 4bbc
00000310: 17a0 903c 6e1c 723d 12ac 873c b6d0 c6bb
00000320: 24f7 503d 89f7 2abd a6e6 513d 8c0d dbbc
00000330: bc0f 263d 0861 393d d7bc 933d f46c 463d
00000340: 379b 7cbc 3ec4 183c 0fcc 59bd 23a8 2d3d
00000350: 0bf2 f6bc 8aac 84bd 4a87 60bd 0fb3 6bbb
00000360: 76fc 87bc e435 a1bc e09c 16bc c073 503d
00000370: f61c 373a f03c 7e3c 0145 e53c e24c 92bd
00000380: 3678 a8bc 8ba4 d6bc ca1c a1bc d516 233d
00000390: 7251 9d3c e5f7 1a3d 7d7b 933d 68eb 52bd
000003a0: ec1a 89bd 83cd 49bd 631e 82bc e203 b1bd
000003b0: 5dec 15bb 0af3 803c bb76 a1bd 6ff9 88bd
000003c0: 5c64 d43c edca 163c 0e29 f93b 31dd 1cbc
000003d0: 4bd0 98bd 3b6d 0a3d 2312 32bc 9449 69bb
000003e0: 4ac3 08bd 420f 893c 7092 adbc 9c4f 02bd
000003f0: 0e55 963d 8dd0 4fbd b581 94bb 1836 1abd
-0.022274552 0.0429276 0.035348117 0.08106203 -0.0059121633 -0.033007976 0.00021006627 -0.08213392
0.024394099 0.04776561 0.011155486 -0.0072120875 -0.036906112 -0.07009567 0.0011342303 -0.06721722
0.013018528 -0.059749417 0.06833497 -0.058718927 -0.113278344 -0.08424117 -0.004776242 0.03764731
0.031795748 -0.026323449 -0.05844326 -0.036651433 0.05288443 -0.081688516 -0.103672475 0.03873496
0.0016870294 -0.03668496 0.07246823 0.036062535 -0.07633827 0.12248239 -0.06414029 0.025629371
-0.097410545 -0.09790821 0.031304933 -0.077422984 0.012537636 0.0032618493 -0.08734926 -0.015178779
-0.0740713 0.07787267 -0.09601702 -0.08050386 -0.003604198 -0.057283003 -0.009100292 0.026712973
-0.01908063 -0.038756985 -0.047582988 0.08545009 0.008386711 -0.0570526 0.06665386 0.12424959
-0.00023033228 -0.043033432 0.08228259 -0.11369397 0.005521807 0.016927524 0.07125338 -0.07465334
0.077784866 -0.02886825 0.109059386 0.04053308 -0.04502248 0.091474414 -0.07108257 0.021355178
0.08114669 -0.043275557 0.054659396 -0.043198694 0.0709335 0.094234735 0.056234773 -0.016346287
0.009413591 -0.047827937 0.045299627 -0.105630726 0.060384184 -0.042142916 -0.084032215 0.029074563
0.012579464 -0.019665625 -0.09333537 0.00048035383 -0.06399679 0.06392015 0.074899934 -0.050131895
-0.011644212 0.07547062 0.0042470526 -0.036656056 -0.036784556 -0.051195927 -0.04041862 0.02850273
-0.042663366 0.06827095 -0.023353951 0.045217935 0.019591214 -0.09705962 0.009569774 -0.10679112
0.08616971 -0.04550556 0.07774303 0.0069760466 -0.033846464 -0.0943343 0.0039271074 -0.035806127
0.08509912 0.053877648 -0.033635758 0.083135664 -0.077723056 -0.051411793 0.044817094 -0.081875116
-0.08185333 0.021340415 -0.04829895 -0.060129363 0.019358322 0.0025692312 -0.048587468 0.060012773
0.04016345 0.07361859 0.010039817 -0.033525795 -0.068054244 0.058926754 -0.08524106 -0.08026912
0.07533251 -0.04549847 -0.011900522 0.039953392 -0.044941418 0.07690084 -0.08443066 -0.040244993
0.046220794 -0.00080869335 -0.004362686 0.0037018026 -0.06353547 -0.050811127 0.020487435 -0.014149698
-0.043362837 -0.055183545 -0.08542839 0.0694885 -0.042576473 0.03204599 -0.00350386 -0.016295025
0.08491652 -0.013146256 0.028301189 0.057296313 0.011211405 -0.06588071 0.048831582 0.025354356
-0.061613478 -0.06593288 -0.031227296 -0.02738226 -0.04631413 0.055112906 -0.0075803376 0.05712932
0.0871768 -0.073256895 0.059612136 -0.012449062 0.017654462 0.059109144 0.016561542 -0.0060673608
0.05101694 -0.041739974 0.051245354 -0.026739858 0.04054235 0.04525855 0.07213753 0.04844375
-0.0154178655 0.0093241315 -0.05317312 0.042396676 -0.030144712 -0.06478222 -0.05481652 -0.0035964882
-0.016599875 -0.019679017 -0.009192675 0.050891638 0.00069852115 0.015517458 0.027987005 -0.071435705
-0.020565134 -0.026201507 -0.019667048 0.039816696 0.019203875 0.037834067 0.07201288 -0.051494032
-0.06694588 -0.049268257 -0.01588363 -0.08643319 -0.002287648 0.01574089 -0.07883974 -0.06688201
0.025926761 0.009203655 0.007603771 -0.0095742205 -0.07461604 0.033795577 -0.010868582 -0.0035596834
-0.033389367 0.016730908 -0.02118799 -0.031814203 0.07340442 -0.050736 -0.004532064 -0.037649244
