models/save_models/mlp_features_espectrales.pth (torch, 526108 bytes, 20 tensors)

fc1.weight f4 [256, 336]
000000 2a fb 8e 3d cb 11 0e 3e b7 bf 87 bd 58 ec d5 bd
       0.069814995 0.13873975 -0.066283636 -0.104454696
000010 e3 c2 d8 bd 6f 97 09 be ff a9 c5 bd 0a 7e 13 3b
       -0.10584047 -0.13436674 -0.09651565 0.0022505545
000020 a7 7d ad bd 17 48 a9 bd c7 d1 c8 bc fb f9 73 bd
       -0.08471232 -0.08265703 -0.024514092 -0.05956457
000030 b7 85 19 3e 9d 6e 5d bd 51 29 ac bd ce b8 cf bd
       0.14992414 -0.054060567 -0.08406318 -0.101426706
000040 73 d2 05 be 85 57 58 bd 09 99 ea bd 3b 33 77 bd
       -0.13068561 -0.05281784 -0.114549704 -0.06035159
000050 27 60 28 be 83 b9 ef 3c d4 de 62 3d 64 19 27 bd
       -0.16442929 0.029263264 0.055388287 -0.0407957
000060 36 6f 27 3e 5a 4c 37 bd 23 78 13 3e da 13 17 bc
       0.16351017 -0.04475055 0.14401297 -0.009221042
000070 22 fe 6a bd 28 2b e8 bb 0b ca b8 bd 49 86 c8 bd
       -0.057371266 -0.0070852228 -0.09022912 -0.09791238
000080 e8 40 35 be 5b 2f 31 3d 36 1f 49 bd 09 a8 b3 bd
       -0.17700541 0.043258052 -0.04910203 -0.087722845
000090 5e 78 8a bd c6 ed d4 bc 48 21 cc bd d3 54 2e 3d
       -0.067612395 -0.025992285 -0.099672854 0.042561363
0000a0 61 81 f1 bd a3 72 e2 bd 52 ec 80 be 02 62 15 be
       -0.11792255 -0.110570215 -0.25180298 -0.14588168
0000b0 58 e5 bf bd ea 17 fc bc 83 d2 26 3d 98 31 07 bd
       -0.09369916 -0.030773122 0.040728103 -0.03300628
0000c0 64 1c 32 bd 8e 3f 98 3c 99 de 12 3c 17 15 92 bd
       -0.043484107 0.018584993 0.008964204 -0.07132929
0000d0 dc ca a0 bd 0f b0 75 bd 80 1b db bd c2 1b 9d bd
       -0.07851192 -0.059982356 -0.106986046 -0.0767131
0000e0 85 9b 37 bc 5b 4a a7 3d a1 e7 95 bd ce c0 f2 3d
       -0.011206512 0.08168479 -0.0731957 0.11853181
0000f0 83 55 69 bc e5 5a c8 bd 7c e4 44 3d a8 aa 88 3d
       -0.014241579 -0.09782962 0.048069462 0.06673175
000100 a6 a4 08 3e 40 de 00 3e af 8a 11 3e aa b5 84 bd
       0.13344058 0.12584782 0.1421306 -0.06479962
000110 17 64 a0 3d b8 f3 8d 3d c3 c8 e5 3d 1c 9e a7 bd
       0.078315906 0.06931251 0.11219933 -0.08184454
000120 b0 a9 95 3c e0 8a 9b bd fe 56 bb bd 57 29 eb bc
       0.01826939 -0.07594848 -0.09147452 -0.028706236
000130 63 3b 1f 3b 9c 3a 93 bc bc c9 03 bc 26 1b 9c 3d
       0.0024296872 -0.017972283 -0.008043703 0.07622366
000140 e2 3c 2f bd 04 f9 bb 3d 43 6e e3 bd 57 36 c0 bd
       -0.04278267 0.09178355 -0.11105015 -0.093853645
000150 73 f6 59 3d a8 85 9c 3d 3e 71 8f 3c e2 05 e3 3d
       0.053213548 0.076426804 0.017510053 0.110851064
000160 8c 76 98 3d 84 e7 a7 3c 8d 8c a1 bd a2 b9 cc bc
       0.07444486 0.020496137 -0.07888136 -0.02499086
000170 43 db 0e bd 35 fa e6 bc 36 d7 7d 3b 56 49 72 3c
       -0.034877073 -0.02819548 0.0038733012 0.014787992
000180 84 64 cb 3d e3 9b 99 3d 27 5e 36 3b 6c a3 02 3c
       0.09931281 0.07500436 0.0027827115 0.007973533
000190 1e 6c cc 3c ef 72 8a bd d2 d6 ee 3d f4 f6 d2 bc
       0.024953898 -0.06760203 0.116620675 -0.025752522
0001a0 4d 3d 0f 3d a9 9e a5 bc 29 69 10 3c dc 85 56 3a
       0.03497057 -0.020217257 0.008814135 0.0008183399
0001b0 9d 62 98 bc d5 50 17 bd 7e 44 53 bd a6 83 46 3d
       -0.01860171 -0.03694232 -0.05157899 0.048465393
0001c0 f2 b1 96 3d c9 b3 93 bd 29 5b c9 bd c4 da 0c be
       0.07358159 -0.07212026 -0.098318405 -0.13755327
0001d0 9f 03 24 be f2 48 b9 bd 09 b2 5c bc 39 26 c4 bd
       -0.16017006 -0.09047116 -0.013470181 -0.09577603
0001e0 7e bc 18 be 35 2f 81 3d ac 66 d0 bd b9 a1 ea bc
       -0.14915654 0.06307832 -0.10175833 -0.028641568
0001f0 b7 9c d7 3d 68 f2 3d bd 92 be 8d bd 24 11 ba 3c
       0.10527938 -0.046373755 -0.06921114 0.022713251
000200 f9 5f 26 be f5 b2 d7 bc 8f eb dd bd a0 97 15 bd
       -0.16247548 -0.02633045 -0.10835945 -0.036521554
000210 f3 5b 4a bd dc 58 f2 bc f8 81 c4 bc ba 11 a4 bd
       -0.049404096 -0.029583387 -0.023987755 -0.080111936
000220 58 d0 50 3d 91 40 bd bc e2 b4 df 3d d0 ae 8b bd
       0.050979942 -0.023102077 0.109231725 -0.06820452
000230 6b 6e b7 bd ff 6d 0c be 5d 70 99 bd 95 83 a6 bd
       -0.089566074 -0.13713835 -0.07492135 -0.08130566
000240 11 7a c1 bd 88 1d 22 bc de b5 a2 bd d8 e5 db bd
       -0.094471104 -0.009894736 -0.07944845 -0.107371986
000250 3f 01 1c bd 3e 85 92 bd 4e a0 15 bd 49 90 ab bc
       -0.038087126 -0.0715432 -0.03652983 -0.020942824
000260 67 e3 ee bd d4 a3 03 3d 97 01 32 be a0 09 e0 bc
       -0.11664467 0.03213866 -0.17383419 -0.02734834
000270 5b 96 17 bd 11 3c c4 bc bc 69 7b 3c b0 49 bb 3d
       -0.037008625 -0.023954423 0.015345033 0.09144914
000280 78 ea 19 3d 0a 8e 96 3c 66 54 e9 3d f6 8f a0 ba
       0.037577122 0.018378276 0.11393051 -0.0012249935
000290 02 8b f6 bd c0 8c 16 3e d3 6f 89 bd 00 5d 5e bd
       -0.120382324 0.1470213 -0.06710782 -0.05428791
0002a0 3f 98 95 bc 10 59 a4 bd e1 77 d7 bd 12 61 3f 3d
       -0.018261073 -0.080248 -0.10520912 0.046723433
0002b0 ea 81 8c bc 20 2d fc 3c bb 6e cc 3a 84 5e 5d bd
       -0.017151792 0.030783236 0.0015596965 -0.054045215
0002c0 b3 99 2d bd 5e 8c 02 be de eb c9 3c ad df 71 3b
       -0.042382907 -0.12748858 0.024648603 0.0036907003
0002d0 6a 41 5e 3d ae cc 46 3c ec 01 c1 bd b2 e3 a2 3d
       0.054261602 0.01213376 -0.09424195 0.07953586
0002e0 0e 7f 22 3d 22 c4 cc 3c 3b a2 15 bd d8 b5 84 3d
       0.03967195 0.024995867 -0.03653167 0.064799964
0002f0 c3 df c0 bd 5b fb 88 bc a9 80 51 3d 7a b0 81 bc
       -0.09417679 -0.016721418 0.05114809 -0.01583122
000300 ed 1e 53 3d 93 fe ac bd d0 28 57 3d 7b 2e 09 3e
       0.051543165 -0.08446994 0.052529156 0.13396637
000310 e0 ad a6 bd d1 2b 4a bc e3 ce 09 be 29 9f 15 bd
       -0.08138633 -0.012339548 -0.13457827 -0.03652874
000320 40 aa 82 3d 91 63 01 bd 1c 57 e2 3d 98 19 20 3d
       0.06380129 -0.031589095 0.11051771 0.039086908
000330 af 6d 47 3d 7b 8f 8e 3d 75 75 92 3c d3 db 9b 3c
       0.048688587 0.069609605 0.017878274 0.019025719
000340 4e 2a b4 3d 0e c1 ec bd 47 85 f3 3d 7b e8 1e bc
       0.087971315 -0.1156026 0.11890655 -0.009698982
000350 b3 ff 18 bd 2e 88 9c 3b 0d 15 d9 3c e3 18 2e 3a
       -0.03735323 0.004776976 0.026499296 0.00066412817
000360 7a 55 04 bd 3d 39 4a bd 05 11 11 3c b4 7e f8 3d
       -0.03230808 -0.049370993 0.008854155 0.12133542
000370 a0 a6 b2 3c ab 62 b6 3d 4d 09 9f 3c 70 b3 fd bd
       0.021807969 0.08905538 0.019413615 -0.123877406
000380 61 63 db bd b8 2e db 3d d3 66 b4 bc db 69 4b bd
       -0.107123144 0.1070227 -0.022021687 -0.0496615
000390 53 7a 44 be d6 87 ad bd 1e e2 5b be ed b2 a0 bc
       -0.19187288 -0.08473174 -0.21472976 -0.019616568
0003a0 ac 89 55 bd e9 a6 bc bd 53 ab 9b bd 1b 66 07 be
       -0.052133247 -0.09211523 -0.07601037 -0.13222544
0003b0 05 1f ee 3d fe 04 0e bc ac 1c e8 3b f4 2f 27 bd
       0.1162701 -0.008668182 0.007083496 -0.040817216
0003c0 8f 78 70 bd f2 5f 84 3c 9b 0b d1 bd bb c2 82 3c
       -0.058708724 0.016159032 -0.10207292 0.015961995
0003d0 7a a7 75 bd 90 42 7e bd 25 81 a0 3d 65 7d 67 3d
       -0.05997417 -0.062075198 0.07837132 0.05651607
0003e0 3a 0e 1f 3d 97 4a 90 bc 04 fd a2 3d 68 5a 48 bd
       0.038831927 -0.017613692 0.07958415 -0.048914343
0003f0 7d a7 37 bd de 02 07 bc d3 14 a8 bd 33 cd c2 bd
       -0.044837464 -0.00824043 -0.08207097 -0.09511795

fc1.bias f4 [256]
000000 9d fe 47 bd a5 cd ae 3d be b7 05 bd 09 7c bb bd
       -0.048826803 0.08535317 -0.032645933 -0.09154517
000010 f1 71 0f 3d e4 fc e6 3d 37 9a 3c 3c 65 15 4e 3d
       0.035020772 0.11278704 0.011511377 0.050313372
000020 70 b5 b3 bd 85 3a 5e 3d f0 78 fd ba ec 69 ef 3d
       -0.08774841 0.054255027 -0.001933841 0.11690125
000030 ae 04 e3 3d 61 42 ba bc be a2 d8 bc 0b 73 2d 3d
       0.11084877 -0.02273673 -0.026444789 0.04234604
000040 d2 d2 23 3c 5c cf 1d 3d 3d d0 95 3d a1 97 23 3c
       0.009998994 0.03852783 0.07315109 0.009984882
000050 e8 99 d5 3d be 60 a8 3d b2 33 86 3d b7 c0 9f 3d
       0.10429746 0.08221577 0.06552829 0.07800429
000060 2e 15 06 3e c5 c8 79 bd 7d 59 68 3c f7 9f 8e 3d
       0.13094017 -0.060982484 0.014181492 0.069641046
000070 cc aa 94 bc cd 1d 56 3c 36 57 12 bc d2 d2 23 3c
       -0.018147849 0.0130686285 -0.0089319255 0.009998994
000080 97 cf df 3c 58 1a da 3d 09 84 7a 3b 9b 6f c8 3d
       0.027320666 0.10649556 0.0038225672 0.09786912
000090 d2 d2 23 3c 28 23 b4 3c 95 d2 8f 3d a8 7b cc bd
       0.009998994 0.02198942 0.07022587 -0.09984523
0000a0 d2 d2 23 3c d2 38 92 3d 39 2e 94 3b 81 1a 4d 3d
       0.009998994 0.07139744 0.0045221117 0.050074104
0000b0 79 fd 7f 3d d2 d2 23 3c 29 c7 23 3c 7e 59 6f be
       0.06249759 0.009998994 0.009996214 -0.23373982
0000c0 bc 34 e0 3b 42 26 19 3e 62 a0 6e 3c d2 d2 23 3c
       0.006842224 0.14956 0.014564605 0.009998994
0000d0 d2 d2 23 3c 22 c5 19 3e d2 d2 23 3c a8 1b 77 3d
       0.009998994 0.15016606 0.009998994 0.06032911
0000e0 10 6a d2 3b 63 68 c5 3d d6 13 87 3d ec 1f 32 3d
       0.006421335 0.09639051 0.0659558 0.043487474
0000f0 d2 d2 23 3c ce b5 00 3e 37 6b 79 3d 1d 98 30 3c
       0.009998994 0.12569353 0.060893264 0.010778454
000100 ec d9 b0 3d 2b e8 bd 3c d2 d2 23 3c d2 d2 23 3c
       0.08635315 0.023181995 0.009998994 0.009998994
000110 1e 0e d7 3c 85 aa 18 3d 29 90 cf 3d d2 d2 23 3c
       0.026251849 0.037271995 0.10134918 0.009998994
000120 c2 9e 54 3e 62 1e ac 3d 40 79 d9 3e f2 2e 60 3d
       0.20763686 0.084042326 0.4247532 0.05473227
000130 76 ec e1 3c b2 6c d8 3b 2a e1 59 3e e7 f8 0b bd
       0.027578574 0.0066047544 0.212773 -0.03417292
000140 85 cc ca bc 7a e1 32 3e 6d a2 d4 bc 5c e9 b2 3e
       -0.024755726 0.17468825 -0.025956357 0.34943664
000150 7f c2 f9 bd 14 14 b7 3e 5b 31 1a 3e b4 89 ca 3d
       -0.121953 0.35757506 0.1505789 0.09889546
000160 e6 0a 37 3e fb d9 c2 3e 89 a1 3c 3d 86 4b 25 bc
       0.17875251 0.3805693 0.04605249 -0.010088807
000170 a4 46 1a 3d 80 83 66 3c 64 0c 1f 3e 3e da ca 3c
       0.037665024 0.014069438 0.1553207 0.02476227
000180 54 77 61 bc d2 d2 23 3c 42 c6 23 3c 2c d9 33 3e
       -0.01376136 0.009998994 0.009995999 0.17563313
000190 0e 81 95 3e 86 f7 dd 3d 9b 62 5a 3e fd 98 f1 3d
       0.29200023 0.10838227 0.21326678 0.11796758
0001a0 d2 d2 23 3c d2 d2 23 3c 8d 6c 57 bd 06 ea 0b 3c
       0.009998994 0.009998994 -0.052593756 0.008539682
0001b0 7b 4d 30 bd 4d 02 7e 3c 84 a7 b5 3b 1f 0f 94 3e
       -0.04304264 0.015503478 0.005543651 0.28917786
0001c0 d2 82 84 3d da 61 d1 3d 02 00 8a 3d cb 7f 6e 3e
       0.064702645 0.10223742 0.06738283 0.23290937
0001d0 8f 59 f3 bd e5 92 34 3e 66 25 53 3e ad 8f 54 3e
       -0.11882316 0.17634161 0.20619735 0.20757933
0001e0 d1 d0 23 3c 7b ff 78 bd f3 fd 86 3d 8c b8 1e 3d
       0.009998516 -0.06079052 0.06591406 0.038750216
0001f0 2d 36 55 3e bd cd 13 3e 68 df 66 3d fb 66 20 3d
       0.20821448 0.14433952 0.0563654 0.03916071
000200 d2 d2 23 3c b9 4e 01 3d 67 36 a6 3c 06 2c 00 3d
       0.009998994 0.031569216 0.020289613 0.031291984
000210 41 2a 8b 3d de be a3 3c aa 20 c8 3d 8e 63 8e 3d
       0.06795169 0.019988474 0.09771855 0.06952582
000220 b9 33 9a bd 60 7c f6 3c 84 d0 f9 bd 27 a9 1f 3c
       -0.075293966 0.030088603 -0.12197974 0.009744919
000230 d2 bd c1 bc 7b 12 c4 3d 19 2c 7b 3e 05 f7 f7 3b
       -0.023650084 0.09573837 0.2452854 0.007567289
000240 c8 cf 46 3d ca 7d 8a 3d 2f 9c 15 3d d7 b2 97 3d
       0.048538 0.067622736 0.0365259 0.07407158
000250 d2 d2 23 3c ce fb 64 bd 74 d4 23 3c f7 15 53 bb
       0.009998994 -0.055904202 0.009999383 -0.0032209137
000260 a2 ce c3 3d a6 ab f0 3b 56 4d 0a bd 4b bc e3 bb
       0.095608965 0.007344681 -0.03376516 -0.0069499365
000270 85 1d 43 3d 56 c6 89 3b 39 8b 00 3c 02 2a 4f 3d
       0.047635574 0.0042045517 0.007845693 0.05057717
000280 2c ff d6 bc 06 1e d2 3b 22 28 91 bd 0d 07 c4 bc
       -0.026244722 0.0064122705 -0.07087733 -0.023929143
000290 8d 64 aa bc d2 2b 64 3d 06 df bb 3b ce fb f7 3d
       -0.0207999 0.055705853 0.0057333736 0.12108575
0002a0 2f 64 5d 3c 53 c9 c9 3c 6f 2e 9a 3d 63 db 07 be
       0.013512655 0.024632132 0.07528388 -0.13267283
0002b0 99 bb 33 bd ab 76 34 3e 2e 34 07 3d 49 2b c1 3b
       -0.04388008 0.17623393 0.033008747 0.0058950526
0002c0 fb 9f 27 3d 07 a4 96 3d 08 ab 23 3c 27 b0 9e 3b
       0.040924054 0.073555045 0.0099895075 0.0048427763
0002d0 5b b1 4b 3d 2d 79 74 bd 7c 88 33 3e 5d f0 9a 3e
       0.049729686 -0.059685875 0.17532533 0.30261508
0002e0 a2 90 c7 3c dd b3 25 3e bb 03 20 3d 80 e4 5d 3d
       0.024360958 0.16181894 0.039066058 0.054172993
0002f0 d1 0b d4 3c 18 4b 02 3c 56 a7 c6 3c 73 ab ae 3a
       0.02588454 0.007952474 0.024249714 0.0013326242
000300 a2 d4 23 3c c4 42 4f 3d 60 84 1d bd 4c 1d 1e 3e
       0.009999426 0.050600782 -0.03845632 0.15440863
000310 9e 35 f1 3d 6c 57 a1 3c c5 b9 7d 3c 50 f8 c5 3d
       0.11777805 0.019695006 0.015486185 0.096665025
000320 88 a8 8d 3d d2 d2 23 3c 49 d2 23 3c ea 1d b9 3d
       0.069169104 0.009998994 0.009998866 0.09038909
000330 03 97 23 3c c6 c7 2c 3e 2a 59 ee 3d d2 d2 23 3c
       0.0099847345 0.16873083 0.116381004 0.009998994
000340 57 5b 97 3d 78 b2 21 3d ea fc 74 bc b9 8e 98 3b
       0.073904686 0.03947684 -0.014952878 0.0046556857
000350 d2 c5 be 3d 7e 79 18 3e c5 5e a0 3e 76 e2 3c 3d
       0.09315075 0.14890096 0.31322303 0.046114407
000360 df c3 49 3d d2 d2 23 3c c8 8e 0a 3d d2 d2 23 3c
       0.049259063 0.009998994 0.033827573 0.009998994
000370 3d ce 7d 3d b3 1a 63 3c 6b ae d2 3d d9 54 a7 3d
       0.061964262 0.013861346 0.10287174 0.0817048
000380 7c 17 40 3d ee ba 40 3c 6a 77 ab 3d 10 de c8 3e
       0.046897396 0.0117633175 0.08372386 0.3923192
000390 4d 38 49 3e d2 d2 23 3c 4f dd 8e 3d 77 6f 49 3d
       0.19650383 0.009998994 0.06975805 0.049178567
0003a0 26 a0 2c 3d cb d2 23 3c ff d0 23 3c 1a 8d 91 3d
       0.042144917 0.009998987 0.009998559 0.07106991
0003b0 d7 5c e7 3e 40 b4 fc 3b 4e cf e9 3d a3 97 37 3d
       0.4518802 0.007711917 0.11416493 0.044822346
0003c0 0f 36 8e 3e e2 56 d2 bc ea dd 23 3c 34 8f 81 3e
       0.27775618 -0.025676195 0.010001639 0.25304568
0003d0 d2 d2 23 3c 9e 78 5f 3d d2 d2 23 3c de a7 01 3d
       0.009998994 0.05455839 0.009998994 0.03165423
0003e0 b5 ce 23 3c 36 3d 06 3e 2a e7 80 3d f7 20 33 bc
       0.009998013 0.13109288 0.06294091 -0.010933152
0003f0 d2 d2 23 3c a8 ac 13 be f7 02 d8 3c f5 b1 97 3e
       0.009998994 -0.14421332 0.026368601 0.29627958

bn1.weight f4 [256]
000000 de 30 77 3f 47 4d 81 3f e6 f8 6e 3f 06 8b 76 3f
       0.9655894 1.0101708 0.9334854 0.9630588
000010 dd 0f 96 3f 2f de 7b 3f f1 55 70 3f 94 3a 7e 3f
       1.1723591 0.983859 0.93881136 0.99308133
000020 42 25 7c 3f 7c 8c 86 3f fa 21 74 3f 20 a5 8c 3f
       0.9849435 1.0511622 0.95364344 1.0987892
000030 95 c0 a2 3f 65 6a 6d 3f c6 3a 6e 3f 19 a3 7c 3f
       1.2715021 0.9274047 0.9305843 0.9868637
000040 8e 50 8b 3f 99 0c 6c 3f 6f 46 86 3f 57 11 8c 3f
       1.0883958 0.9220672 1.0490245 1.0942792
000050 62 16 78 3f bb 00 6e 3f ba 20 96 3f e9 58 71 3f
       0.96909153 0.92969865 1.1728737 0.9427629
000060 7f 57 76 3f cf 2c 70 3f bf 1d 78 3f 54 23 8a 3f
       0.9622726 0.9381837 0.9692039 1.0792031
000070 76 90 73 3f 61 fa 76 3f 72 c0 74 3f d9 68 8b 3f
       0.95142305 0.964758 0.9560615 1.0891372
000080 2f 12 7a 3f fa c0 63 3f 39 09 81 3f 8a 32 6e 3f
       0.97683996 0.88966334 1.008094 0.93045866
000090 eb bf 63 3f 82 98 8b 3f 8b f2 6f 3f 09 f6 72 3f
       0.8896472 1.0905917 0.93729466 0.9490667
0000a0 5a d0 8a 3f ca 36 75 3f d3 9b 80 3f f0 4d 7f 3f
       1.0844834 0.95786726 1.0047554 0.997283
0000b0 3c 35 6b 3f 65 b2 8d 3f 6e 79 6f 3f aa 95 67 3f
       0.91878104 1.1070067 0.9354466 0.90462744
0000c0 77 8a 78 3f d8 99 85 3f ed 67 80 3f d8 25 5a 3f
       0.9708628 1.0437574 1.0031716 0.85213995
0000d0 16 22 61 3f e4 db 89 3f b9 92 87 3f b4 73 87 3f
       0.87942636 1.077023 1.0591651 1.0582185
0000e0 42 36 60 3f 4b ad 82 3f cf 0a 6b 3f 3b b4 70 3f
       0.8758279 1.0209135 0.9181337 0.9402501
0000f0 0c 46 8e 3f ef 0a 71 3f fe bf 79 3f 80 6e 73 3f
       1.1115127 0.9415731 0.9755858 0.95090485
000100 3a 97 86 3f b6 96 63 3f c7 ca 5f 3f db 05 72 3f
       1.0514901 0.8890184 0.8741879 0.94540185
000110 b5 2d 6b 3f 85 34 79 3f d2 b6 7f 3f fd 5c 8a 3f
       0.9186662 0.97345763 0.99888337 1.0809628
000120 50 13 78 3f 5d fc 82 3f be fe 87 3f 98 4c 94 3f
       0.9690447 1.0233265 1.0624616 1.1585875
000130 5a c5 9e 3f 0d fc 6b 3f 73 69 7b 3f d3 3c 73 3f
       1.2403977 0.92181474 0.9820778 0.95014685
000140 e4 ed 7a 3f 7f c1 74 3f 97 05 7b 3f 9f fc 87 3f
       0.9801924 0.9560775 0.98055404 1.0623969
000150 59 90 6f 3f ab 58 85 3f 8f 65 80 3f 06 9b 88 3f
       0.9357963 1.0417684 1.0030993 1.0672309
000160 66 be 81 3f 0b 21 7b 3f 74 5d 87 3f 70 92 83 3f
       1.013623 0.98097295 1.0575395 1.0279064
000170 81 76 91 3f 98 7c 6a 3f 6e b5 85 3f a7 a0 85 3f
       1.136429 0.91596365 1.0445993 1.0439652
000180 f9 cb 75 3f 87 54 8c 3f 9f 37 69 3f 39 b7 7f 3f
       0.9601436 1.0963296 0.91100496 0.9988895
000190 af cd 8b 3f 22 f1 72 3f e8 47 74 3f 90 fe 78 3f
       1.0922145 0.9489919 0.9542222 0.9726343
0001a0 ed 2c 88 3f 79 be 63 3f 62 fa 70 3f df ec 7e 3f
       1.063871 0.88962513 0.94132054 0.99580187
0001b0 c2 1c 72 3f 78 5b 7c 3f 27 8c 76 3f 65 93 a7 3f
       0.9457513 0.9857707 0.96307606 1.3091856
0001c0 3d de 81 3f 7c 1e 6f 3f d5 23 79 3f dc 93 72 3f
       1.0145947 0.9340589 0.973203 0.94756866
0001d0 f4 05 7c 3f 5b 36 78 3f 64 5a 9e 3f 30 54 6c 3f
       0.98446584 0.9695794 1.2371335 0.9231596
0001e0 ec 9a 72 3f cc 84 80 3f 87 ca 6e 3f eb 20 84 3f
       0.9476764 1.0040526 0.9327778 1.0322546
0001f0 7f 28 70 3f 75 76 71 3f 85 e8 82 3f 6a d4 7a 3f
       0.9381179 0.94321376 1.0227209 0.9798037
000200 bb 6b 65 3f 9c be 8f 3f 2c e8 72 3f 4c 0b 74 3f
       0.8961751 1.1230044 0.94885516 0.9532974
000210 d4 fd 73 3f fc 7a 76 3f f5 d5 7d 3f ae 00 75 3f
       0.95309186 0.9628141 0.991546 0.9570416
000220 2f a9 7a 3f 0c 8f 7a 3f 52 b1 81 3f 9e 76 7c 3f
       0.97914404 0.9787452 1.0132239 0.98618495
000230 ac 4e 6e 3f 6e 0b 8f 3f f7 a8 7a 3f 3f 79 79 3f
       0.93088794 1.1175363 0.9791407 0.9745063
000240 35 4f 74 3f 1a 64 87 3f f6 ac 7c 3f 5f 42 6c 3f
       0.9543336 1.0577424 0.9870142 0.92288774
000250 1a 63 89 3f 2e 75 75 3f 4a 6d 72 3f 76 fb 72 3f
       1.0733368 0.95881927 0.9469801 0.9491495
000260 98 6a 90 3f 78 37 81 3f ad 26 67 3f 5c 3d 7b 3f
       1.128253 1.0095053 0.9029339 0.981405
000270 da bb 90 3f c0 a7 75 3f d4 48 69 3f e0 22 81 3f
       1.1307328 0.9595909 0.9112675 1.0088768
000280 a0 1d 84 3f f1 40 7f 3f 87 4a 6f 3f 33 55 6b 3f
       1.0321541 0.9970847 0.93473095 0.9192688
000290 a9 3a 81 3f 13 fa 86 3f 2a c1 86 3f 72 15 7f 3f
       1.0096027 1.0545067 1.0527699 0.996421
0002a0 d5 e0 84 3f e4 5a 7b 3f 96 9f 81 3f ba 72 76 3f
       1.0381113 0.98185563 1.0126827 0.9626881
0002b0 c3 f4 6c 3f 9e 88 73 3f 9b 29 80 3f 14 7b 7f 3f
       0.92560977 0.95130336 1.0012697 0.9979718
0002c0 41 c1 72 3f 8f 0e 8c 3f 7d eb 6a 3f 0f 63 70 3f
       0.9482613 1.0941943 0.91765577 0.9390115
0002d0 d2 0a 74 3f ef ca 69 3f a4 e7 8e 3f 06 b7 95 3f
       0.9532901 0.9132528 1.1164441 1.1696479
0002e0 7c 57 62 3f db e9 85 3f 99 cf 85 3f 2a d8 80 3f
       0.8841474 1.0461992 1.0453979 1.0065968
0002f0 cb ae 6f 3f 42 68 69 3f 5d 3e 77 3f b7 f6 70 3f
       0.9362609 0.9117471 0.96579534 0.94126457
000300 fd f5 70 3f 9f 55 85 3f eb c4 7e 3f 5e ac a3 3f
       0.9412535 1.0416754 0.9951922 1.2786977
000310 d5 ce 77 3f 95 30 84 3f 1d 33 72 3f 61 fe 80 3f
       0.96799976 1.0327326 0.9460924 1.007763
000320 90 c3 84 3f 33 d6 74 3f 0d c6 65 3f 6a 46 83 3f
       1.0372181 0.9563934 0.89755327 1.0255864
000330 34 29 85 3f 27 19 78 3f 08 8c 86 3f b4 e3 8d 3f
       1.0403199 0.9691338 1.0511484 1.1085114
000340 7f fd 74 3f 33 db 83 3f 03 a1 75 3f 96 c9 84 3f
       0.95699304 1.0301269 0.9594881 1.0374019
000350 07 8d 75 3f eb d2 7e 3f 6e f6 8f 3f 49 ae 8c 3f
       0.95918316 0.99540585 1.1247079 1.0990688
000360 56 1b 73 3f df 37 89 3f df f2 8b 3f 08 62 89 3f
       0.94963586 1.0720176 1.0933493 1.0733042
000370 e2 df 72 3f 41 76 6a 3f 99 1d 7f 3f fa e6 73 3f
       0.9487287 0.9158669 0.9965454 0.9527432
000380 e3 fc 71 3f 27 0b 6b 3f 64 c4 7b 3f 39 15 9a 3f
       0.945265 0.9181389 0.98346543 1.2037727
000390 19 9d 89 3f 6e 2a 75 3f aa 04 70 3f 1e 4b 77 3f
       1.0751067 0.9576787 0.93757117 0.96598995
0003a0 be 53 72 3f c3 60 91 3f d2 06 72 3f 6f 53 75 3f
       0.9465903 1.1357654 0.94541657 0.95830435
0003b0 4c 53 90 3f 01 6b 7e 3f f3 1f 79 3f 9b 99 8e 3f
       1.127542 0.99382025 0.97314376 1.1140627
0003c0 c6 81 90 3f 20 93 5a 3f 8a 0a 76 3f 0e de 94 3f
       1.1289604 0.85380745 0.9610983 1.1630266
0003d0 1c 86 64 3f c4 87 67 3f e6 ba 89 3f 99 23 6d 3f
       0.89267135 0.90441537 1.0760162 0.9263244
0003e0 aa 56 69 3f 99 b8 79 3f 9b 6a 7b 3f 94 ed 6f 3f
       0.91147864 0.975473 0.9820954 0.9372189
0003f0 33 4a 68 3f 96 45 73 3f 92 8d 80 3f 94 d8 6b 3f
       0.9073822 0.95028055 1.0043204 0.92127347

bn1.bias f4 [256]
000000 d8 10 e2 bb a6 4e 7b 3d d2 45 1c 3e d7 c5 b5 3d
       -0.0068989806 0.061354302 0.1526101 0.088756256
000010 8b 94 ab 3c 72 96 05 3e ac 4a 65 3d d8 7c 59 3d
       0.020944854 0.13045672 0.055979416 0.053097576
000020 3d f8 d1 3d 43 72 d9 3c 67 2f 01 3e 31 6f 97 3b
       0.10252426 0.026543742 0.12615739 0.0046214093
000030 c3 49 c8 bc f4 38 89 3d de aa a9 bb b7 87 11 3e
       -0.024449235 0.06700316 -0.0051778397 0.14211927
000040 d2 28 93 3d 72 ed 90 3d e7 16 4e bd 8d 89 bc 3d
       0.0718552 0.07076539 -0.05031481 0.09205923
000050 1f 04 0b 3e e2 09 0f 3e fa 3c ec 3d 33 29 26 3d
       0.13575791 0.13968614 0.11535068 0.040566634
000060 e6 7e 0f 3e 41 71 3a 3d 82 2b 11 3d 92 8e 24 3d
       0.14013252 0.045518164 0.035441883 0.04017503
000070 3b 53 d0 3d d1 8d 82 3d da bc e3 3c 4a 2a b3 3d
       0.10172125 0.063747056 0.027800012 0.087483004
000080 c6 d1 29 3d 20 62 7d bd 82 c9 41 bd ea 5a 14 3e
       0.04145982 -0.061861157 -0.047311313 0.14487806
000090 95 56 b6 bd fb dd c2 3d 18 b1 d5 3d b2 4a a6 3d
       -0.08903233 0.09514996 0.104341686 0.08119716
0000a0 43 7b a2 3d 0c d7 37 3d 8c d2 ef 3c 41 02 6c 3d
       0.079336666 0.04488282 0.029275201 0.057619337
0000b0 4e 7e 44 3c 1a 5e c4 3d cd 22 d5 3d 5d 0c 9d 3d
       0.011993004 0.09588261 0.10407028 0.07668374
0000c0 e5 d8 e7 3d 76 11 07 3e 64 52 c5 3c c2 17 08 be
       0.11320666 0.13190255 0.024087138 -0.13290313
0000d0 69 d8 01 be 90 a5 03 3e 1b 90 51 3d 3c 28 14 bd
       -0.1268021 0.12856126 0.05116282 -0.036171183
0000e0 4c a9 ef bd e0 46 5a 3d a0 4a d4 bc a1 93 76 3c
       -0.11702213 0.053290248 -0.02591449 0.015049846
0000f0 94 ea e7 3d 31 39 ae 3d c7 bb 84 3d 1b 7f 44 3d
       0.11324039 0.08507002 0.06481128 0.04797278
000100 f5 eb 6f 3d c3 cd 2e 3d 8b c8 e4 bd 70 69 82 bd
       0.058574636 0.0426767 -0.11171063 -0.06367767
000110 48 7f f5 bc ef 7f 1c 3c 13 d2 f9 3c e5 40 b5 3d
       -0.029967919 0.009551986 0.030495679 0.08850268
000120 e6 79 42 3d 6c 55 b5 3d d3 cf 26 3d 08 29 22 3d
       0.047479533 0.088541836 0.04072554 0.03958991
000130 5c e7 28 3e 8c 39 80 bc cf 2e b8 3d f9 e6 8c 3d
       0.16494507 -0.01565244 0.08993303 0.06879992
000140 5b 20 36 3e 7a a6 0a bd 13 ff c0 3d 4e 1b 42 3e
       0.1778578 -0.03385017 0.094236515 0.18955728
000150 ff 3f 9a 3d af cf b2 3c 05 6e b9 3d 47 4a 8c 3d
       0.075317375 0.021827547 0.09054188 0.06850105
000160 2d 5d 9a 3d fe 7b 9e 3d ab 4e b7 3d e3 12 6a 3c
       0.07537303 0.077384934 0.089505516 0.0142867295
000170 21 ee dc 3c 40 e7 ba 3d 24 55 bb ba 9e ca 3a bb
       0.026969017 0.09126139 -0.0014292342 -0.0028502117
000180 a5 b1 3f 3e 0f a7 b8 3d fa 7a 35 3e 5b 04 60 bc
       0.1872011 0.09016239 0.17722693 -0.013672913
000190 4d 7c f4 3d 87 3a 08 3e 05 44 21 3e 79 fc d3 3d
       0.11937771 0.13303576 0.15748604 0.1035089
0001a0 f7 55 59 3d 2c 3f eb bd 14 ec fb 3c 92 ce 1f bd
       0.053060498 -0.114866585 0.03075222 -0.03901536
0001b0 3d 84 1e 3d f0 99 d0 3c 7e 12 98 3d ba 42 8f 3e
       0.03870033 0.025464028 0.07425402 0.27980596
0001c0 64 18 af 3c 3e 92 26 3e e4 07 a8 3c e1 bd 61 3d
       0.021373935 0.16266724 0.020511575 0.055112723
0001d0 51 57 b4 3d ce 49 35 3d ed b3 01 3e 58 14 09 3e
       0.08805717 0.04425984 0.12666292 0.13386667
0001e0 16 32 cd 3d 19 9e a9 3d c2 fd c0 3d 3c 80 60 3d
       0.10019319 0.08282108 0.094234005 0.054809794
0001f0 e0 e0 45 3d 5e e5 b1 3d 2f 59 ca 3d 15 63 0f 3e
       0.04831016 0.086863264 0.09880292 0.1400264
000200 a6 31 d1 bd 43 b1 38 3d f1 3b 92 3d ac 31 c9 3d
       -0.10214548 0.045090925 0.07140339 0.09823927
000210 1d 58 1c 3e 93 b2 bb 3d f2 03 ad 3d 13 fa 7d 3c
       0.15267988 0.0916492 0.08448018 0.015501517
000220 0f 43 ad 3d 7a ab b5 3d eb a2 b2 3d f9 ab d9 3c
       0.08460056 0.08870597 0.087224804 0.02657126
000230 c2 2f d0 3d 0d 8b ff 3c 03 b1 35 3e b6 7c 2c 3e
       0.10165359 0.031194234 0.17743306 0.16844448
000240 cf 0d a6 bc a2 a9 ca 3d b1 74 9a 3d ce f0 e6 3c
       -0.020270256 0.09895636 0.07541788 0.028190996
000250 ec c7 b0 3d 1e b0 3b 3c c6 b6 c5 3d ee 77 62 bd
       0.08631882 0.011455564 0.09654002 -0.055290155
000260 cf e5 3b 3d 98 0e d4 3c ad db 6a 3d 89 e7 11 bd
       0.04587346 0.025885865 0.057338405 -0.0356212
000270 46 e1 7c bc 69 6b 4f 3c d1 2e 88 3c 72 79 f0 3d
       -0.015434569 0.012659886 0.016623886 0.11741914
000280 67 3f 63 3d 35 fd d2 3d 77 55 39 3e c8 73 8f 3d
       0.055480387 0.10302202 0.18099009 0.070045054
000290 48 d3 1f 3d c8 9e a6 3d 60 a0 79 3d b0 fc d0 3d
       0.039019853 0.08135754 0.06094396 0.10204446
0002a0 58 ed a9 3d db 35 82 bc 85 42 94 bb 4c 38 b6 3b
       0.08297223 -0.01589482 -0.0045245313 0.0055609103
0002b0 dc bb 6f bb 91 71 30 3e 52 68 91 3d c1 73 d0 3c
       -0.0036580479 0.17230822 0.07099976 0.02544582
0002c0 92 41 25 b9 f9 bc b4 3c 97 84 c9 bd 44 a4 f1 bd
       -0.00015760053 0.022062765 -0.09839743 -0.11798909
0002d0 88 60 e4 3c 29 c8 bb 3d d5 d5 66 3d d3 32 06 3c
       0.027878061 0.09169037 0.05635627 0.008190828
0002e0 cf 2c ba 3d 6b 41 b9 3d 32 6a 7d bd 2f 6f d0 3d
       0.09090578 0.090456806 -0.061868854 0.101774566
0002f0 87 5b 39 3e a5 1b 8e 3d db 0a c7 3d bf 8e 25 3d
       0.18101321 0.069388665 0.097188674 0.040419336
000300 f5 59 d0 3d 4c c0 82 3d 70 04 40 bc ac 33 48 3e
       0.10173408 0.06384334 -0.011719808 0.19550961
000310 c3 fd d4 3d b4 4f af 3d bf df df 3d d2 7d 8d 3d
       0.10399964 0.08560124 0.10931348 0.06908764
000320 1c 6d aa bc f6 4f 4f bd f5 91 a8 3d f4 9d 6b 3d
       -0.02080398 -0.050613366 0.08230964 0.057523683
000330 61 95 4b 3d ad b5 4a 3e b9 f1 a2 3d 5a 95 03 3e
       0.049703006 0.19795866 0.07956261 0.12849942
000340 f7 16 80 3d 1f 04 ad 3d 81 d9 a1 bd c3 cf b8 3d
       0.0625438 0.08448052 -0.07902814 0.090240024
000350 76 27 ee 3d 37 73 9b 3d b0 b3 e7 3d f7 49 6d 3d
       0.1162862 0.07590335 0.113135695 0.057931866
000360 8c a4 05 3e 95 a3 a6 3d 43 4f f0 3d c5 7a b2 3d
       0.13051051 0.081366695 0.11733868 0.08714823
000370 e5 47 96 3d b7 23 b1 3d c0 a1 ea 3d 83 e7 51 3d
       0.073379315 0.0864939 0.114566326 0.051246177
000380 a1 85 03 3e 17 e8 1e bd 3c 36 a2 3c 2e c7 1a bd
       0.12843944 -0.038795557 0.019801252 -0.03778761
000390 df 7e 2c 3e 8a 67 27 bd e4 4f 0d 3e 7c 4c 0b 3b
       0.16845272 -0.040870227 0.13800007 0.0021255305
0003a0 e9 55 02 3e e5 e6 f6 3d 86 ff aa 3d 38 e0 e5 3d
       0.12728085 0.120557584 0.083495185 0.11224407
0003b0 9a b3 28 3e a6 21 65 bc a5 b5 60 3d 75 68 e7 3b
       0.16474763 -0.013985073 0.05486073 0.007062013
0003c0 89 2f 21 3c 7d 5c 5d 3d cd 90 e7 3d 92 15 b3 3d
       0.009837993 0.05404328 0.113069154 0.087443486
0003d0 15 e9 e7 bd eb ba cb 3d e2 4f 8a 3d fd bf ae 3b
       -0.11323754 0.09947761 0.06753518 0.0053329454
0003e0 f3 af df 3d 78 bf f6 3c 68 12 31 3d 07 6a 0b 3e
       0.109222315 0.030120596 0.043230444 0.13614665
0003f0 0e 25 b8 bd 1c c4 85 3d b0 36 2d bc 41 ae ef 3d
       -0.089914426 0.065315455 -0.010572121 0.11703158

bn1.running_mean f4 [256]
000000 61 09 e1 bf 28 17 c4 41 53 f3 6f 44 c2 4e 4f 42
       -1.7580987 24.511307 959.80194 51.826912
000010 61 09 e1 bf ce a8 20 43 db 22 47 44 c3 09 4a 43
       -1.7580987 160.6594 796.5446 202.03813
000020 93 cf 0b 43 44 57 bb bf af b9 e8 42 61 09 e1 bf
       139.81084 -1.4636006 116.36266 -1.7580987
000030 6c 74 75 42 b4 7f d0 44 c5 1e 9f 41 b8 db 61 43
       61.363693 1667.9907 19.890024 225.85828
000040 61 09 e1 bf a9 42 84 44 61 09 e1 bf 61 09 e1 bf
       -1.7580987 1058.0831 -1.7580987 -1.7580987
000050 61 09 e1 bf 7a 8a 81 44 53 e0 e0 bf b0 50 61 42
       -1.7580987 1036.3274 -1.7568458 56.328796
000060 8d 61 56 43 eb b1 ba 41 61 09 e1 bf 61 09 e1 bf
       214.38106 23.336874 -1.7580987 -1.7580987
000070 4b bc a2 42 7b 11 b9 43 eb 2e c7 44 61 09 e1 bf
       81.36776 370.13657 1593.4662 -1.7580987
000080 cf 03 d3 bf d0 12 d5 42 61 09 e1 bf aa f9 19 45
       -1.6485537 106.53674 -1.7580987 2463.604
000090 61 09 e1 bf ee 2a 0d 43 b4 b0 90 44 a3 fa 67 43
       -1.7580987 141.1677 1157.522 231.97905
0000a0 61 09 e1 bf ce f8 76 42 61 09 e1 bf 61 09 e1 bf
       -1.7580987 61.742973 -1.7580987 -1.7580987
0000b0 f9 15 1e 43 61 09 e1 bf 86 de d1 44 24 fa ec 43
       158.08583 -1.7580987 1678.9539 473.95422
0000c0 41 2f 0d 44 61 09 e1 bf fc b1 d7 43 61 09 e1 bf
       564.73834 -1.7580987 431.3905 -1.7580987
0000d0 61 09 e1 bf 61 09 e1 bf 61 09 e1 bf 41 62 f7 40
       -1.7580987 -1.7580987 -1.7580987 7.730744
0000e0 61 09 e1 bf 61 09 e1 bf 31 fe 2b 42 6a aa 5f 41
       -1.7580987 -1.7580987 42.998234 13.979105
0000f0 61 09 e1 bf 6d 74 0e 42 61 09 e1 bf 06 c8 5d 41
       -1.7580987 35.613697 -1.7580987 13.861334
000100 52 2b 02 42 45 a2 6d 44 61 09 e1 bf 61 09 e1 bf
       32.542305 950.53546 -1.7580987 -1.7580987
000110 97 d8 a4 43 63 8c e6 3f ab 96 85 42 61 09 e1 bf
       329.6921 1.8011593 66.79427 -1.7580987
000120 61 09 e1 bf 17 9e ed 40 7e 3d de bf 61 09 e1 bf
       -1.7580987 7.425548 -1.7362516 -1.7580987
000130 a4 13 8c bf 99 f3 a0 43 53 92 c5 43 61 09 e1 bf
       -1.0943494 321.9031 395.14316 -1.7580987
000140 3e 4c 16 45 c3 07 e1 bf 61 09 e1 bf c6 e0 9d 42
       2404.7651 -1.7580494 -1.7580987 78.93901
000150 11 4a 4a 44 61 09 e1 bf 61 09 e1 bf 61 09 e1 bf
       809.1573 -1.7580987 -1.7580987 -1.7580987
000160 31 f1 50 42 5a 5f 8d 42 61 09 e1 bf 61 09 e1 bf
       52.23554 70.68623 -1.7580987 -1.7580987
000170 61 09 e1 bf 13 66 35 43 b9 68 1f 42 61 09 e1 bf
       -1.7580987 181.39873 39.85227 -1.7580987
000180 d8 3c 96 44 61 09 e1 bf cc 82 f9 43 52 0b 99 40
       1201.9014 -1.7580987 499.02185 4.782632
000190 bd f3 74 42 4d 42 fa 43 26 05 b1 44 06 6a 36 44
       61.238026 500.51797 1416.1609 729.6566
0001a0 61 09 e1 bf 61 09 e1 bf 85 ee ca 44 61 09 e1 bf
       -1.7580987 -1.7580987 1623.4537 -1.7580987
0001b0 a8 5f 90 43 61 09 e1 bf 17 9f d5 43 c7 f7 10 42
       288.7473 -1.7580987 427.2429 36.24197
0001c0 61 09 e1 bf c2 1f 06 44 61 33 35 42 61 09 e1 bf
       -1.7580987 536.4962 45.300175 -1.7580987
0001d0 98 24 30 42 b1 d6 7a 43 61 09 e1 bf e8 60 8f 43
       44.035736 250.83864 -1.7580987 286.75708
0001e0 b6 19 0d 45 19 14 a2 42 b3 a7 26 45 61 09 e1 bf
       2257.607 81.03925 2666.4812 -1.7580987
0001f0 cc 48 ee 43 40 e6 b2 44 61 09 e1 bf a7 22 1c 44
       476.56873 1431.1953 -1.7580987 624.54144
000200 61 09 e1 bf ce b4 d4 bf 22 d3 92 44 77 23 dd 43
       -1.7580987 -1.6617677 1174.5979 442.27707
000210 2f 64 6b 44 1f 4c ea 42 61 09 e1 bf a8 e6 d6 42
       941.56537 117.148674 -1.7580987 107.4505
000220 6c 46 cb 42 55 de a0 44 61 09 e1 bf ee f7 b1 41
       101.63754 1286.9479 -1.7580987 22.24606
000230 7e eb bb 44 61 09 e1 bf 97 f8 5f 42 13 b7 a4 43
       1503.3591 -1.7580987 55.992764 329.43027
000240 f2 3b ae 41 fb e4 c2 42 61 09 e1 bf 64 86 31 42
       21.77927 97.44723 -1.7580987 44.38124
000250 61 09 e1 bf 2c 67 0c 41 3a e3 e8 44 20 fc e0 bf
       -1.7580987 8.775188 1863.1008 -1.7576942
000260 61 09 e1 bf 61 09 e1 bf 72 ea 1f 44 61 09 e1 bf
       -1.7580987 -1.7580987 639.6632 -1.7580987
000270 61 09 e1 bf 61 09 e1 bf 21 63 3f 41 7d b2 1d 44
       -1.7580987 -1.7580987 11.961701 630.7889
000280 61 09 e1 bf 61 09 e1 bf 40 53 e8 43 55 52 b8 43
       -1.7580987 -1.7580987 464.6504 368.64322
000290 ee db 57 43 95 2e a5 43 61 09 e1 bf 7c 86 76 43
       215.8591 330.36392 -1.7580987 246.52533
0002a0 9c a1 bc 42 61 09 e1 bf 61 09 e1 bf 01 88 1a 43
       94.31564 -1.7580987 -1.7580987 154.53127
0002b0 ec 18 59 41 ee 32 04 44 61 09 e1 bf 61 09 e1 bf
       13.568584 528.7958 -1.7580987 -1.7580987
0002c0 36 0e e4 43 61 09 e1 bf 61 09 e1 bf 61 09 e1 bf
       456.11102 -1.7580987 -1.7580987 -1.7580987
0002d0 52 ed 84 41 66 06 dd 42 14 03 d9 42 39 de 92 bf
       16.61588 110.5125 108.50601 -1.1474067
0002e0 4b 59 75 44 61 09 e1 bf 61 09 e1 bf b1 47 85 42
       981.3952 -1.7580987 -1.7580987 66.64002
0002f0 35 56 6c 44 cb d1 8c 43 e5 62 cb 43 7e 19 42 43
       945.347 281.639 406.7726 194.09958
000300 9d 0c 08 45 8c 8b f7 42 61 09 e1 bf f4 85 e7 41
       2176.7883 123.77255 -1.7580987 28.940407
000310 61 09 e1 bf 61 09 e1 bf d4 79 69 44 17 04 82 42
       -1.7580987 -1.7580987 933.90356 65.00799
000320 9e fc ef 41 61 09 e1 bf ac 30 30 45 09 de 3e 41
       29.998348 -1.7580987 2819.042 11.929208
000330 61 09 e1 bf 06 74 c0 44 d8 f9 1f 42 61 09 e1 bf
       -1.7580987 1539.6257 39.993988 -1.7580987
000340 da 2c 22 42 43 e8 e9 42 61 09 e1 bf 61 09 e1 bf
       40.5438 116.953636 -1.7580987 -1.7580987
000350 61 09 e1 bf 14 5c 80 42 61 09 e1 bf 76 69 50 42
       -1.7580987 64.17984 -1.7580987 52.10299
000360 c7 db 3d 43 61 09 e1 bf 90 6f b4 41 61 09 e1 bf
       189.8585 -1.7580987 22.554474 -1.7580987
000370 96 fa 42 42 40 41 1a 44 ac 82 87 43 aa e1 9a 43
       48.744713 617.01953 271.02087 309.763
000380 4f a3 b6 44 a1 42 df 41 58 ca ac 42 cc d1 64 41
       1461.1034 27.907534 86.3952 14.30122
000390 ac b2 1a 41 61 09 e1 bf 96 3f 0f 44 aa c8 5a 41
       9.668621 -1.7580987 572.9935 13.67399
0003a0 f3 88 c6 44 61 09 e1 bf 74 11 8c 44 af 0c 4c 42
       1588.2797 -1.7580987 1120.5454 51.012386
0003b0 b1 6f 43 43 61 09 e1 bf 61 09 e1 bf 0a 97 0b bf
       195.4363 -1.7580987 -1.7580987 -0.5452734
0003c0 8d 50 74 40 23 3c a3 44 82 80 3c 44 61 09 e1 bf
       3.8174164 1305.8793 754.00793 -1.7580987
0003d0 61 09 e1 bf ca 8e 6a 44 61 09 e1 bf 61 09 e1 bf
       -1.7580987 938.2311 -1.7580987 -1.7580987
0003e0 c6 bf 18 45 92 1d 34 43 a1 d1 3c 43 8e 23 b6 44
       2443.9858 180.11551 188.81886 1457.1111
0003f0 61 09 e1 bf 4d 8e b8 42 61 09 e1 bf f2 84 29 44
       -1.7580987 92.27793 -1.7580987 678.0773

bn1.running_var f4 [256]
000000 82 c6 93 2b 86 37 d7 46 29 d8 92 49 3a 31 d6 47
       1.0500075e-12 27547.762 1.2029491e+06 109666.45
000010 85 c6 93 2b a9 51 4f 47 b0 bd 34 4a 16 63 eb 47
       1.0500078e-12 53073.66 2.96126e+06 120518.17
000020 e8 24 8d 48 29 75 5a 41 6b f7 21 47 82 c6 93 2b
       289063.25 13.653604 41463.418 1.0500075e-12
000030 1f 17 f9 44 20 dd db 49 46 33 f0 45 80 44 82 48
       1992.7225 1.801124e+06 7686.409 266788.0
000040 82 c6 93 2b 89 48 f8 49 56 c7 93 2b 82 c6 93 2b
       1.0500075e-12 2.0339371e+06 1.0500305e-12 1.0500075e-12
000050 1b d2 9b 2b 39 d6 3d 49 39 f4 c9 3d a9 33 01 47
       1.1071728e-12 777571.56 0.09861035 33075.66
000060 59 cf e9 47 47 bb b6 46 78 cd dc 31 ae e7 89 36
       119710.695 23389.639 6.426202e-09 4.1098892e-06
000070 46 98 73 48 50 d6 89 49 41 91 82 4a 82 c6 93 2b
       249441.1 1.129162e+06 4.2784325e+06 1.0500075e-12
000080 2a 73 c2 41 c3 8a 07 48 82 c6 93 2b 75 4b 72 4a
       24.306232 138795.05 1.0500075e-12 3.9697572e+06
000090 82 c6 93 2b 08 47 28 49 0f 7f 94 49 12 ce b9 47
       1.0500075e-12 689264.5 1.2164819e+06 95132.14
0000a0 82 c6 93 2b a3 31 0f 48 cf d3 9a 2b 82 c6 93 2b
       1.0500075e-12 146630.55 1.1001147e-12 1.0500075e-12
0000b0 6b 37 0b 48 82 c6 93 2b b0 bc 1d 4a 88 64 06 49
       142557.67 1.0500075e-12 2.584364e+06 550472.5
0000c0 18 3c 06 4a 92 c6 93 2b 72 d6 26 49 82 c6 93 2b
       2.199302e+06 1.0500093e-12 683367.1 1.0500075e-12
0000d0 82 c6 93 2b b4 88 93 2b 82 c6 93 2b cb 4b a7 45
       1.0500075e-12 1.0482921e-12 1.0500075e-12 5353.474
0000e0 82 c6 93 2b 82 c6 93 2b 59 9d 83 46 d9 6f a2 45
       1.0500075e-12 1.0500075e-12 16846.674 5197.981
0000f0 82 c6 93 2b da a2 8d 45 e3 c6 93 2b cb cb 38 45
       1.0500075e-12 4532.3564 1.050018e-12 2956.737
000100 ba d8 39 47 6b f7 87 49 82 c6 93 2b 82 c6 93 2b
       47576.727 1.1138374e+06 1.0500075e-12 1.0500075e-12
000110 1e fe 87 48 63 aa 10 44 cc 40 1e 48 82 c6 93 2b
       278512.94 578.6623 162051.19 1.0500075e-12
000120 82 c6 93 2b ab d5 bc 44 ff 38 e0 40 c3 89 9c 2b
       1.0500075e-12 1510.6771 7.0069575 1.1122703e-12
000130 01 fb 55 41 4e da f4 47 33 1f d5 48 82 c6 93 2b
       13.37378 125364.61 436473.6 1.0500075e-12
000140 85 a0 eb 4a a8 dc b6 3a 82 c6 93 2b bf 70 6b 45
       7.7210265e+06 0.0013951259 1.0500075e-12 3767.0466
000150 e9 cc 98 49 ea 34 94 2b 74 47 de 2d 93 b9 7b 37
       1.2517411e+06 1.0530719e-12 2.527021e-11 1.5003973e-05
000160 d1 dd a8 47 fd 59 f6 45 82 c6 93 2b ad c6 93 2b
       86459.63 7883.2485 1.0500075e-12 1.0500122e-12
000170 82 c6 93 2b ff 81 64 48 57 e8 07 47 82 c6 93 2b
       1.0500075e-12 233991.98 34792.34 1.0500075e-12
000180 b3 21 01 4a 82 c6 93 2b ab e9 67 48 8e 3b d1 44
       2.1156928e+06 1.0500075e-12 237478.67 1673.8611
000190 7c 5e 1a 45 f8 b2 a6 48 b9 4e f5 49 16 58 9d 49
       2469.9053 341399.75 2.0095591e+06 1.2889628e+06
0001a0 82 c6 93 2b 82 c6 93 2b 0d 4f 09 4a 82 c6 93 2b
       1.0500075e-12 1.0500075e-12 2.2496672e+06 1.0500075e-12
0001b0 4b 63 5b 49 82 c6 93 2b 42 65 08 49 9f e5 98 44
       898612.7 1.0500075e-12 558676.1 1223.1757
0001c0 82 c6 93 2b bf f2 0e 49 d1 20 08 47 ee 9a e2 2b
       1.0500075e-12 585515.94 34848.816 1.6101267e-12
0001d0 fb 32 c4 47 72 24 9f 48 16 0e 0e 2c bf d4 42 47
       100453.96 325923.56 2.0187233e-12 49876.746
0001e0 93 ce 96 4a 65 00 93 47 6c f8 af 4a 9f ff a9 35
       4.9416415e+06 75264.79 5.766198e+06 1.2665877e-06
0001f0 fe c2 10 48 f2 35 3a 4a 82 c6 93 2b fe 8c 24 49
       148235.97 3.0508765e+06 1.0500075e-12 673999.9
000200 82 c6 93 2b 2a c7 7c 40 f9 ba 8f 49 73 b1 58 49
       1.0500075e-12 3.949656 1.1774391e+06 887575.2
000210 bc af 49 49 08 57 9d 47 da c6 93 2b 39 b5 bd 47
       826107.75 80558.06 1.0500171e-12 97130.445
000220 37 bf 9a 48 a3 f3 20 4a 52 18 97 2e d6 55 b3 46
       316921.72 2.6370328e+06 6.871005e-11 22954.918
000230 bd 7f f7 49 47 40 e7 30 99 47 1a 45 24 1b c2 48
       2.0275116e+06 1.6825731e-09 2468.4749 397529.12
000240 0d a6 b5 46 55 e7 85 45 7e c6 93 2b d2 10 83 46
       23251.025 4284.9165 1.0500071e-12 16776.41
000250 82 c6 93 2b dd 50 15 45 22 34 80 4a 15 0b 40 3b
       1.0500075e-12 2389.054 4.200977e+06 0.002930348
000260 82 c6 93 2b 82 c6 93 2b ec a6 29 49 82 c6 93 2b
       1.0500075e-12 1.0500075e-12 694894.75 1.0500075e-12
000270 82 c6 93 2b 82 c6 93 2b 0f 0d 5e 46 0d d8 0e 49
       1.0500075e-12 1.0500075e-12 14211.265 585088.8
000280 85 c6 93 2b 82 c6 93 2b 29 da 26 49 eb 9a 2d 48
       1.0500078e-12 1.0500075e-12 683426.56 177771.67
000290 68 c2 1f 49 82 a9 fd 48 82 c6 93 2b 4a f0 9b 47
       654374.5 519500.06 1.0500075e-12 79840.58
0002a0 85 d3 bc 48 82 c6 93 2b 82 c6 93 2b 13 e8 1a 48
       386716.16 1.0500075e-12 1.0500075e-12 158624.3
0002b0 c1 90 bf 45 f4 d4 33 48 32 6d 8b 2f 82 c6 93 2b
       6130.094 184147.81 2.536154e-10 1.0500075e-12
0002c0 c4 20 39 49 82 c6 93 2b 82 c6 93 2b 82 c6 93 2b
       758284.25 1.0500075e-12 1.0500075e-12 1.0500075e-12
0002d0 f4 9d 3b 45 fb bc 94 47 67 3f d7 46 6d ca cc 41
       3001.872 76153.96 27551.701 25.59884
0002e0 a8 6c 80 49 82 c6 93 2b 7f 0f 94 2b 30 d1 a1 47
       1.052053e+06 1.0500075e-12 1.0520334e-12 82850.375
0002f0 ab 4e 2f 49 c0 6d 92 48 3f 0e 22 49 d5 51 23 49
       718058.7 299886.0 663779.94 668957.3
000300 5d 06 7e 4a ec 66 46 48 82 c6 93 2b cb 27 26 44
       4.1619432e+06 203163.69 1.0500075e-12 664.62177
000310 27 d9 93 2b 82 c6 93 2b 95 e4 a2 49 ad 04 89 47
       1.050525e-12 1.0500075e-12 1.3344186e+06 70153.35
000320 bc a4 31 47 82 c6 93 2b 9f ad d8 4a 4e 5a 03 46
       45476.734 1.0500075e-12 7.1001115e+06 8406.576
000330 82 c6 93 2b f3 b5 14 4a 2e 47 61 47 82 c6 93 2b
       1.0500075e-12 2.4364768e+06 57671.18 1.0500075e-12
000340 cc f2 1a 47 90 f4 fa 47 6c d0 b1 2c 82 c6 93 2b
       39666.797 128489.125 5.053782e-12 1.0500075e-12
000350 9f 32 95 34 93 98 1d 47 82 c6 93 2b 6b ec f4 47
       2.7790244e-07 40344.574 1.0500075e-12 125400.836
000360 35 46 26 49 82 c6 93 2b e4 79 17 47 82 c6 93 2b
       681059.3 1.0500075e-12 38777.89 1.0500075e-12
000370 22 7c df 46 4b b2 f8 48 ba f4 b5 47 73 a4 a9 47
       28606.066 509330.34 93161.45 86856.9
000380 80 64 a8 49 61 0e 27 46 c7 cb 92 47 b5 a6 29 45
       1.379472e+06 10691.595 75159.555 2714.4192
000390 4b ea b8 43 82 c6 93 2b d8 7c 7a 48 28 7c 2e 46
       369.8304 1.0500075e-12 256499.38 11167.039
0003a0 e9 a2 55 4a 82 c6 93 2b b0 a7 90 49 af c9 3f 47
       3.5002182e+06 1.0500075e-12 1.185014e+06 49097.684
0003b0 32 2b 94 46 82 c6 93 2b 83 c6 93 2b db af 58 43
       18965.598 1.0500075e-12 1.0500076e-12 216.68694
0003c0 94 58 56 44 07 7c 0f 4a a8 f8 00 49 09 63 f7 33
       857.38403 2.3508498e+06 528266.5 1.1519848e-07
0003d0 82 c6 93 2b 16 1a af 49 82 c6 93 2b 02 01 10 37
       1.0500075e-12 1.4344348e+06 1.0500075e-12 8.5833035e-06
0003e0 1e 63 75 4a fc bb 50 47 cc 4a 8e 49 80 8e 2e 4a
       4.0204235e+06 53435.984 1.1656575e+06 2.859936e+06
0003f0 82 c6 93 2b cb 0c a6 47 3a ca 93 2b 56 88 a7 48
       1.0500075e-12 85017.586 1.0501107e-12 343106.7

fc2.weight f4 [128, 256]
000000 f8 93 3d bb 20 f4 87 3d 1b 17 62 bb f7 3a 1a 3d
       -0.0028927308 0.0663836 -0.0034498635 0.03765389
000010 e0 f4 af bc fb 2e e9 bd 12 89 af bc d8 ca f6 bb
       -0.02147907 -0.11385914 -0.021427665 -0.007531505
000020 cc a0 47 3d 52 74 81 bd 46 34 83 bd 05 35 80 bd
       0.048737332 -0.063210145 -0.06406455 -0.06260113
000030 e1 1a 46 3d 3e dc 90 bd fc 4c 8f 3d 40 46 9f bc
       0.048365477 -0.07073258 0.069971055 -0.019442677
000040 03 fe 0d 3e ab 24 af bc be a0 39 3d ec 21 25 be
       0.13866429 -0.02137979 0.04531931 -0.16126221
000050 24 42 4d 3d dc b1 e0 bd e2 bc ea bd 67 41 ce bc
       0.050111905 -0.10971424 -0.11461808 -0.02517767
000060 c6 ec 0b bd a6 e9 31 3d d2 4a 09 3c 62 62 0a 3d
       -0.03416135 0.043435715 0.008379655 0.03378523
000070 4f 6e 0d bc 4a 27 69 bd 28 70 60 3d 27 f8 71 3b
       -0.008632257 -0.056922235 0.05479446 0.0036921592
000080 39 0f 49 bd 1d 8e 72 bd de bb ac bd 02 0d 66 3c
       -0.049086783 -0.05921756 -0.0843427 0.014041187
000090 6d 1f 92 3d 90 17 e2 bd c3 f3 eb bc 0a 2c 45 3d
       0.071349 -0.110396504 -0.028802758 0.048137702
0000a0 97 60 aa bd d9 95 31 3c 15 65 6f 3d c5 69 27 3b
       -0.08319204 0.010838949 0.05844601 0.0025545221
0000b0 d8 66 48 3d cf 59 a4 bd 7a 4e 42 3d 97 3a a0 bc
       0.048926204 -0.08024942 0.047438122 -0.019559188
0000c0 f5 8d 62 3c b6 19 73 3d f8 a9 01 3e c5 72 37 bc
       0.0138277905 0.05935069 0.12662494 -0.011196797
0000d0 84 f4 91 3c c1 6f 6f 3b 5c 7c 78 bc 71 c3 a8 3c
       0.01781679 0.0036535116 -0.015166368 0.020601006
0000e0 a8 8f 88 bd ed f3 09 bd a2 92 f8 bc de 79 15 bd
       -0.06668025 -0.03367989 -0.030343357 -0.036493175
0000f0 7b b2 bc 3d 45 ae 6e bc 8d 43 c6 3d 70 72 ca 3c
       0.0921373 -0.014567916 0.09680853 0.024712771
000100 c7 34 17 3d 49 8a 02 ba f4 a4 8d 3b 7e 88 40 3d
       0.036915567 -0.00049797125 0.0043226425 0.04700517
000110 22 67 cc 3b d4 6c 9a bd 09 ef 57 3d 5f ae d9 bd
       0.0062378803 -0.075402886 0.052718196 -0.10628962
000120 23 0b cf 3d 21 0d dc 3c a6 a8 0a bd f2 4f 24 bc
       0.10109546 0.02686173 -0.033852242 -0.010028826
000130 dd 88 83 3c 28 e6 1b 3d 92 1e e6 3c 0a f2 ad 3d
       0.016056472 0.03806129 0.028090749 0.08493431
000140 f3 e0 51 bc 88 0c 56 bc be 98 1f 3b 60 9d 59 3c
       -0.01280998 -0.013064511 0.0024352516 0.01328215
000150 97 d6 35 bb 30 9b 8c 3c 5f ae 38 bd 5b 58 13 bd
       -0.0027746314 0.017163843 -0.04508817 -0.035972934
000160 6a 0a c2 3c f4 05 5e 3d 55 89 85 3b 56 bb 07 3e
       0.023686606 0.054204896 0.004075209 0.13255057
000170 5a 7c 6e 3c 0b af 1a 3d 66 2a 5d bd a6 c2 34 3d
       0.014556015 0.03776459 -0.053995512 0.044130944
000180 8f ab 31 3c d4 a3 31 bd 0b 67 6d 3d a4 ad 07 3a
       0.010844125 -0.04336913 0.057959598 0.0005175716
000190 fc cc 00 be 14 6e 65 bd 9e 12 c0 3d 0b b7 06 3e
       -0.12578195 -0.05601318 0.09378551 0.13155763
0001a0 07 0d 18 bd 95 c9 50 3d f2 22 65 3c 1e d5 b4 bb
       -0.0371218 0.050973494 0.013985382 -0.0055185696
0001b0 17 da 46 3d c9 8f 84 3d d4 9c e1 bd 15 3c 07 3e
       0.04854783 0.06472737 -0.11016241 0.13206513
0001c0 56 2a 8b 3d e4 bd 33 3d a5 ec b9 bc 80 a5 0d bc
       0.06795184 0.043882266 -0.022695849 -0.008645415
0001d0 36 c0 03 3c e3 f6 a1 3d 8c 6a be bc 1d 81 04 bd
       0.008041432 0.07908418 -0.023244165 -0.032349695
0001e0 33 c2 40 bd cb af bd bd d4 e6 da 3c 48 bf 2f bd
       -0.047060203 -0.092620455 0.026721396 -0.04290703
0001f0 d0 7f dd bc 69 c4 31 be e2 1e 0d bd d9 ca 00 3e
       -0.027038485 -0.17360081 -0.03445328 0.1257738
000200 f6 69 19 3e 0d 5f 2e 3d b9 fe 21 bc ad 85 0f bd
       0.14981827 0.042571116 -0.009887391 -0.035039593
000210 0d 0a 46 3d 0d a0 10 3e 40 a2 8c bc 56 87 e1 bd
       0.04834943 0.14123555 -0.01716721 -0.110121414
000220 a3 2b 9f bd 80 08 3f 3e 52 5c 12 be f1 37 14 3d
       -0.07771995 0.18655586 -0.1429303 0.036186162
000230 b8 f8 5e 3d 21 7c 9c bc 22 b2 a8 3d ae 85 26 3d
       0.054436415 -0.019102158 0.08237101 0.04065483
000240 07 42 c5 3d 9a 2a e9 3d e6 80 20 3d ee 3b 87 3c
       0.09631734 0.11385079 0.039185427 0.016508069
000250 04 82 97 bb e4 c1 f8 3b 68 78 1d bd fa 91 f2 3d
       -0.0046236534 0.007591473 -0.038444906 0.11844249
000260 69 e8 a0 bd 7b 5f 5b bd 45 06 db 3c d3 10 c8 3d
       -0.07856829 -0.053557854 0.026736388 0.09768834
000270 2c 01 cc 3c 1b d6 1f 3c 13 9e d3 3c 3d 35 75 3d
       0.024902903 0.009755637 0.025832212 0.059865225
000280 da 46 a2 3d f5 ce 9b 3d 40 e9 a3 3c ac a7 68 3c
       0.0792367 0.07607833 0.020008683 0.014200132
000290 65 de 88 3c 88 1a 15 bd 3f da 51 bb 6c 85 65 3d
       0.016707608 -0.036402255 -0.0032020954 0.056035444
0002a0 ce a3 c6 3d 03 f7 94 bd d4 35 b2 bc bd fa 57 bc
       0.09699212 -0.07273676 -0.021754183 -0.013182339
0002b0 8f 20 d9 bc 46 8e c2 bb a6 e3 f5 bc e5 26 8f 3d
       -0.026504783 -0.0059373705 -0.030015778 0.069898404
0002c0 e8 c7 4e bc 08 89 82 3d 4a 35 4d bc 11 d7 f0 3c
       -0.012620904 0.06373793 -0.012524912 0.029399427
0002d0 22 d5 f6 bd 2a 05 4b 3c de 31 3c 3d fd ef 31 be
       -0.120523706 0.012391368 0.045945995 -0.17376705
0002e0 88 a2 2f 3b b6 90 7a 3d 0f ab 61 bd 4b 4c b0 bd
       0.0026799757 0.061173163 -0.055094775 -0.08608302
0002f0 68 8b b3 bc c3 c9 b0 3c e8 73 8d 3c d8 67 d9 bd
       -0.02191706 0.021580582 0.017267182 -0.1061551
000300 1d 4f db 3d 57 3a ce bd eb 60 15 3d 53 f0 ed 3d
       0.10708449 -0.10069721 0.03646938 0.11618104
000310 5b ec 95 3d 61 db 90 3d 32 fa 23 bb b0 8a 56 bd
       0.07320472 0.07073093 -0.0025020954 -0.052378356
000320 65 5d 1d 3e 3e 6e cd bc 19 48 c1 bd da c7 dc 3c
       0.15367658 -0.025076982 -0.0943758 0.026950765
000330 71 0b fa 3c 55 c2 ed 3d d4 f0 dd bc 54 d8 56 bd
       0.030523034 0.116093315 -0.027092375 -0.0524524
000340 75 b7 aa bc 87 1f 64 3d 57 06 db 3d 1d 3a 95 bd
       -0.020839432 0.05569413 0.106945686 -0.07286475
000350 1c bb 99 3c 73 b1 a8 bb 78 e0 03 bc ae 9b ff bd
       0.018765979 -0.0051481067 -0.008049123 -0.124808654
000360 4c 15 16 3e 9a cf 50 bd 24 5b 27 be e5 92 b6 bc
       0.14656562 -0.050979234 -0.16343361 -0.022286842
000370 00 ce b7 3c f0 48 c8 3c 4b 1b bd bd 10 c4 70 bd
       0.022437096 0.024448842 -0.09233721 -0.05878073
000380 d3 49 7b 3d de 79 62 3d 47 bf a0 3d 1f ee 4b bc
       0.0613497 0.055292003 0.07848983 -0.012446909
000390 ab 5c d6 3c 0e e4 06 be 2f cf 01 3d 65 0f 9e 3d
       0.026167234 -0.13172933 0.031691726 0.0771778
0003a0 85 2f 5b bd 53 31 f3 bd 6a 3a 75 3d ba d9 7b 3d
       -0.053512115 -0.11874642 0.05987016 0.061486937
0003b0 9e e2 d2 bd cd 45 fc 3c 6b 26 75 bd a2 3c 83 bd
       -0.1029713 0.030795002 -0.05985109 -0.06408049
0003c0 c8 5f 98 3d d5 a2 82 bc 3a 6e 8d 3d 00 e5 5d 3c
       0.07440144 -0.015946785 0.0690579 0.013543367
0003d0 a1 05 10 be 08 a2 95 3d 8a be 18 bd d4 b2 a9 3c
       -0.14064647 0.07306296 -0.037291087 0.020715155
0003e0 fd 3b 07 bd eb 70 27 be f7 e0 37 3d 95 96 ac 3d
       -0.033016194 -0.16351669 0.044892278 0.08427159
0003f0 75 1b 9f 3d 10 05 c7 bc 52 f9 40 bd 43 54 60 3d
       0.07768909 -0.024294406 -0.04711277 0.05476786
