models/save_models/mlp_features_temporales.pth (torch, 200449 bytes, 20 tensors)

fc1.weight f4 [256, 18]
0.05817551 0.06993514 -0.028620541 0.0038307784 0.052912734 -0.018839438 0.0917258 0.11264801
-0.005255595 -0.006308383 -0.093600236 0.04533036 -0.0011581674 0.14627828 0.023673827 0.025887338
0.036834843 -0.038020384 0.11072259 0.0062100883 -0.11491696 -0.039286923 0.020149786 0.09806637
-0.15739644 0.10368431 0.07689499 0.071921684 0.027178148 0.059301734 0.07540602 0.0013281665
-0.01955262 -0.021554802 0.048550274 -0.14612566 -0.02108675 -0.07013194 0.009948728 -0.013155176
-0.036606546 -0.10551266 -0.13242313 0.13140418 -0.00047375687 -0.0062153763 -0.053252403 0.109756105
-0.025192115 -0.09605525 0.0021216515 0.0005348495 0.09479116 -0.02345895 -0.10449941 -0.027856836
0.012962447 -0.024775513 -0.008528083 -0.06632673 0.0029619779 -0.19146226 0.040056076 0.040101305
-0.39314294 -0.10145159 -0.18539543 -0.13270967 -0.014008681 -0.007759238 -0.108647265 -0.017611634
0.07139119 -0.041443586 -0.09897063 0.031197187 0.017389704 0.10425832 -0.050705504 -0.13079411
0.03224699 0.02127126 0.002277807 0.21990332 0.011063398 -0.109138116 0.012766979 -0.0064941887
0.04813333 -0.090922944 -0.3015156 0.06777578 0.02527149 0.09674303 -0.041920625 -0.09077939
0.12557815 -0.21103837 0.09483223 -0.05783061 -0.091569774 -0.0601947 0.02193663 0.037344508
-0.016810885 -0.031596236 -0.08649496 -0.104622394 -0.008926127 -0.0021420289 -0.05119436 0.048684422
0.10623255 0.048235055 0.056369327 -0.06322933 -0.12586066 0.07302864 0.06628647 -0.047704972
0.01190618 0.12694757 -0.048341136 -0.14129567 0.03681398 0.059205554 -0.019774398 0.080186
-0.04904753 -0.022517264 0.05346043 -0.06772195 -0.1418125 -0.06951967 -0.097174294 0.03477654
-0.06298282 -0.17324653 -0.04611319 0.0040440196 -0.039459884 0.0026919122 0.025517927 -0.03172574
0.02995217 -0.022179622 0.10480162 -0.0143378945 -0.011454368 0.12129327 0.11464865 -0.14646775
0.007908113 0.035650976 0.019534232 0.14851193 -0.06861391 0.0918805 0.1316198 -0.019780748
0.055637557 0.07027185 -0.11092919 -0.02113079 0.008174941 -0.050488908 -0.023207271 -0.056291874
-0.088748716 0.08428889 0.07482785 0.040754586 -0.08414796 -0.073875405 -0.045996215 0.0020162787
0.03643552 -0.01658505 -0.03988632 -0.055216692 0.006273197 0.082791895 -0.09656571 -0.03808437
-0.015664864 0.063675955 0.028869823 -0.048359685 -0.043345753 -0.10641037 -0.08410711 -0.017429948
0.0797934 -0.042367753 0.04155059 0.062028777 0.008397391 0.12482511 -0.033492353 -0.029597968
0.095081925 0.062019642 -0.03726689 -0.02060027 -0.084494285 -0.06904821 0.04591259 0.032655306
-0.081347056 0.11546873 -0.0038287828 -0.0179703 -0.08151442 0.041146062 0.11595241 -0.0050567742
0.0054989476 -0.01183757 -0.12807593 0.0028769977 -0.036136508 -0.07700342 -0.0849107 0.0791641
-0.0013038046 -0.023160523 0.064842425 -0.19105361 -0.05339545 -0.11164828 -0.061274465 -0.011914577
0.090678856 -0.12271548 -0.023914404 0.052991576 0.037436146 0.013220276 -0.060593795 0.040395573
-0.060829524 0.14423715 0.026152778 0.018033238 -0.13562241 -0.13479614 0.0056112655 -0.0950814
-0.030307125 0.008062762 -0.09314658 -0.08401371 -0.06851393 0.009992018 0.1559568 0.030150585
00000000: 7249 6e3d 283a 8f3d a075 eabc cc0d 7b3b
00000010: 06bb 583d 2a55 9abc bcda bb3d 00b4 e63d
00000020: 2037 acbb 8db6 cebb 7bb1 bfbd 54ac 393d
00000030: a6cd 97ba f9c9 153e 9def c13c af11 d43c
00000040: 22e0 163d 43bb 1bbd 86c2 e23d ff7d cb3b
00000050: 9559 ebbd 53eb 20bd 2a11 a53c 05d7 c83d
00000060: 882c 21be 7158 d43d 1f7b 9d3d ad4b 933d
00000070: b5a4 de3c 60e6 723d 796e 9a3d df15 ae3a
00000080: d12c a0bc b293 b0bc a7dc 463d f7a1 15be
00000090: 1fbe acbc 56a1 8fbd fdff 223c cf88 57bc
000000a0: bff0 15bd 0617 d8bd ee99 07be d18e 063e
000000b0: 9262 f8b9 5baa cbbb 311f 5abd cfc7 e03d
000000c0: b25f cebc 9db8 c4bd 680b 0b3b 2435 0c3a
000000d0: de21 c23d fc2c c0bc c903 d6bd 0534 e4bc
000000e0: 7160 543c 04f6 cabc 5fb9 0bbc 4fd6 87bd
000000f0: be1d 423b af0e 44be d711 243d 4441 243d
00000100: 084a c9be dac5 cfbd 4dd8 3dbe 0be5 07be
00000110: ab84 65bc 3541 febb 7582 debd 4646 90bc
00000120: 8b35 923d c0c0 29bd 1db1 cabd 3e91 ff3c
00000130: da74 8e3c 6385 d53d 93b0 4fbd e4ee 05be
00000140: 6b15 043d 1141 ae3c 4347 153b 562e 613e
00000150: 4143 353c ce83 dfbd 972c 513c 34cd d4bb
00000160: 7427 453d cf35 babd 4160 9abe 07ce 8a3d
00000170: 2806 cf3c 3621 c63d f6b4 2bbd 8bea b9bd
00000180: 8f97 003e 711a 58be 6637 c23d cadf 6cbd
00000190: ef88 bbbd b88e 76bd 73b4 b33c 8ef6 183d
000001a0: fbb6 89bc 0e6b 01bd 4524 b1bd 4444 d6bd
000001b0: e43e 12bc 4861 0cbb 2db1 51bd 5169 473d
000001c0: 7490 d93d 1f92 453d 86e3 663d 617e 81bd
000001d0: 9ee1 00be 0a90 953d 33c1 873d 4a66 43bd
000001e0: 2312 433c 8bfe 013e 5b01 46bd d0af 10be
000001f0: 42ca 163d 8681 723d ebfd a1bc 8f38 a43d
00000200: 10e6 48bd 2076 b8bc 53f9 5a3d ceb1 8abd
00000210: 4c37 11be 5460 8ebd 5103 c7bd d871 0e3d
00000220: 23fd 80bd 8a67 31be 2fe1 3cbd b283 843b
00000230: b0a0 21bd cb6a 303b f90a d13c d9f2 01bd
00000240: 415e f53c 0ab2 b5bc 3ba2 d63d 7de9 6abc
00000250: 1aab 3bbc 9b68 f83d e9cc ea3d a4fb 15be
00000260: 0891 013c c206 123d 4106 a03c 8313 183e
00000270: 7385 8cbd d82b bc3d 57c7 063e 3c0b a2bc
00000280: 35e4 633d b0ea 8f3d d82e e3bd 7a1a adbc
00000290: 30f0 053c 75cd 4ebd 2d1d bebc 4f92 66bd
000002a0: e3c1 b5bd a79f ac3d 583f 993d 48ee 263d
000002b0: c455 acbd fd4b 97bd 8766 3cbd 8b23 043b
000002c0: 693d 153d 5fdd 87bc d65f 23bd e62a 62bd
000002d0: 648f cd3b cc8e a93d 3ec4 c5bd 5bfe 1bbd
000002e0: 9a53 80bc 8a68 823d 6880 ec3c ce14 46bd
000002f0: 518b 31bd aeed d9bd 5940 acbd 40c9 8ebc
00000300: b96a a33d cf89 2dbd f430 2a3d e311 7e3d
00000310: 3695 093c 4fa4 ff3d 472f 09bd 7077 f2bc
00000320: 50ba c23d 4f08 7e3d 2ba5 18bd e6c1 a8bc
00000330: 570b adbd 2669 8dbd d70e 3c3d 92c1 053d
00000340: 4999 a6bd df7a ec3d 51ec 7abb 7336 93bc
00000350: 08f1 a6bd c688 283d 7578 ed3d 4cb3 a5bb
00000360: 8430 b43b 5ef2 41bc 5626 03be 038c 3c3b
00000370: e003 14bd f8b3 9dbd a9e5 adbd ca20 a23d
00000380: 6ce4 aaba 23bb bdbc 1bcc 843d 8fa3 43be
00000390: 30b5 5abd daa7 e4bd effa 7abd 5c35 43bc
000003a0: d6b5 b93d 4152 fbbd 24e8 c3bc b20d 593d
000003b0: a556 193d db99 583c 3331 78bd d475 253d
000003c0: 6128 79bd e7b2 133e 5a3e d63c 71ba 933c
000003d0: 9ae0 0abe 0008 0abe b5de b73b 09ba c2bd
000003e0: a646 f8bc ad19 043c a2c3 bebd 610f acbd
000003f0: 0851 8cbd 90b5 233c 24b3 1f3e 5cfe f63c

fc1.bias f4 [256]
-0.07799746 -0.022526264 0.0048090196 0.008951692 -0.015453253 -0.042925045 0.056347724 0.06048711
0.056068964 0.07289647 0.032650143 -0.093066886 -0.0009803723 0.046255734 0.065936334 0.06456523
-0.019113192 -0.067307234 -0.0055088154 -0.01779811 0.026307402 -0.07862805 0.07042231 0.06545874
0.010248557 -0.0069461 -0.17426135 0.0059082313 0.00069721066 -0.026647525 0.038421497 -0.016627898
-0.023874706 0.046976022 -0.02449954 -0.0140021155 -0.052464288 -0.025574958 -0.018593337 -0.06823055
0.016534377 -0.03472932 0.01750746 0.0010127446 0.107569635 0.091235384 -0.062235706 0.027933782
-0.003215273 0.040573344 -0.030228542 -0.069028385 0.038202714 0.0031724882 0.09287155 0.0053887675
0.1308015 0.104513876 0.07324487 -0.05387646 -0.03017703 -0.027576162 -0.063625485 0.0006775
0.07059706 0.02634659 0.026068322 -0.050619915 -0.0030849616 0.0027594215 0.004857741 -0.03306859
-0.01729049 0.015185283 0.028348543 0.0811961 -0.030964414 0.028635515 -0.07251775 0.0020627785
-0.015190729 -0.07534859 0.09834077 0.03630034 -0.0015335616 0.020168422 0.038906503 -0.027298357
-0.0730177 -0.01128412 -0.06600907 -0.03001826 0.012606184 -0.04213548 0.027271839 -0.08124297
-0.06665276 0.0020231274 -0.009119788 -0.046054702 -0.030741 -0.0362795 -0.05137568 0.095262155
0.01074082 -0.017377954 -0.021932868 -0.06291954 -0.11132242 0.01444019 0.19037688 -0.056223802
-0.03232268 -0.067570314 -0.02650524 -0.032093972 0.05593919 -0.01426583 -0.049597036 -0.12659986
0.0059061088 0.025858149 -0.021521328 0.022430133 -0.029038146 0.039279874 0.023727512 -0.04786451
0.0024138382 -0.016439652 0.018558394 0.10782261 -0.10292821 -0.0045382828 0.011406157 -0.021022122
-0.11400005 -0.037386652 -0.0009354798 -0.027839849 -0.00030443197 0.0016605749 0.076373234 0.06554884
0.035882525 0.13779785 0.04091076 -0.015512576 -0.054586396 0.022478947 0.05332492 0.047858745
-0.07050923 -0.015992101 -0.07255489 -0.022054994 -0.05805499 -0.017343711 -0.045001656 -0.07119312
0.060934518 -0.01920236 -0.042184692 0.029237773 0.05763935 0.14470719 0.010948718 -0.037852883
-0.014055999 -0.004171802 0.038941078 0.056004964 -0.017084522 -0.08008404 -0.05648131 -0.025103603
0.06726021 -0.040099088 -9.925701e-06 -0.028498935 0.0035815574 -0.06824183 0.017238153 0.037356112
0.03491723 0.06357385 -0.03406531 0.041155472 -0.013469741 -0.036373254 0.021074424 -0.027186206
0.043909438 0.037965912 -0.10765941 -0.008892281 0.19842792 -0.0066363686 -0.01757484 -0.0462241
-0.021314397 0.012946788 0.02549938 -0.01767901 -0.084242955 -0.056898233 0.004703478 0.022218484
0.05122935 0.068553954 -0.07736432 0.01815147 0.05765128 0.0112149 0.09545514 -0.028235383
-0.07842988 0.052426606 0.043136317 -0.088398 -0.0048607104 0.054240312 -0.056748357 -0.027942032
0.089134544 0.083404504 -0.034108497 0.03366043 0.053833388 -0.031020436 -0.08453916 0.007496467
-0.0013066814 -0.096236944 0.06364961 -0.063604675 -0.043292664 0.01199577 0.019946251 -0.07150972
-0.0031623745 -0.053627577 0.115713045 0.069158316 -0.008364028 0.03172505 -0.005757389 0.10547829
0.05938347 -0.015483922 0.016029455 0.03972052 0.030272255 -0.08037983 -0.021487793 -0.0051784185
00000000: 22bd 9fbd 0089 b8bc fb94 9d3b 1eaa 123c
00000010: a42f 7dbc 2cd2 2fbd dfcc 663d 55c1 773d
00000020: 92a8 653d bf4a 953d 28bc 053d da99 bebd
00000030: d67f 80ba a776 3d3d a109 873d c63a 843d
00000040: 4593 9cbc 60d8 89bd 4b83 b4bb 58cd 91bc
00000050: 9f82 d73c be07 a1bd 9239 903d 3b0f 863d
00000060: 90e9 273c 1c9c e3bb 9171 32be d699 c13b
00000070: 04c5 363a e94b dabc dc5f 1d3d 3b37 88bc
00000080: e394 c3bc ee69 403d 42b3 c8bc 2169 65bc
00000090: cbe4 56bd 9382 d1bc 0e51 98bc 75bc 8bbd
000000a0: 1a73 873c 5540 0ebd ce6b 8f3c 12be 843a
000000b0: 784d dc3d 9ed9 ba3d deea 7ebd 63d5 e43c
000000c0: 54b7 52bb 3c30 263d d9a1 f7bc c15e 8dbd
000000d0: 737a 1c3d 85e9 4f3b 7033 be3d 4294 b03b
000000e0: d4f0 053e 5f0b d63d 6801 963d 90ad 5cbd
000000f0: d235 f7bc 67e7 e1bc 144e 82bd 419a 313a
00000100: 3195 903d ced4 d73c 3c8d d53c d456 4fbd
00000110: 112d 4abb 69d7 343b af2d 9f3b ee72 07bd
00000120: c9a4 8dbc b1cb 783c 343b e83c 244a a63d
00000130: 15a9 fdbc 0795 ea3c 3084 94bd ae2f 073b
00000140: 89e2 78bc 5d50 9abd e366 c93d aaaf 143d
00000150: ca01 c9ba 3f38 a53c 6d5c 1f3d cea0 dfbc
00000160: 4e8a 95bd 08e1 38bc c32f 87bd dbe8 f5bc
00000170: 2b8a 4e3c 4196 2cbd 3169 df3c b762 a6bd
00000180: 3e81 88bd 7296 043b 2a6b 15bc dba3 3cbd
00000190: 8dd4 fbbc d099 14bd 4e6f 52bd ce18 c33d
000001a0: 44fa 2f3c 365c 8ebc 8fac b3bc f6db 80bd
000001b0: 02fd e3bd 8c96 6c3c 28f2 423e ee4a 66bd
000001c0: c964 04bd 4e62 8abd 8421 d9bc f874 03bd
000001d0: 7e20 653d 3abb 69bc 4326 4bbd 65a3 01be
000001e0: 0888 c13b 78d4 d33c 7f4d b0bc 66bf b73c
000001f0: 68e1 edbc efe3 203d 3360 c23c 940d 44bd
00000200: 7c31 1e3b 73ac 86bc c607 983c 1ad2 dc3d
00000210: 06cc d2bd e0b5 94bb e4e0 3a3c 9636 acbc
00000220: dc78 e9bd bf22 19bd fd3a 75ba 6510 e4bc
00000230: 2b9c 9fb9 a6a7 d93a 9269 9c3d 783e 863d
00000240: 8ef9 123d e11a 0d3e 0b92 273d 7628 7ebc
00000250: fc95 5fbd c525 b83c 3b6b 5a3d 8807 443d
00000260: 2567 90bd de01 83bc a897 94bd adac b4bc
00000270: 12cb 6dbd 6614 8ebc a853 38bd b3cd 91bd
00000280: 7996 793d 454e 9dbc dbc9 2cbd 0e84 ef3c
00000290: 3d17 6c3d 1f2e 143e 4062 333c a00b 1bbd
000002a0: 224b 66bc 9db3 88bb ae80 1f3d 7665 653d
000002b0: d7f4 8bbc 1a03 a4bd f258 67bd 12a6 cdbc
000002c0: b9bf 893d f13e 24bd 9086 26b7 9976 e9bc
000002d0: 90b8 6a3b 5fc2 8bbd 0737 8d3c b902 193d
000002e0: 5f05 0f3d 0233 823d 1188 0bbd a492 283d
000002f0: 30b0 5cbc 1ffc 14bd 45a4 ac3c 9bb5 debc
00000300: 62da 333d 2582 1b3d 897c dcbd eeb0 11bc
00000310: b030 4b3e e575 d9bb 1cf9 8fbc 7b55 3dbd
00000320: 889b aebc c41e 543c 13e4 d03c 92d3 90bc
00000330: 9287 acbd 1f0e 69bd a21f 9a3b 8a03 b63c
00000340: ded5 513d 0466 8c3d 2f71 9ebd 64b2 943c
00000350: c023 6c3d b3be 373c fc7d c33d e44d e7bc
00000360: d89f a0bd 48bd 563d b5af 303d 030a b5bd
00000370: 9846 9fbb 172b 5e3d f770 68bd b0e6 e4bc
00000380: 2c8c b63d fbcf aa3d 5ab5 0bbd 85df 093d
00000390: 6680 5c3d 921e febc de22 adbd eca4 f53b
000003a0: f444 abba e017 c5bd ba5a 823d 2b43 82bd
000003b0: a653 31bd e889 443c 5266 a33c b073 92bd
000003c0: d73f 4fbb 97a8 5bbd f6fa ec3d e0a2 8d3d
000003d0: 4709 09bc 20f2 013d 7ba8 bcbb 0005 d83d
000003e0: 153c 733d 47b0 7dbc 3450 833c fcb1 223d
000003f0: 85fd f73c 2e9e a4bd 2b07 b0bc b9af a9bb

bn1.weight f4 [256]
1.0007496 1.0377065 1.1247479 1.0383216 1.0440809 0.9948344 0.9699972 1.0211744
1.0209348 1.0218301 0.96627074 1.0186673 1.0465609 1.00432 1.0491081 0.98930144
1.0175524 0.9847056 0.999763 1.0489818 1.0375292 1.0456266 0.88917375 1.0385684
1.0187472 1.0343641 1.0317304 0.9879471 1.042955 1.0666659 1.0495996 1.0375583
0.9560154 1.0512967 1.0631136 1.0225017 1.0048962 0.964418 1.0343059 0.941262
0.91107124 1.0263733 1.012771 0.99897575 1.123792 1.0282044 1.0834024 1.123257
1.042753 1.0671984 0.98864394 1.0534791 1.0924832 0.9736241 1.0101213 1.0710555
0.9933506 1.0883875 1.0840389 0.98517007 0.9203592 0.9740849 0.9982609 1.1529793
1.0245656 1.0603848 1.0442735 1.0395366 1.0428975 1.0243024 1.0141159 1.0322587
1.045019 1.0529733 0.9650707 1.1003901 1.0077337 1.0364518 0.9913169 1.0737773
0.9808384 1.0619793 1.0724373 1.0494179 1.0428485 0.97581345 1.0536792 1.0507374
1.0049614 0.99358714 0.98266757 1.0053908 1.0813843 0.9899423 1.0313274 0.9981238
1.0733466 1.0155305 1.006191 1.0329874 1.0329552 1.0485244 1.0256242 1.0135052
1.0203081 1.1183428 0.991918 0.99410313 1.018934 0.9851985 1.0407254 1.0337228
1.0631044 1.0371591 1.0032876 0.9734207 1.0014021 1.0434797 0.9904318 1.0776638
0.98937494 0.9754869 1.118927 1.0054102 1.0403981 1.020093 0.99137026 1.0542259
0.99405843 0.947112 0.9684303 1.043972 1.0823402 1.124235 1.0012634 1.0651658
1.014601 1.0440625 0.96925086 0.9867912 1.136704 1.1957691 0.9872949 1.057016
1.0602593 1.0845684 1.0831927 0.9817775 1.0561442 0.9941409 1.0929136 1.0031472
1.0904188 0.9492828 0.95574343 0.9916925 1.0785996 1.0013918 0.97394705 1.0514663
0.9645294 1.0019032 1.0526606 1.0811121 1.0835315 1.0306612 0.9434828 1.0763382
1.0319768 0.9789121 1.005532 1.00987 1.0177633 1.0227051 0.9810617 1.028977
1.0075994 1.0076172 1.0767308 0.9989757 1.0131574 1.0275977 1.0060115 1.0135369
0.9896515 1.0802072 1.0126405 0.9748048 0.92940754 1.0385581 1.0074081 1.0328895
1.1004236 1.033976 1.0418423 1.0748795 1.0472653 1.0745586 1.0243862 0.99527407
1.0119151 1.0146346 0.9943215 0.98950267 1.0438994 1.0837413 0.9486728 0.9948782
1.1095322 1.0209409 1.058403 1.044746 1.0120624 0.93225455 1.0266209 1.0121772
1.0068668 1.0099425 1.0537485 1.0318873 0.9375825 1.0692881 1.046936 1.011383
1.0907019 1.0314614 0.97200894 0.98946214 0.953347 0.9540475 1.0808395 1.0666199
1.0032922 1.0507294 1.0271786 1.0247302 1.0325541 1.068367 0.98794067 1.0233585
0.9577036 0.96535456 1.0343425 1.047233 0.97766674 0.9695076 1.0365549 1.2393541
0.9707031 0.96379524 0.97467035 1.0722557 1.0380505 1.0581598 1.037504 1.0214111
00000000: 9018 803f 91d3 843f bdf7 8f3f b9e7 843f
00000010: 71a4 853f 78ad 7e3f bd51 783f d8b5 823f
00000020: fead 823f 54cb 823f 855d 773f b163 823f
00000030: b5f5 853f 8f8d 803f 2d49 863f dc42 7d3f
00000040: 283f 823f ab15 7c3f 78f0 7f3f 0945 863f
00000050: c2cd 843f 18d7 853f e4a0 633f cfef 843f
00000060: 4f66 823f 0b66 843f be0f 843f 1aea 7c3f
00000070: 8d7f 853f 8288 883f 4859 863f b6ce 843f
00000080: 6dbd 743f e490 863f 1b14 883f 56e1 823f
00000090: 70a0 803f 19e4 763f 2364 843f 8cf6 703f
000000a0: f73b 693f 3360 833f 7ba2 813f e0bc 7f3f
000000b0: 6bd8 8f3f 349c 833f eeac 8a3f e3c6 8f3f
000000c0: ee78 853f f599 883f c517 7d3f 67d8 863f
000000d0: 7dd6 8b3f 6e3f 793f a84b 813f 5918 893f
000000e0: 3a4c 7e3f 4850 8b3f c9c1 8a3f 1b34 7c3f
000000f0: a99c 6b3f a15d 793f 078e 7f3f d394 933f
00000100: f724 833f b0ba 873f c1aa 853f 890f 853f
00000110: aa7d 853f 571c 833f 8dce 813f 0e21 843f
00000120: 2fc3 853f d4c7 863f e00e 773f 95d9 8c3f
00000130: 6bfd 803f 74aa 843f f2c6 7d3f 8971 893f
00000140: 3a18 7b3f f0ee 873f a045 893f 5353 863f
00000150: 0f7c 853f e9ce 793f f6de 863f 907e 863f
00000160: 93a2 803f ba5b 7e3f 1a90 7b3f a5b0 803f
00000170: cd6a 8a3f dc6c 7d3f 8902 843f 0b85 7f3f
00000180: 6c63 893f e7fc 813f deca 803f ee38 843f
00000190: e037 843f 0c36 863f a747 833f 8aba 813f
000001a0: 7599 823f db25 8f3f 57ee 7d3f 8b7d 7e3f
000001b0: 6e6c 823f f835 7c3f 7d36 853f 0751 843f
000001c0: ce13 883f a1c1 843f ba6b 803f 1932 793f
000001d0: f22d 803f be90 853f f08c 7d3f e3f0 893f
000001e0: ad47 7d3f 82b9 793f 0039 8f3f 48b1 803f
000001f0: c42b 853f 6892 823f 71ca 7d3f e0f0 863f
00000200: 9d7a 7e3f ef75 723f 0ceb 773f e0a0 853f
00000210: 208a 8a3f efe6 8f3f 6629 803f 5a57 883f
00000220: 72de 813f d7a3 853f d320 783f 599e 7c3f
00000230: 847f 913f f60e 993f 5cbf 7c3f 4d4c 873f
00000240: 94b6 873f 23d3 8a3f 0fa6 8a3f c555 7b3f
00000250: bc2f 873f 0580 7e3f 98e4 8b3f 2167 803f
00000260: d892 8b3f 3304 733f 9aab 743f 8fdf 7d3f
00000270: 8d0f 8a3f 9b2d 803f 9854 793f 7396 863f
00000280: 66eb 763f 5d3e 803f 95bd 863f e261 8a3f
00000290: 29b1 8a3f b5ec 833f 1788 713f 73c5 893f
000002a0: d117 843f fc99 7a3f 46b5 803f 6c43 813f
000002b0: 1146 823f 00e8 823f dc26 7b3f 85b5 833f
000002c0: 04f9 803f 9af9 803f 51d2 893f dfbc 7f3f
000002d0: 24af 813f 5288 833f fcc4 803f 94bb 813f
000002e0: cd59 7d3f 3b44 8a3f 349e 813f cf8c 793f
000002f0: a7ed 6d3f 79ef 843f c0f2 803f b935 843f
00000300: aeda 8c3f 5359 843f 175b 853f a795 893f
00000310: ca0c 863f 238b 893f 161f 833f 48ca 7e3f
00000320: 6f86 813f 8cdf 813f db8b 7e3f 0c50 7d3f
00000330: 7f9e 853f 09b8 8a3f 38dc 723f 56b0 7e3f
00000340: 2705 8e3f 31ae 823f c079 873f 3dba 853f
00000350: 438b 813f 3ca8 6e3f 5068 833f 068f 813f
00000360: 03e1 803f cc45 813f 3be1 863f e214 843f
00000370: 6805 703f 6fde 883f 0002 863f 0075 813f
00000380: 1f9c 8b3f ed06 843f 94d5 783f 644d 7d3f
00000390: 8d0e 743f 753c 743f f358 8a3f 0087 883f
000003a0: e16b 803f 4d7e 863f 977a 833f 5c2a 833f
000003b0: bc2a 843f 40c0 883f aee9 7c3f 69fd 823f
000003c0: 102c 753f 7a21 773f 5665 843f bb0b 863f
000003d0: 5e48 7a3f a631 783f d5ad 843f 28a3 9e3f
000003e0: 0080 783f 49bb 763f ff83 793f ad3f 893f
000003f0: d7de 843f c871 873f eecc 843f 99bd 823f

bn1.bias f4 [256]
0.09694997 0.16864741 0.15761264 -0.07623883 0.077674165 -0.07005286 0.079815686 0.05804994
-0.05584579 0.10091354 -0.053744193 0.06570773 -0.047932982 -0.06014593 0.04421242 -0.034564786
0.100299194 0.040858205 0.0031338185 -0.11367235 -0.17529751 0.1897558 -0.0050778496 -0.109883435
-0.03275884 -0.06543312 0.11414487 -0.02967915 0.15571631 -0.01029641 -0.12096029 -0.08110297
-0.028804643 -0.028808586 0.041848693 0.008050205 0.00687224 0.08747976 -0.031672433 -0.066625215
-0.1101732 -0.110613234 0.073335044 -0.037621938 -0.06331882 0.19686848 -0.07901388 0.25383732
0.13699181 -0.12965372 0.056048453 -0.18309312 0.18100217 0.11440393 -0.07746401 0.078480706
0.011140155 0.13471398 -0.28956804 -0.03232207 0.0941633 0.018003896 0.104170345 -0.06059352
-0.0055307755 0.12584345 -0.022096284 0.061485298 0.10610779 0.04693723 -0.042618036 0.10854011
0.09049146 0.21321985 -0.012265652 0.04603745 -0.06807726 0.052180607 0.082382336 -0.058210954
-0.17084965 -0.007351349 0.084105894 -0.03896319 -0.08206859 -0.033831008 0.025670093 0.11682235
-0.123560585 -0.015179131 0.0037191242 -0.06913734 0.1906843 0.09942787 -0.14833069 -0.049001146
-0.03781516 -0.11183823 0.001566264 -0.055924498 -0.12225807 -0.19069272 0.1203988 -0.16433166
-0.10510447 0.18889134 0.12790096 0.029583506 0.0058005764 -0.06870655 -0.05956776 0.0043774224
-0.060811505 0.064791635 -0.13746138 -0.03467244 -0.06160433 0.02243392 0.15232155 -0.09675938
0.083560996 -0.01551263 -0.009288094 0.11874054 0.11447875 0.059835546 0.099018075 -0.042973917
-0.04711328 0.01125741 0.21545403 -0.04762091 0.1298934 -0.057146966 0.0064889253 -0.10425841
0.03587441 -0.16144678 -0.03622735 -0.15338835 0.084581606 -0.15072232 0.029280968 0.013190657
0.13005957 -0.112243 0.025708403 0.0060122237 0.03525388 0.038919736 0.14688145 0.07147822
0.14063433 -0.09398697 0.142076 -0.08302751 0.023153018 0.09576959 -0.08470541 0.07273517
0.12706652 -0.073876984 -0.06255746 0.06290435 -0.1002492 0.0017952183 0.024869008 -0.19223295
-0.015827818 0.12654135 0.25442803 0.18370938 0.042910617 -0.10277262 0.0306056 -0.15651473
0.109522805 0.028966261 -0.081835955 0.039133646 -0.029161057 0.024052529 0.0019103771 0.036114465
-0.10423695 0.043997638 0.043079406 0.0070748753 0.025924867 0.059776366 -0.15104446 0.13626577
0.00058294204 0.053471927 -0.18613388 0.013694335 -0.0060000825 0.0747913 0.109776646 0.0073370268
-0.047563814 -0.070532225 -0.022595432 -0.12904677 -0.12602262 0.0029859585 -0.09047035 -0.03556219
-0.16025616 -0.030432997 -0.07233306 0.14517613 -0.06278817 0.057416715 -0.07071122 -0.0915918
0.05109315 0.043151267 -0.005461247 0.06706773 0.14502838 -0.07463675 -0.039291244 0.038967434
0.06397671 -0.07311259 0.13284308 0.09056776 -0.12651126 0.1114381 -0.2456519 -0.088653766
0.021122321 -0.117238976 0.14315046 -0.015081787 -0.05806585 -0.002058186 -0.10282842 0.23010747
0.14007138 -0.06701502 -0.014939164 -0.05453662 -0.10302672 0.044463936 -0.13320859 -0.011583015
0.008721809 0.047226064 0.13733047 -0.06291387 -0.1483062 -0.059296418 0.04081861 0.075899296
00000000: b58d c63d e8b1 2c3e 3565 213e 1b23 9cbd
00000010: a213 9f3d e077 8fbd 6876 a33d c6c5 6d3d
00000020: 8ebe 64bd c2ab ce3d df22 5cbd c691 863d
00000030: 6055 44bd 945b 76bd 1518 353d ce93 0dbd
00000040: aa69 cd3d ef5a 273d c060 4d3b 0dcd e8bd
00000050: 3181 33be 584f 423e 1764 a6bb 910a e1bd
00000060: 222e 06bd cd01 86bd c9c4 e93d b021 f3bc
00000070: 1974 1f3e 46b2 28bc 07ba f7bd 5019 a6bd
00000080: b7f7 ebbc fcff ebbc 8969 2b3d 02e5 033c
00000090: 8730 e13b 9728 b33d f4ba 01bd cd72 88bd
000000a0: 7da2 e1bd 3189 e2bd af30 963d 7619 1abd
000000b0: 4cad 81bd e497 493e 07d2 a1bd f7f6 813e
000000c0: 9547 0c3e f2c3 04be 1093 653d c37c 3bbe
000000d0: a258 393e 9c4c ea3d 73a5 9ebd 7eba a03d
000000e0: 3285 363c 76f2 093e 4342 94be 2664 04bd
000000f0: b0d8 c03d e87c 933c 4357 d53d e930 78bd
00000100: 823b b5bb 1bdd 003e 4403 b5bc 02d8 7b3d
00000110: 0a4f d93d 4141 403d 4090 2ebd 474a de3d
00000120: 9653 b93d 4e56 5a3e e0f5 48bc c491 3c3d
00000130: 176c 8bbd 55bb 553d 12b8 a83d 9c6e 6ebd
00000140: 36f3 2ebe 96e3 f0bb b63f ac3d de97 1fbd
00000150: 9413 a8bd 6292 0abd 164a d23c 8e40 ef3d
00000160: 550d fdbd e4b1 78bc 8dbc 733b e197 8dbd
00000170: bf42 433e d7a0 cb3d 00e4 17be 6db5 48bd
00000180: 12e4 1abd 710b e5bd 194b cd3a 1611 65bd
00000190: 7062 fabd f444 43be a593 f63d 8f46 28be
000001a0: 0341 d7bd bb6c 413e 78f8 023e 1c59 f23c
000001b0: c312 be3b 05b6 8cbd 53fd 73bd 7b70 8f3b
000001c0: 7c15 79bd 7ab1 843d adc2 0cbe b004 0ebd
000001d0: d254 7cbd 57c7 b73c 2efa 1b3e c829 c6bd
000001e0: 0722 ab3d b028 7ebc 172d 18bc 3e2e f33d
000001f0: d673 ea3d 1e16 753d fdc9 ca3d 6b05 30bd
00000200: dbf9 40bd 0071 383c fb9f 5c3e 250e 43bd
00000210: c702 053e f012 6abd 0da1 d43b 6f85 d5bd
00000220: 0cf1 123d 4e52 25be 2163 14bd d611 1dbe
00000230: 1f39 ad3d f456 1abe a4de ef3c a01d 583c
00000240: 562e 053e a8df e5bd 6e9a d23c 3002 c53b
00000250: 5f66 103d 4d6a 1f3d 1768 163e 2c63 923d
00000260: 7202 103e 3e7c c0bd 5f7c 113e 540a aabd
00000270: 66ab bd3c d922 c43d 087a adbd 2df6 943d
00000280: ba1d 023e d14c 97bd 201e 80bd ffd3 803d
00000290: 744f cdbd 884d eb3a 17ba cb3c b7d8 44be
000002a0: 57a9 81bc 0e94 013e 6444 823e 501e 3c3e
000002b0: 0bc3 2f3d 747a d2bd 98b8 fa3c 6645 20be
000002c0: 7e4d e03d a74a ed3c 9c99 a7bd 9a4a 203d
000002d0: 2be3 eebc cf09 c53c 9e65 fa3a c3ec 133d
000002e0: 2f7a d5bd de36 343d 0874 303d 5bd4 e73b
000002f0: 6360 d43c 10d8 743d 66ab 1abe 4189 0b3e
00000300: 94d0 183a 6105 5b3d e199 3ebe 345e 603c
00000310: 579c c4bb 2e2c 993d 94d2 e03d 716b f03b
00000320: 46d2 42bd 3373 90bd 0e1a b9bc d624 04be
00000330: 130c 01be 12b0 433b 8548 b9bd a9a9 11bd
00000340: 311a 24be 9f4e f9bc 5b23 94bd 0da9 143e
00000350: 1697 80bd ca2d 6b3d 0bd1 90bd 7b94 bbbd
00000360: 0d47 513d 62bf 303d 43f4 b2bb ce5a 893d
00000370: 5282 143e 27db 98bd dbef 20bd 519c 1f3d
00000380: 3906 833d 0ebc 95bd 0408 083e 977b b93d
00000390: 2b8c 01be a939 e43d 2c8c 7bbe 1b90 b5bd
000003a0: b808 ad3c fd1a f0bd 0996 123e 9919 77bc
000003b0: 75d6 6dbd a2e2 06bb b597 d2bd 4ba1 6b3e
000003c0: df6e 0f3e 2c3f 89bd 65c3 74bc ca61 5fbd
000003d0: acff d2bd d11f 363d d567 08be b0c6 3dbc
000003e0: ebe5 0e3c 1e70 413d 5ca0 0c3e fdd8 80bd
000003f0: 95dd 17be cde0 72bd 6a31 273d 1771 9b3d

bn1.running_mean f4 [256]
0.19930568 0.14199346 -0.091038726 -1.1182903 0.31998795 -0.9807691 0.18719216 -0.68839586
0.8464867 -0.57584846 0.37962997 -0.02732722 -0.89417505 -0.71892977 -0.023742052 0.5605275
0.20194107 -0.5790276 -0.3250119 -0.3174519 -0.67945755 0.14621246 0.5419181 0.6355222
0.24667092 -0.02815884 0.0941286 0.0031692241 0.056835264 0.09232801 0.9082283 0.04159169
-0.20702773 -0.5200418 -0.4586671 0.08234056 0.46647483 0.21655756 -0.04745971 -0.5555584
-0.1547416 -0.6105202 -0.332979 -0.12324324 -0.47726896 1.0799878 -0.41121036 0.09679513
-0.016371429 0.7976605 -0.2209253 -1.0872998 -0.04374192 0.16843927 -0.64517426 -0.035445407
-0.93271947 -0.09740086 -1.2371857 0.22906838 0.021075804 0.29962903 0.10728145 -0.027796784
0.36728346 0.83198637 -0.035614096 -0.4519737 -0.04304819 0.1159212 -0.71669316 -0.011901213
0.0996171 0.25417757 0.37172613 0.50754815 -1.017179 0.199282 0.77797246 -0.8788054
-0.60402346 0.24834743 -0.8069523 0.16379352 -0.5235698 -0.24857707 0.14997134 -0.054199185
-0.24892958 -0.38888666 -0.41042644 -0.08174378 -0.07328881 0.25277692 -0.64203775 -0.6569423
-0.23273015 -0.21202344 -0.26305896 -0.65618896 0.21946466 -0.20117097 0.3095248 -0.77827287
-0.5553552 -0.019292377 -0.09820825 0.35987148 0.10366389 -0.17648757 -0.5519235 -0.38114342
-0.1298219 0.20519789 -0.8094702 0.39201745 -0.100496724 -0.050345313 0.16763285 -0.5264351
-0.30789113 0.16422935 -0.24426933 0.15637328 0.28171122 0.04010417 -0.05117354 0.18417652
-0.13818379 0.0009829979 0.22377867 1.0426422 0.1788505 -0.19394425 -0.121029586 0.0975284
0.55988085 -0.60505164 0.31384292 -0.8986594 -0.1423429 -0.035182696 0.38189498 0.06275296
0.2318843 -0.5641702 0.012559946 -0.12146075 0.029496651 0.20939104 -0.01326037 0.09345067
-0.11111427 -0.8418589 0.18597047 0.19193298 -0.07183553 0.49064255 -0.3231578 0.14307287
-0.055075247 -0.03407303 -0.035272498 -0.07955647 0.15472214 -0.5884477 0.25872007 -0.11941085
0.3799011 0.5944524 0.098613895 0.07438827 0.40288633 -0.5386825 0.31942034 -0.1132784
0.1347332 0.14968878 -0.08660733 -0.15502177 0.6813299 0.14077477 0.8507699 0.50157654
-0.3777137 0.89977336 0.9966418 0.07135531 -0.40428612 0.53123975 -0.61731815 0.0552027
-0.32706738 -0.06925911 -0.25438222 0.04513078 -0.7554503 -0.1269183 -0.03381281 -0.04202219
-0.051600598 0.33158064 -0.6607169 -0.7213674 -0.445427 0.09710696 -0.28138545 -0.4098219
-1.3278198 -0.89293176 -0.4803307 0.07045473 -0.8585701 0.44665483 -0.26141146 -0.46898696
-0.079392135 -0.001742457 0.6478524 0.12072881 -0.7820627 0.3215473 -0.7388909 -0.12731425
0.027889166 0.30811977 0.11934974 -0.2629639 -0.59186894 -0.0009392365 -0.48070627 -0.22966617
-0.010643506 -0.8766801 0.013447236 0.31153387 0.44273293 0.41590258 0.018388053 0.1581915
0.008346053 0.35558844 -0.26529062 -0.6729753 -0.11734115 -0.62426317 -0.25698477 -0.1583765
0.360436 0.31600493 -0.024192492 0.27631733 0.7140937 -0.37570396 0.25009716 -0.11554637
00000000: ca16 4c3e bc66 113e 8372 babd 2324 8fbf
00000010: 76d5 a33e af13 7bbf 4daf 3f3e b63a 30bf
00000020: 5ab3 583f ce6a 13bf dc5e c23e 56dd dfbc
00000030: a8e8 64bf c80b 38bf b17e c2bc bb7e 0f3f
00000040: a4c9 4e3e 273b 14bf f667 a6be 0e89 a2be
00000050: eef0 2dbf b8b8 153e 25bb 0a3f 95b1 223f
00000060: 4d97 7c3e 5ead e6bc 7fc6 c03d c2b2 4f3b
00000070: 18cc 683d 7816 bd3d a681 683f 0c5c 2a3d
00000080: 14ff 53be 7621 05bf 6ad6 eabe 2ba2 a83d
00000090: cad5 ee3e 44c1 5d3e 1d65 42bd 1339 0ebf
000000a0: 9574 1ebe 0d4b 1cbf 397c aabe f466 fcbd
000000b0: 995c f4be 0a3d 8a3f 2a8a d2be 863c c63d
000000c0: 601d 86bc 7b33 4c3f 3e3a 62be a42c 8bbf
000000d0: ba2a 33bd 587b 2c3e 242a 25bf 342f 11bd
000000e0: b4c6 6ebf 1a7a c7bd 1a5c 9ebf e790 6a3e
000000f0: 2aa7 ac3c fa68 993e 60b6 db3d 15b6 e3bc
00000100: 940c bc3e 0ffd 543f 16e0 11bd 1969 e7be
00000110: 4d53 30bd 1868 ed3d 3479 37bf 4efd 42bc
00000120: 0d04 cc3d 9023 823e e352 be3e adee 013f
00000130: ec32 82bf 9510 4c3e 3429 473f 64f9 60bf
00000140: 48a1 1abf ca4e 7e3e 6d94 4ebf 7db9 273e
00000150: ac08 06bf fd8a 7ebe 1692 193e f7ff 5dbd
00000160: 65e7 7ebe 271c c7be 6a23 d2be 4869 a7bd
00000170: 7218 96bd fa6b 813e 965c 24bf 5f2d 28bf
00000180: d050 6ebe ac1c 59be aaaf 86be 00fc 27bf
00000190: 58bb 603e c3ff 4dbe 097a 9e3e e43c 47bf
000001a0: c22b 0ebf 0c0b 9ebc 6821 c9bd 1341 b83e
000001b0: bc4d d43d 28b9 34be dc4a 0dbf 3b25 c3be
000001c0: 08f0 04be 651f 523e 7039 4fbf 83b6 c83e
000001d0: 3ad1 cdbd e336 4ebd f2a7 2b3e 73c4 06bf
000001e0: e8a3 9dbe bd2b 283e bd21 7abe 5120 203e
000001f0: 743c 903e 4544 243d 599b 51bd c598 3c3e
00000200: 0d80 0dbe f0d7 803a 3c26 653e 4d75 853f
00000210: 9624 373e 5299 46be 5cde f7bd f8bc c73d
00000220: 5a54 0f3f aae4 1abf 05b0 a03e 8b0e 66bf
00000230: 56c2 11be bb1b 10bd bd87 c33e a084 803d
00000240: 1473 6d3e 756d 10bf 3bc8 4d3c 6ac0 f8bd
00000250: f6a2 f13c 9b6a 563e 0642 59bc 1163 bf3d
00000260: e18f e3bd 1184 57bf 0b6f 3e3e 148a 443e
00000270: 821e 93bd 8035 fb3e f074 a5be b281 123e
00000280: 9596 61bd 2990 0bbd e579 10bd 81ee a2bd
00000290: 7b6f 1e3e 82a4 16bf f576 843e ad8d f4bd
000002a0: 6682 c23e 082e 183f 15f6 c93d e158 983d
000002b0: 1e47 ce3e 19e7 09bf 108b a33e 81fe e7bd
000002c0: 80f7 093e 0448 193e 2f5f b1bd 07be 1ebe
000002d0: a36b 2e3f 4327 103e 0ecc 593f 5267 003f
000002e0: b163 c1be 8c57 663f eb23 7f3f bc22 923d
000002f0: 97fe cebe 54ff 073f 9008 1ebf 3a1c 623d
00000300: 6075 a7be b8d7 8dbd 633e 82be 0edb 383d
00000310: 3165 41bf dff6 01be 4d7f 0abd 761f 2cbd
00000320: 265b 53bd f0c4 a93e be24 29bf 89ab 38bf
00000330: 020f e4be 04e0 c63d c111 90be 2dd4 d1be
00000340: 00f6 a9bf 2d97 64bf e8ed f5be 924a 903d
00000350: 40cb 5bbf f1af e43e b9d7 85be 0f1f f0be
00000360: 5898 a2bd 2863 e4ba a8d9 253f ab40 f73d
00000370: 4335 48bf d9a1 a43e f427 3dbf ab5e 02be
00000380: d277 e43c e0c1 9d3e a36d f43d 34a3 86be
00000390: b984 17bf 1837 76ba 221f f6be 9c2d 6bbe
000003a0: 1a62 2ebc 1b6e 60bf cc51 5c3c 5e81 9f3e
000003b0: e4ad e23e 2ff1 d43e 8ba2 963c f4fc 213e
000003c0: e2bd 083c b00f b63e 2cd4 87be 1c48 2cbf
000003d0: 8f50 f0bd b6cf 1fbf 8293 83be 732d 22be
000003e0: 118b b83e 66cb a13e 552f c6bc 7779 8d3e
000003f0: d8ce 363f 455c c0be bc0c 803e 93a3 ecbd

bn1.running_var f4 [256]
0.05297925 0.09221819 0.013011478 0.096764 0.04071147 0.07394379 0.25119781 0.053990413
0.041451544 0.027166719 0.08542389 0.11037971 0.042686682 0.04448645 0.04846695 0.06382788
0.05013999 0.19712095 0.09041256 0.051067986 0.07314503 0.03476327 0.09216172 0.051594254
0.016872676 0.0396746 0.033979557 0.06501193 0.030403664 0.013808249 0.022134414 0.09675353
0.058416914 0.03387799 0.03673299 0.02444646 0.06465126 0.13798179 0.035266742 0.09198976
0.1554289 0.30571973 0.04052381 0.12649381 0.04758259 0.05710477 0.0685711 0.01243168
0.03435991 0.039585568 0.09475747 0.12145618 0.053531807 0.2091078 0.16037588 0.07494568
0.104789734 0.06325887 0.08833522 0.08243071 0.11993052 0.10055315 0.038220845 0.032069597
0.04734837 0.09757632 0.03978248 0.03810837 0.2625471 0.08172757 0.038098827 0.2545418
0.05038043 0.11034003 0.04859625 0.018057743 0.048928212 0.075603865 0.054311443 0.037719592
0.13052654 0.12149446 0.027956188 0.04150015 0.16755933 0.14824834 0.041485127 0.04877135
0.046943735 0.27809167 0.13808148 0.036320865 0.121058956 0.12691456 0.039393563 0.04638851
0.080673285 0.055775 0.054185066 0.23869397 0.017087245 0.05631211 0.101331696 0.12167828
0.06153651 0.065522194 0.066722 0.07567116 0.17210196 0.04253526 0.023210738 0.2684183
0.06927797 0.013942726 0.14356177 0.07599688 0.05440117 0.090011455 0.09665957 0.1544387
0.28214112 0.057707053 0.03177575 0.20716113 0.08369618 0.06369295 0.038244672 0.057919335
0.037965577 0.16019398 0.11861677 0.03724047 0.061535824 0.122686625 0.090108335 0.047130555
0.15503837 0.06313585 0.0694464 0.15974121 0.056844473 0.026408287 0.06705077 0.10637386
0.0462951 0.0146793965 0.042466644 0.17330307 0.08514274 0.08197551 0.03792234 0.10789959
0.02667992 0.057040423 0.13081701 0.05697452 0.027622648 0.03235588 0.08477713 0.052256327
0.060142666 0.045821596 0.031527314 0.029328244 0.013257472 0.083835684 0.071458 0.055159118
0.018591886 0.045339964 0.078511305 0.28462142 0.02328138 0.027554799 0.14501922 0.12662384
0.090047516 0.0723446 0.04588516 0.16000071 0.02912935 0.15541609 0.18130149 0.1174094
0.102224186 0.033317823 0.16518888 0.160675 0.111806124 0.08289514 0.03569513 0.05869362
0.04994294 0.20736645 0.07039737 0.044358537 0.033809926 0.15599912 0.052859887 0.28406912
0.06359442 0.02475277 0.13614355 0.09525927 0.09614015 0.064366296 0.070459075 0.14970957
0.14769433 0.13227238 0.022306992 0.11727059 0.12862296 0.044040844 0.09689179 0.14096518
0.2160419 0.10530973 0.04662278 0.14332052 0.15685083 0.054113325 0.03178292 0.06371095
0.048834905 0.06689935 0.12401582 0.1114433 0.041641872 0.034311816 0.031717665 0.06141824
0.114252724 0.06704653 0.027309613 0.048801865 0.16632865 0.038124163 0.046735458 0.05941643
0.17114286 0.10776864 0.07882695 0.08096662 0.05811636 0.10408734 0.06535184 0.021286394
0.054870386 0.105962485 0.084134676 0.027655695 0.093613334 0.09512558 0.024229284 0.08974555
00000000: c500 593d e4dc bc3d 182e 553c 342c c63d
00000010: 12c1 263d d76f 973d 009d 803e 0d25 5d3d
00000020: 18c9 293d bd8c de3c b8f2 ae3d c20e e23d
00000030: 3bd8 2e3d 6c37 363d 4885 463d 31b8 823d
00000040: 975f 4d3d 13da 493e 382a b93d aa2c 513d
00000050: 10cd 953d ee63 0e3d 49bf bc3d 7f54 533d
00000060: 9138 8a3c d581 223d 262e 0b3d fa24 853d
00000070: 1b11 f93c fe3b 623c 3b53 b53c b726 c63d
00000080: 9346 6f3d a6c3 0a3d 5575 163d f143 c83c
00000090: e167 843d 194b 0d3e dc73 103d 2165 bc3d
000000a0: c128 1f3e 4c87 9c3e 4bfc 253d 9887 013e
000000b0: f6e5 423d b1e6 693d 016f 8c3d 3fae 4b3c
000000c0: fabc 0c3d 7a24 223d 3410 c23d 05be f83d
000000d0: 2b44 5b3d 5b20 563e 9339 243e 1f7d 993d
000000e0: 009c d63d de8d 813d 19e9 b43d 6fd1 a83d
000000f0: 229e f53d cfee cd3d 768d 1c3d 695b 033d
00000100: 5df0 413d 18d6 c73d f4f2 223d 8617 1c3d
00000110: 936c 863e c960 a73d 840d 1c3d 4e53 823e
00000120: b65b 4e3d f4f9 e13d dd0c 473d d5ed 933c
00000130: f368 483d 33d6 9a3d ad75 5e3d dc7f 1a3d
00000140: c0a8 053e 16d2 f83d 6004 e53c 10fc 293d
00000150: ac94 2b3e 6ace 173e 4fec 293d 78c4 473d
00000160: 1348 403d 0862 8e3e 3b65 0d3e 30c5 143d
00000170: c2ed f73d e4f5 013e 255b 213d e101 3e3d
00000180: 0938 a53d 5474 643d 29f1 5d3d 316c 743e
00000190: 8dfa 8b3c 87a7 663d fe86 cf3d 7632 f93d
000001a0: b50d 7c3d 8030 863d 8ba5 883d 7bf9 9a3d
000001b0: 7f3b 303e 7439 2e3d 7224 be3c 206e 893e
000001c0: 9ce1 8d3d 0870 643c db01 133e 41a4 9b3d
000001d0: c3d3 5e3d ed57 b83d 74f5 c53d 2e25 1e3e
000001e0: cd74 903e 3b5e 6c3d 4a27 023d 0c22 543e
000001f0: e768 ab3d 7371 823d 72a6 1c3d d33c 6d3d
00000200: cb81 1b3d e409 243e 59ed f23d 7789 183d
00000210: fd0c 7c3d 2043 fb3d b88a b83d f80b 413d
00000220: 61c2 1e3e 5e4d 813d ea39 8e3d 3393 233e
00000230: c0d5 683d 3156 d83c ea51 893d 8ada d93d
00000240: ee9f 3d3d da81 703c 81f1 2d3d 5c76 313e
00000250: 515f ae3d c7e2 a73d 7554 1b3d 76fa dc3d
00000260: d98f da3c 38a3 693d e5f4 053e 1d5e 693d
00000270: e448 e23c 9987 043d a29f ad3d bb0a 563d
00000280: 2858 763d 6daf 3b3d c922 013d c941 f03c
00000290: de35 593c 0bb2 ab3d 9258 923d 87ee 613d
000002a0: 034e 983c 66b6 393d 89ca a03d e6b9 913e
000002b0: 98b8 be3c 9aba e13c eb7f 143e aea9 013e
000002c0: d56a b83d 6829 943d 14f2 3b3d 3ad7 233e
000002d0: ada0 ee3c 6525 1f3e 19a7 393e 5774 f03d
000002e0: ea5a d13d 4578 083d 4627 293e fd87 243e
000002f0: 9cfa e43d edc4 a93d 0e35 123d b968 703d
00000300: f890 4c3d df57 543e 7f2c 903d 4cb1 353d
00000310: 477c 0a3d 3cbe 1f3e 9c83 583d 8271 913e
00000320: cb3d 823d 52c6 ca3c 3769 0b3e 4b17 c33d
00000330: 21e5 c43d 7ad2 833d d94c 903d 774d 193e
00000340: 2f3d 173e 6972 073e 27bd b63c 902b f03d
00000350: bdb5 033e 2c64 343d 346f c63d 2d59 103e
00000360: 163a 5d3e a1ac d73d 87f7 3e3d 9dc2 123e
00000370: 819d 203e efa5 5d3d cf2e 023d e37a 823d
00000380: 1c07 483d 8702 893d 02fc fd3d 633c e43d
00000390: ab90 2a3d 8c8a 0c3d 62ea 013d b191 7b3d
000003a0: 55fd e93d b14f 893d 69b8 df3c 77e4 473d
000003b0: 0f52 2a3e 1528 1c3d ae6d 3f3d a45e 733d
000003c0: 1340 2f3e ceb5 dc3d 0670 a13d d4d1 a53d
000003d0: 6c0b 6e3d be2b d53d 2fd7 853d ce60 ae3c
000003e0: c5bf 603d dc02 d93d cd4e ac3d 328e e23c
000003f0: 59b8 bf3d 33d1 c23d 7e7c c63c 84cc b73d

fc2.weight f4 [128, 256]
-0.09864069 -0.16084768 0.20795979 0.043756526 0.07733488 -0.036758747 -0.007359495 0.03114028
0.04644179 -0.0619637 -0.080967695 0.048493832 0.0062304507 0.01952112 -0.024158563 0.08206219
0.044432674 -0.08916438 -0.06250553 0.036937363 0.101267144 0.04294517 0.019017024 -0.11896429
0.04412511 0.0066958107 -0.0539737 -0.036772292 0.074837685 -0.07709253 -0.08453105 0.043480363
-0.016767977 0.044765003 0.0024411255 -0.037931763 -0.06155175 0.011064889 0.05093797 0.013212069
-0.028579822 -0.052551497 0.041045543 -0.010381609 -0.014193569 0.04162021 0.009464625 0.024930313
-0.17749904 0.024617573 -0.08817847 0.036671944 -0.04352137 0.04356159 0.18900053 0.024716042
-0.11999845 -0.012184768 -0.0059407735 -0.13778912 -0.0077813044 0.06547253 0.032935724 -0.06294903
0.047835626 -0.08127643 0.015543814 0.07587878 -0.005369768 0.0069937524 -0.06713135 0.043193024
0.008987707 -0.09297834 -0.04666209 -0.08325912 0.12461507 -0.0030974797 -0.004359414 0.028040558
0.046368722 0.029135399 -0.09903277 -0.07826779 0.012081069 0.007953833 0.07089804 -0.08241202
-0.010584669 -0.074317314 0.14458765 -0.0686867 0.09865243 -0.022334132 -0.03464285 0.015382992
0.048605274 0.018180586 -0.039966494 -0.114881046 0.06725041 -0.112959616 -0.13452812 0.17580847
-0.05376417 -0.029766833 0.06623737 -0.10892806 -0.0016766469 -0.03386013 -0.027391264 -0.010200641
-0.10563605 -0.04119537 -0.077538036 -0.004380887 0.00537588 0.13349688 -0.011897415 -0.09793857
-0.00027153472 0.022879396 0.020716073 0.104158774 0.07524792 0.05663919 -0.046046447 -0.09551929
-0.09781428 -0.00615678 -0.057405088 -0.035373725 -0.12559539 -0.08503388 0.03599422 -0.03485374
0.014274469 -0.049422625 0.11622141 -0.10838297 -0.13696851 0.09023633 0.15020812 -0.05163747
-0.096396476 -0.002884713 -0.10776109 0.083592445 -0.053924583 -0.024664521 0.044991277 0.041758865
-0.075047344 -0.03285461 0.009807802 0.032993108 -0.12679753 -0.113031685 0.05709271 -0.034391932
0.027536148 -0.047032446 0.029619047 -0.06296531 -0.043144356 0.023229389 -0.007886818 0.012283395
0.006995761 -0.08137454 -0.033649545 -0.007007824 0.12742305 0.0042117652 0.064099476 0.11102075
0.04837359 0.048764654 0.005590285 -0.019468399 0.048045184 -0.08013925 0.0073319552 -0.023820518
0.0011728171 0.046172787 -0.02755234 0.052239537 0.09815425 -0.012440544 0.023729317 0.031951554
-0.019331994 0.046840202 0.029904593 0.01023791 -0.049960107 -0.069513835 0.052051112 0.034976956
0.0501556 0.032629386 0.06051809 0.08595694 -0.062499814 -0.07988805 0.060600817 0.028735112
0.07687132 -0.1367372 0.05773097 0.019087356 0.02764204 -0.029038701 -0.061045643 0.03445746
0.06384328 0.069841936 0.056879308 -0.06374447 -0.0075793886 -0.14075646 0.08098302 0.016951036
-0.083321944 0.14813727 -0.021599816 0.094507426 0.050045677 -0.0061304183 -0.011673462 -0.025816191
0.007163771 0.008854649 0.042986304 0.028910005 0.010965291 -0.108081445 -0.09753011 -0.05283494
-0.021409478 -0.11947459 -0.03644665 0.17751677 0.0018034112 -0.061945282 0.06451258 -0.117461674
0.03320462 -0.03990202 0.041510087 -0.109211795 -0.096205205 -0.004850614 0.0014730474 0.13733889
00000000: 2104 cabd 41b5 24be 69f3 543e 0b3a 333d
00000010: c061 9e3d 5790 16bd eb27 f1bb e719 ff3c
00000020: bf39 3e3d a6cd 7dbd 64d2 a5bd 78a1 463d
00000030: cf28 cc3b c1ea 9f3c 2ee8 c5bc 3910 a83d
00000040: 09ff 353d d19b b6bd e602 80bd a24b 173d
00000050: 2665 cf3d 46e7 2f3d 97c9 9b3c 8da3 f3bd
00000060: 88bc 343d 8868 db3b 8713 5dbd 8b9e 16bd
00000070: 8044 993d b0e2 9dbd 9d1e adbd 7718 323d
00000080: ff5c 89bc 825b 373d 4afb 1f3b 565e 1bbd
00000090: b01d 7cbd 8249 353c 55a4 503d 6f77 583c
000000a0: 3b20 eabc 3d40 57bd 5f1f 283d a017 2abc
000000b0: 258c 68bc f479 2a3d 8411 1b3c a83a cc3c
000000c0: 4fc2 35be cbaa c93c ea96 b4bd 5235 163d
000000d0: 7743 32bd a36d 323d 5b89 413e 4c79 ca3c
000000e0: bfc1 f5bd 9fa2 47bc d2aa c2bb 9718 0dbe
000000f0: 50fa febb 7616 863d 9ce7 063d 6ceb 80bd
00000100: 4aef 433d 4274 a6bd 7bab 7e3c 5566 9b3d
00000110: e1f4 afbb d92b e53b 297c 89bd 2beb 303d
00000120: 2d41 133c 6e6b bebd bf20 3fbd c283 aabd
00000130: 3036 ff3d 16ff 4abb 6ad9 8ebb 50b5 e53c
00000140: 21ed 3d3d 5cad ee3c b1d1 cabd dd4a a0bd
00000150: adef 453c cb50 023c fe32 913d a2c7 a8bd
00000160: 526b 2dbc ad33 98bd c90e 143e 9dab 8cbd
00000170: 490a ca3d 12f6 b6bc a9e5 0dbd f208 7c3c
00000180: 5316 473d 74ef 943c e8b3 23bd c146 ebbd
00000190: 95ba 893d 5f57 e7bd bdc1 09be 2307 343e
000001a0: d137 5cbd 93d9 f3bc 75a7 873d ad15 dfbd
000001b0: efc2 dbba ebb0 0abd a563 e0bc 9720 27bc
000001c0: b757 d8bd 7abc 28bd 43cc 9ebd 8b8d 8fbb
000001d0: 2628 b03b 68b3 083e 60ed 42bc 0494 c8bd
000001e0: c65c 8eb9 926d bb3c c1b4 a93c 3251 d53d
000001f0: 951b 9a3d 7ffe 673d 339b 3cbd 9e9f c3bd
00000200: da52 c8bd d0be c9bb 9921 6bbd 0ae4 10bd
00000210: 149c 00be 3e26 aebd ad6e 133d ccc2 0ebd
00000220: 76df 693c 616f 4abd 7e05 ee3d e4f7 ddbd
00000230: 7941 0cbe d3cd b83d 28d0 193e d081 53bd
00000240: 846b c5bd 740d 3dbb d9b1 dcbd 8432 ab3d
00000250: 06e0 5cbd 400d cabc c648 383d 580b 2b3d
00000260: 6cb2 99bd 8e92 06bd e7b0 203c c823 073d
00000270: 36d7 01be 287d e7bd 0cda 693d 8ede 0cbd
00000280: 7d93 e13c 18a5 40bd a5a3 f23c f5f3 80bd
00000290: 23b8 30bd 8f4b be3c b637 01bc 4b40 493c
000002a0: b23c e53b b2a7 a6bd 1bd4 09bd e3a1 e5bb
000002b0: 307b 023e d902 8a3b 9646 833d d95e e33d
000002c0: 6323 463d 72bd 473d b62e b73b 317c 9fbc
000002d0: 07cb 443d 0c20 a4bd e640 f03b 3f23 c3bc
000002e0: 36b9 993a ad1f 3d3d 72b5 e1bc 20f9 553d
000002f0: 1805 c93d 6cd3 4bbc fc63 c23c a2df 023d
00000300: 215e 9ebc 83db 3f3d 7afa f43c e8bc 273c
00000310: f8a2 4cbd 455d 8ebd 8c33 553d ff43 0f3d
00000320: f56f 4d3d 64a6 053d d1e1 773d 310a b03d
00000330: ceff 7fbd 599c a3bd 9038 783d e665 eb3c
00000340: b66e 9d3d d604 0cbe 4f77 6c3d 165d 9c3c
00000350: 8f71 e23c 92e2 edbc ff0a 7abd 4423 0d3d
00000360: 44c0 823d 4a09 8f3d 47fa 683d 768c 82bd
00000370: 855c f8bb 7622 10be 6dda a53d e6dc 8a3c
00000380: b2a4 aabd 4cb1 173e 19f2 b0bc 1c8d c13d
00000390: b2fc 4c3d ade1 c8bb 0c42 3fbc 7a7c d3bc
000003a0: 11be ea3b 1713 113c 6812 303d add4 ec3c
000003b0: c4a7 333c ce59 ddbd debd c7bd 7369 58bd
000003c0: ee62 afbc 18af f4bd 1549 15bd f5c6 353e
000003d0: 7060 ec3a 56ba 7dbd 2c1f 843d bf8f f0bd
000003e0: 9101 083d 4d70 23bd 7b06 2a3d 6faa dfbd
000003f0: 3c07 c5bd e6f1 9ebb 4513 c13a 91a2 0c3e

fc2.bias f4 [128]
-0.13318752 -0.017789355 -0.03966023 -0.26785722 -0.10449722 -0.16945998 -0.006646003 -0.043143883
-0.4138336 -0.1617241 -0.12869358 -0.15220886 -0.10630672 -0.12700473 -0.1711968 -0.25519404
-0.14111708 -0.12668762 -0.38766375 -0.099105254 -0.28861848 -0.27600166 -0.0993557 0.049932547
-0.32800454 -0.039267775 0.055528864 -0.15148295 -0.045997567 0.047887936 0.016344633 -0.0040144464
-0.17273901 -0.08097321 -0.06247934 0.017111275 -0.14887258 -0.052774396 -0.0041464944 -0.024867168
-0.042133328 -0.18482836 -0.011287196 -0.21307026 -0.2474273 -0.28797132 -0.34307963 -0.25557944
-0.022145912 0.04475034 0.067696035 -0.12944798 -0.24318616 -0.32994574 -0.22337644 -0.2555105
-0.25902867 -0.18466158 -0.14688106 -0.31394154 -0.021820834 -0.13093048 -0.09111923 -0.27927366
0.038218234 -0.017943991 -0.22683477 0.05086963 -0.30438155 -0.17392188 -0.038978517 -0.10380981
-0.12797293 -0.07862111 -0.0460334 -0.02948454 -0.24194495 -0.26879284 -0.3667254 -0.31717706
-0.0831384 -0.020905482 -0.046398595 -0.055634934 -0.14048493 -0.0954789 0.027050266 -0.10389465
-0.09783225 -0.33617926 -0.056812543 -0.1036927 0.034690194 -0.07327544 -0.15564387 -0.20429927
-0.28784946 -0.050951507 -0.21101275 -0.10829028 -0.10312014 -0.14085115 -0.0047405926 -0.059905957
-0.008496863 -0.26269656 -0.24132347 0.1306524 -0.11968142 -0.049605124 0.0055139624 -0.065317705
-0.098136835 -0.03137182 -0.19847818 -0.03736488 -0.14589939 -0.07291203 0.032520108 -0.14886054
-0.12846155 0.025950087 -0.026848605 -0.1652462 -0.02842594 -0.022249764 -0.19005695 -0.18537797
00000000: 4f62 08be fbba 91bc c472 22bd 9524 89be
00000010: a302 d6bd eb86 2dbe b7c6 d9bb a4b7 30bd
00000020: ffe1 d3be 019b 25be 40c8 03be a4dc 1bbe
00000030: 56b7 d9bd 870d 02be 374e 2fbe cba8 82be
00000040: ff80 10be 66ba 01be dd7b c6be b2f7 cabd
00000050: cdc5 93be 1750 8dbe 007b cbbd 1286 4c3d
00000060: 36f0 a7be 3fd7 20bd 3c72 633d 591e 1bbe
00000070: f267 3cbd 2426 443d 2ee5 853c 9e8b 83bb
00000080: 7fe2 30be 48d5 a5bd 56ea 7fbd f22c 8c3c
00000090: 0e72 18be f729 58bd 51df 87bb 3bb6 cbbc
000000a0: ff93 2cbd a543 3dbe eeed 38bc 172f 5abe
000000b0: 955d 7dbe fa70 93be 22a8 afbe 4fdb 82be
000000c0: 586b b5bc 224c 373d 38a4 8a3d 038e 04be
000000d0: cb05 79be a6ee a8be cbbc 64be 46d2 82be
000000e0: 689f 84be ed17 3dbe fd67 16be f2bc a0be
000000f0: 9bc1 b2bc a412 06be b89c babd f5fc 8ebe
00000100: b98a 1c3d 47ff 92bc 6047 68be ac5c 503d
00000110: e6d7 9bbe 9418 32be f0a7 1fbd 3d9a d4bd
00000120: 560b 03be 1b04 a1bd 858d 3cbd 9089 f1bc
00000130: 6bc0 77be 379f 89be 6ec3 bbbe 0865 a2be
00000140: 7744 aabd f941 abbc 740c 3ebd 75e1 63bd
00000150: 48db 0fbe 718a c3bd 8598 dd3c b8c6 d4bd
00000160: 465c c8bd b01f acbe 45b4 68bd d75c d4bd
00000170: 4e17 0e3d 6f11 96bd 1b61 1fbe d433 51be
00000180: 0161 93be 87b2 50bd ba13 58be 4bc7 ddbd
00000190: a730 d3bd 493b 10be f956 9bbb f35f 75bd
000001a0: 6d36 0bbc 2a80 86be 801d 77be bec9 053e
000001b0: 881b f5bd be2e 4bbd 78ae b43b 4ac5 85bd
000001c0: f7fb c8bd bd7f 00bd dd3d 4bbe eb0b 19bd
000001d0: a666 15be e752 95bd ce33 053d e66e 18be
000001e0: 6d8b 03be 4795 d43c 9bf1 dbbc 4d36 29be
000001f0: 84dd e8bc 2345 b6bc 4a9e 42be b9d3 3dbe

bn2.weight f4 [128]
0.98157346 1.0250893 1.0206897 1.0017177 0.99751335 1.0080701 1.0322136 1.0599306
1.0534078 1.0699155 1.0173386 1.0405402 0.9773872 1.0447445 1.0836679 1.0615567
1.0772078 0.99930024 1.1274707 1.0267328 1.0438334 1.0135293 0.97737014 0.9539846
0.98002297 0.970237 1.0453995 0.94861734 1.0220888 0.96950114 1.0468136 0.9866882
1.0441972 1.0844951 0.94261265 1.0074853 1.0261577 1.0870824 0.98896426 0.96023786
0.99048 1.0051379 0.95203334 1.013894 1.0873154 1.0110298 1.030531 1.0233876
1.0106001 1.0330645 0.96466196 1.0309666 0.99099225 1.0822191 1.0350294 1.0658807
1.0540391 0.9818304 1.0335971 1.028095 1.0007933 1.0545396 0.9978343 1.0143588
1.0033095 1.0510124 1.0583712 0.953093 1.0159919 1.0052445 1.0150512 1.0075309
1.012363 1.0440828 1.0186099 1.052432 1.067573 1.0153944 1.0961796 1.0070386
0.99213105 1.0175134 0.9443829 1.0272436 1.0682106 0.9717891 1.0317076 1.035537
1.021096 1.0399258 1.0448322 0.96639735 1.0320259 0.98198575 1.0683727 0.996749
1.0488298 0.95150346 1.0676299 0.9788719 1.0659566 1.0217882 0.9981882 0.96460503
1.0415398 1.0709549 1.0526621 0.9493409 0.99285185 0.96879447 0.95374334 0.9341468
0.9839328 0.9856758 1.0058991 0.97759914 0.93868697 1.0812289 0.98421407 1.0269624
1.0327508 0.989892 0.94222456 1.0217012 1.0389066 0.9743152 1.0223095 1.0072458
00000000: 6648 7b3f 2036 833f f6a5 823f 4938 803f
00000010: 095d 7f3f 7108 813f 931f 843f ceab 873f
00000020: 11d6 863f fef2 883f 2738 823f 6c30 853f
00000030: 0c36 7a3f 30ba 853f a1b5 8a3f 17e1 873f
00000040: f2e1 893f 24d2 7f3f f650 903f fb6b 833f
00000050: 559c 853f 54bb 813f ee34 7a3f 5638 743f
00000060: c9e2 7a3f 7461 783f a7cf 853f 96d8 723f
00000070: ced3 823f 3a31 783f fdfd 853f 9997 7c3f
00000080: 41a8 853f bcd0 8a3f 104f 713f 47f5 803f
00000090: 2359 833f 8425 8b3f c32c 7d3f 26d2 753f
000000a0: 1990 7d3f 5ca8 803f 75b8 733f 47c7 813f
000000b0: 272d 8b3f 6d69 813f 71e8 833f 5dfe 823f
000000c0: 585b 813f 753b 843f 16f4 763f b7f6 833f
000000d0: abb1 7d3f 2886 8a3f d87b 843f c76e 883f
000000e0: c1ea 863f 3d59 7b3f e94c 843f 9e98 833f
000000f0: ff19 803f 27fb 863f 1272 7f3f 82d6 813f
00000100: 726c 803f 9387 863f b578 873f e7fd 733f
00000110: 060c 823f daab 803f 33ed 813f c6f6 803f
00000120: 1c95 813f 81a4 853f cf61 823f 17b6 863f
00000130: 3ba6 883f 72f8 813f 9d4f 8c3f a4e6 803f
00000140: 4dfc 7d3f e13d 823f 14c3 713f b87c 833f
00000150: 20bb 883f 2cc7 783f ff0e 843f 7a8c 843f
00000160: 46b3 823f 4a1c 853f 10bd 853f d165 773f
00000170: 6d19 843f 6b63 7b3f 70c0 883f f12a 7f3f
00000180: 0e40 863f bb95 733f 19a8 883f 5997 7a3f
00000190: 4471 883f f5c9 823f 4389 7f3f 5bf0 763f
000001a0: 2d51 853f 0d15 893f a2bd 863f 0108 733f
000001b0: 8a2b 7e3f ea02 783f 8628 743f 3f24 6f3f
000001c0: 05e3 7b3f 4055 7c3f 4dc1 803f f043 7a3f
000001d0: ca4d 703f b565 8a3f 74f5 7b3f 8173 833f
000001e0: 2e31 843f 9069 7d3f a135 713f 1bc7 823f
000001f0: e4fa 843f b96c 793f 0adb 823f 6eed 803f
