models/save_models/mlp_features_espectrales.pth (torch, 526539 bytes, 20 tensors)

fc1.weight f4 [256, 336]
000000 f1 bf 15 3e e5 7b c8 bd aa 09 6c 3d a0 0d 9a 3d
       0.14624001 -0.09789256 0.057626404 0.0752213
000010 c0 09 73 3d 60 55 38 3e 13 f7 ee 3b 00 96 a4 3d
       0.05933547 0.18001318 0.007292637 0.08036423
000020 76 a3 cb 3d d3 90 0e 3e d7 2c 32 bb 0a f1 26 3e
       0.09943287 0.13922434 -0.002718737 0.16302887
000030 6a 61 dd bd 73 48 f1 3d 17 5b 84 bd 00 34 b0 3d
       -0.10809596 0.11781397 -0.064626865 0.08603668
000040 88 d2 5b 3e b1 89 e0 3d 4d 53 1a 3e 0e f2 19 bb
       0.2146703 0.109637626 0.15070839 -0.0023490223
000050 d6 ee e4 3c fd d7 b8 3d ed 00 f1 bd 7e 98 20 3e
       0.027945917 0.090255715 -0.11767755 0.15683171
000060 fb e6 51 be 01 ee 3a 3e 36 97 6a be 9c a5 01 3e
       -0.20498268 0.18254854 -0.22909245 0.12660831
000070 76 5e 43 3d a3 1f 4f 3e 10 9c 1d bc 8a a0 29 3d
       0.047697507 0.20226912 -0.009619728 0.041412868
000080 f5 a5 ea 3d e4 b6 82 3d dd 9d 1e 3e 69 a7 a8 3d
       0.11457435 0.0638254 0.15489908 0.08235056
000090 1d 0a 82 bd 84 68 b3 3d 97 0a 4c bd 27 15 05 bd
       -0.06349585 0.08760169 -0.049814787 -0.032490876
0000a0 bc 69 bf bc 0c b0 1b 3e 53 db 99 b9 e9 7d e9 3d
       -0.023365848 0.15203875 -0.00029345843 0.114009686
0000b0 09 ca 22 3e e2 5f d4 3d 14 d2 64 bd 1e e8 08 3e
       0.15897383 0.10369851 -0.05586441 0.13369796
0000c0 80 0e fb bd d9 5b 87 3d ea 5c 71 bd b6 18 21 3e
       -0.12258625 0.066093154 -0.0589265 0.15732083
0000d0 e0 82 80 bd 62 4f f7 3c 2b 30 b3 bd 3f 10 90 3d
       -0.062749624 0.03018922 -0.08749422 0.07034349
0000e0 27 74 50 bc 2a ac 7d bd 2e 29 b5 bd 94 19 96 bc
       -0.012723005 -0.061931767 -0.08845745 -0.018322743
0000f0 ea 90 90 bd 1f af d5 bd 09 55 84 bd 2a 96 90 bd
       -0.0705889 -0.10433792 -0.06461532 -0.070598915
000100 73 c8 97 bd 40 19 ae bd 68 d1 3f be 49 57 99 bd
       -0.074112795 -0.0850091 -0.18732226 -0.074873514
000110 e3 fd 99 bd 86 c6 23 bd 1c a5 93 bb c7 9f 84 3d
       -0.07519128 -0.03998425 -0.0045057666 0.064757876
000120 83 0d af bd a7 36 b1 bd 87 3e a9 3d aa e8 f4 bc
       -0.08547499 -0.08653002 0.08263879 -0.0298961
000130 af b6 76 bd 0b bc 42 bd 0c db 12 3d 53 98 d5 3b
       -0.060232814 -0.047542613 0.03585343 0.0065184026
000140 72 ba 52 bc 5d 89 95 bd b3 71 26 bd 02 7f 34 bd
       -0.012861835 -0.073015906 -0.040635776 -0.044066437
000150 4f bf 72 bd d7 29 2b 3e 38 a5 fd 3c c7 54 f6 bd
       -0.059264477 0.1671518 0.030962572 -0.12027889
000160 bf 30 33 bd 73 bb ac bd e9 3e 02 3e 96 65 fa b9
       -0.04374766 -0.084341906 0.12719311 -0.00047759403
000170 47 86 b5 bd fa 0d 37 3d d6 5f 8b 3c 5d a3 93 bd
       -0.08863502 0.044691063 0.017013472 -0.072088934
000180 64 64 d7 bc c1 82 09 be 28 ec c3 bc 2c b3 44 bd
       -0.026292987 -0.13428785 -0.023916319 -0.048022434
000190 95 d7 46 bd d5 d4 b3 3c eb 83 25 3b 3e 5a a6 bd
       -0.04854544 0.021952072 0.0025255631 -0.08122681
0001a0 50 7e 9c 3d 2b 26 67 3d b4 20 be 3c df 96 8d 3b
       0.0764128 0.056432884 0.023208953 0.0043209638
0001b0 7d 32 14 3e a6 86 a2 bd 64 53 a3 bd 9b 16 14 bd
       0.14472385 -0.079358384 -0.0797489 -0.03615437
0001c0 e6 ca b6 3d eb 2f fd 3d 65 10 18 bd 25 e9 a5 3e
       0.089254186 0.12362655 -0.03712501 0.32404438
0001d0 9d 67 fe 3d 0d 8d 3e 3e 48 c3 5e 3b d5 9c 9a 3e
       0.124221064 0.18608494 0.0033990908 0.30197778
0001e0 63 62 43 3e 4b 0e a2 3d ed ff e0 3d 36 45 77 3d
       0.190805 0.079128824 0.10986314 0.06036874
0001f0 0d d3 e5 bd d0 71 f3 3d 60 ce 68 bc 88 91 c5 3d
       -0.11221895 0.118869424 -0.01420936 0.096468985
000200 89 2e 13 3e 29 f4 f6 3d 3d eb cc bc e8 e8 d6 3d
       0.1437322 0.120582886 -0.025014514 0.10493642
000210 b4 be 22 3e 5b 42 fa 3d ed 9a 33 3d 0a 4e 34 3e
       0.1589306 0.122196876 0.04384892 0.17607895
000220 ff 4c e4 bd 70 d3 34 3e cd d1 cc bd 25 83 05 3e
       -0.11147498 0.17658782 -0.10000954 0.13038309
000230 45 57 03 be 53 a6 95 3d 54 1c 0d 3e cc c4 4e 3e
       -0.1282626 0.073071145 0.13780338 0.2019226
000240 21 fa d9 3d 92 a7 46 3e 12 f4 45 3e 04 83 e2 3d
       0.106434114 0.1939986 0.19331387 0.110601455
000250 6e 77 22 bd 26 ed 2c 3e 04 81 1b be 5e 76 ad 3d
       -0.03966468 0.1688734 -0.15185934 0.084698424
000260 9a 28 99 bd 55 9d 17 bb 81 59 9f bd b9 c2 f7 3d
       -0.07478447 -0.0023134549 -0.077807434 0.12097687
000270 51 84 3d 3c 41 40 3d 3d 0e 43 01 be 5c fc ef 3d
       0.011567191 0.046203855 -0.12623236 0.117180556
000280 b9 2b 1b be 04 ab d2 3d 13 3a b6 bc 65 8d 27 3d
       -0.15153398 0.10286525 -0.022244489 0.04090633
000290 47 b5 c2 3c c2 f0 c1 ba 8d 56 81 bc ec 55 24 3d
       0.02376808 -0.0014796483 -0.015788341 0.040121004
0002a0 d9 bd 77 3d fe f1 17 be bc 5a 25 3d 44 c5 46 bd
       0.060483787 -0.14838406 0.040369734 -0.04852797
0002b0 a2 56 5e bd 9a 16 72 3d 50 f8 b9 bd 0b 9f f5 bc
       -0.05428184 0.059103586 -0.09080565 -0.029983064
0002c0 95 ef ed 3c 5d ec 6c bc 15 fa b1 3d 02 1d 33 bb
       0.029044906 -0.01446065 0.086902775 -0.0027330522
0002d0 09 31 cc bc fa a9 11 bd 8c 08 8b 3b 02 9c fa 3d
       -0.024925726 -0.035562493 0.004242962 0.122367874
0002e0 a1 b8 1e bd f3 c5 81 bb 75 bd bb bc 0b 39 0b bd
       -0.038750295 -0.003960365 -0.022917489 -0.033989947
0002f0 82 7a b4 3c 82 78 bd bc 03 d2 51 bd bb 56 24 3d
       0.022031073 -0.023128752 -0.051225673 0.040121775
000300 79 d4 ca 3c 20 40 83 3d ca 29 27 bd f5 4c 75 3c
       0.024759518 0.06408715 -0.040811338 0.014971961
000310 e7 44 2a bd fc 36 61 bc 42 56 13 be 66 ed 65 bd
       -0.041569617 -0.013746019 -0.14388373 -0.056134604
000320 65 27 23 bd 5c ec 82 3d d1 d4 da 3c ed 34 65 bd
       -0.03983249 0.06392738 0.026712807 -0.055958677
000330 89 a0 1c 3d 67 ad 32 3c 9f 80 53 be 1a e0 ff 3b
       0.038239036 0.0109056 -0.20654534 0.0078086974
000340 40 76 0c 3c a0 18 6b 3d 27 40 3d bd bd 84 d0 bd
       0.008573115 0.05739653 -0.04620376 -0.10181568
000350 5c d3 95 3d 09 3f f3 3d a3 a2 3f be 8f aa 30 3d
       0.07315704 0.118772574 -0.18714385 0.043131407
000360 7c 58 42 bd f4 46 97 ba a1 84 5a be 1e f9 0e 3e
       -0.047447667 -0.0011541531 -0.21339656 0.13962218
000370 6a c6 d0 bc 55 6f a6 bd 54 a3 11 3d a2 d8 02 be
       -0.025485236 -0.08126704 0.035556152 -0.12777951
000380 73 8b 0b 3e 79 31 29 bd 02 ed ec 3d 30 b2 b3 3d
       0.13627414 -0.041306946 0.11568643 0.08774221
000390 ec 4c 39 3e d3 fc 87 3b 04 2e 0e 3e 27 29 15 3d
       0.1809575 0.004150012 0.13884741 0.0364162
0003a0 8f d5 18 3e f9 c6 b7 3d ac 61 d0 3d 36 fa 20 bd
       0.14925216 0.08973498 0.101748794 -0.03930112
0003b0 1d d2 01 be b0 12 7e 3c 5e 2e ad bb 21 28 a3 bd
       -0.12677808 0.015507385 -0.0052850684 -0.07966638
0003c0 e6 be 88 3d b4 36 15 3e 8f ff 87 bd 08 0b b2 3d
       0.06677036 0.14571649 -0.06640541 0.0869351
0003d0 9f a5 0e 3e b1 78 4b bd 48 c6 bc bc fe df b1 3c
       0.13930367 -0.049675647 -0.023043767 0.021713253
0003e0 0a ba d7 bd 03 f2 aa 3d 19 10 35 be 0e 2f ae bc
       -0.10533531 0.08346941 -0.17681922 -0.021262672
0003f0 ad e5 61 bd 79 23 d0 3d 01 ad 21 3d a4 10 84 3d
       -0.055150677 0.10163016 0.03947163 0.064484864

fc1.bias f4 [256]
000000 96 e3 15 3e d2 d2 23 3c da 69 70 3d 2b 06 9a 3d
       0.14637598 0.009998994 0.058694698 0.07520708
000010 e1 2d 43 3e 3a 39 f7 3d d3 d5 20 3d b1 b3 3c 3d
       0.1906047 0.12071462 0.03926642 0.046069805
000020 50 4b 26 3c 42 3c bc 3c d2 d2 23 3c 33 e0 10 bc
       0.010149792 0.022977952 0.009998994 -0.008842516
000030 00 7b 9b 3e 42 08 91 3c 4b 30 41 3e 77 13 b3 bc
       0.3036728 0.017704133 0.18866079 -0.021859867
000040 c1 20 0e 3d e7 e4 7d 3e 76 18 00 3e 31 48 ca 3d
       0.034699205 0.2479435 0.12509331 0.09877051
000050 d2 d2 23 3c 88 20 43 3e 8d 84 c4 3c d2 d2 23 3c
       0.009998994 0.19055378 0.023988986 0.009998994
000060 1b e6 df 3d d2 d2 23 3c f5 00 8f 3d 90 7f ec 3d
       0.10932561 0.009998994 0.069826044 0.11547768
000070 d2 d2 23 3c 74 e2 de 3c d2 d2 23 3c 28 89 fa 3b
       0.009998994 0.02720759 0.009998994 0.007645745
000080 23 ef 87 3d be 44 20 3e d2 d2 23 3c d2 d2 23 3c
       0.066374086 0.15651223 0.009998994 0.009998994
000090 d2 d2 23 3c 59 0d 0a 3e 87 cd 97 bd 89 58 76 3d
       0.009998994 0.13481654 -0.07412248 0.060143027
0000a0 d2 d2 23 3c 6e d7 8d 3c 3b c9 b1 3d d2 d2 23 3c
       0.009998994 0.017314639 0.0868096 0.009998994
0000b0 9e 63 b3 3c 52 67 83 bc b3 c3 0f bc 7f 33 49 3d
       0.021898087 -0.016040478 -0.008774686 0.049121376
0000c0 56 a8 e6 3d d2 d2 23 3c b5 12 ee 3d 21 68 4c bd
       0.11262576 0.009998994 0.11624662 -0.049903993
0000d0 c4 2f 44 3d 12 cc 99 3d 80 53 cf 3d 83 59 31 bc
       0.047897115 0.075096264 0.10123348 -0.010824564
0000e0 18 7d 3e bb b8 f9 39 3e 21 f7 76 3d b1 8c 8f bc
       -0.002906626 0.18161666 0.060294274 -0.017523142
0000f0 ad 77 51 3e 3a b6 5d 3b 01 18 8f ba 52 94 3c 3d
       0.20455809 0.003383054 -0.0010917188 0.046039887
000100 47 e5 6a 3d 33 92 e3 3c d2 d2 23 3c 21 4b ff 3b
       0.057347562 0.027779674 0.009998994 0.0077909385
000110 53 bf 27 bd f9 4d 7d 3d 2c df 07 3e 24 4f 81 3d
       -0.040953945 0.06184194 0.13268727 0.06313923
000120 c5 a1 2e 3e ad f7 ac 3d ae a5 15 bb d2 d2 23 3c
       0.17053898 0.08445678 -0.0022834348 0.009998994
000130 a8 fb a4 3d 3c 02 32 3e d2 d2 23 3c db 83 65 3d
       0.08055812 0.17383665 0.009998994 0.05603395
000140 4a b3 4b 3d 70 c7 c9 3c d2 d2 23 3c cb 40 00 be
       0.04973153 0.024631232 0.009998994 -0.12524717
000150 c2 bc 13 3d 1b e6 ec 3c c2 52 b8 3d 00 d2 90 3c
       0.036068685 0.028918317 0.0900016 0.01767826
000160 e9 86 e3 3d e2 6c 1c 3e 37 00 8e 3d 5c 55 23 3c
       0.111097164 0.1527591 0.06933635 0.009969082
000170 54 cb 23 3c 7a 1d c0 3d 83 86 55 3d e9 a7 20 3e
       0.009997208 0.09380622 0.052130233 0.15689053
000180 a3 3f c9 3c 15 a2 80 3b c9 b8 1f bd 95 8c ad 3d
       0.024566477 0.0039255717 -0.038994584 0.084740795
000190 4a d6 37 3b df 85 1e bc fb 57 d3 3c 83 b6 30 3d
       0.002805131 -0.009675472 0.025798788 0.043142807
0001a0 cc f0 83 3d 69 cb d6 bc d6 50 c6 3d 7a ad 1e 3e
       0.06442413 -0.02622004 0.09683387 0.15495864
0001b0 4b 0a 51 3c 96 38 38 3d 48 cd 68 bd f2 e4 45 bc
       0.012758802 0.04497584 -0.056836396 -0.012078511
0001c0 9d 0e 57 3e ab 4f 49 3b 98 63 3b 3e f3 92 d9 3c
       0.21001668 0.0030717652 0.18299711 0.026559329
0001d0 c0 fb b7 3a 6a 10 c7 3b b4 63 14 3e 04 3d b8 3b
       0.0014036819 0.0060749548 0.14491159 0.005622508
0001e0 d2 f8 80 3e 2c bc e9 3d 40 1a 59 3e 11 cc 23 3c
       0.25189835 0.11412844 0.2120142 0.009997384
0001f0 c5 81 6c 3e a0 51 94 3d b6 69 03 3c a0 39 6e 3e
       0.23096378 0.07242131 0.008020809 0.2326417
000200 c2 5b 8e 3d fe 8c 05 3e 9f 46 11 3e 87 55 0b 3e
       0.06951095 0.13042066 0.14187096 0.13606845
000210 d2 d2 23 3c 65 2d a9 bd 01 5b 0c be 01 d3 8d bd
       0.009998994 -0.082606114 -0.1370659 -0.069250114
000220 b5 41 12 3d 7c f5 86 3c 53 1d 11 3e 8b 8c fc bc
       0.035707194 0.016474478 0.14171343 -0.030828735
000230 a9 db 23 3c 60 3a 23 bd d2 d2 23 3c 3b b0 0d 3e
       0.0100011015 -0.039850593 0.009998994 0.13836758
000240 4f 55 b6 3c c5 4a 84 3d 22 c1 6e bd c7 33 a4 3b
       0.022257475 0.06459574 -0.058289655 0.005011055
000250 32 ce 23 3c 49 bb 5c 3d 32 9f a5 3d 7c 46 c3 3a
       0.009997891 0.053889547 0.08087005 0.0014898325
000260 94 44 4e 3d 34 3e 2e ba f8 c0 e2 bd a5 0c 88 3d
       0.05035837 -0.0006646842 -0.11071962 0.06643037
000270 b8 35 5f 3d 81 04 82 3c 40 f3 82 bd bf 8b 74 3b
       0.05449459 0.015871288 -0.063940525 0.003731474
000280 d2 d2 23 3c 86 42 4c 3c d8 d4 c9 3b 7f d9 c6 bc
       0.009998994 0.012467032 0.006159406 -0.024273632
000290 0a 5f 73 bd 99 85 31 3e fb 40 32 3e fe 75 18 bc
       -0.05941681 0.1733612 0.174076 -0.009305475
0002a0 a1 e8 ec 3c 76 99 b6 3c 4a c2 a3 3b 61 b1 23 3c
       0.02891952 0.022289973 0.0049975263 0.009991021
0002b0 d2 d2 23 3c 90 a6 83 3d ff 2f 91 3b bc cc f1 3d
       0.009998994 0.06428254 0.0044307704 0.11806628
0002c0 02 49 19 bd 0d f8 b3 3e d2 d2 23 3c af 34 1a 3d
       -0.03742314 0.35150185 0.009998994 0.0376479
0002d0 ed 26 99 3b cc 57 01 3d bf dc 00 be 80 35 49 3c
       0.00467383 0.03157787 -0.12584208 0.012280822
0002e0 5f 52 56 3e bd cf 1c bd d2 d2 23 3c b9 b3 38 bc
       0.2092986 -0.038284052 0.009998994 -0.011273318
0002f0 27 dd 6e bd 27 cb 5d 3e d2 d2 23 3c d0 ab dd 3b
       -0.058316376 0.21659528 0.009998994 0.0067648664
000300 1d f8 4a 3d 92 62 f7 bc 1c 1a d2 3d d2 d2 23 3c
       0.049553026 -0.03019837 0.10258886 0.009998994
000310 68 80 3e 3e e0 bb 96 3c e3 b7 a6 3e db 3a 9c bd
       0.1860367 0.018400133 0.3256217 -0.07628413
000320 b9 b2 f6 3d d2 d2 23 3c aa d8 3e 3d af 0c 29 3d
       0.120458074 0.009998994 0.046593346 0.04127186
000330 d2 d2 23 3c 25 cc 23 3c 7a 47 23 3c d5 c1 f3 3d
       0.009998994 0.009997402 0.009965772 0.11902205
000340 16 fe 56 3d d7 cd 82 3d f8 e5 7b 3d d2 d2 23 3c
       0.05248841 0.06386917 0.061498612 0.009998994
000350 c0 ce 8c 3c 6e 08 b6 3d 2d b0 17 3d 73 26 33 bd
       0.01718843 0.088883266 0.03703325 -0.04373784
000360 a1 49 88 3d 76 1b 41 3e f2 cf 23 3c f4 d0 3b 3d
       0.066546686 0.18858132 0.0099983085 0.04585357
000370 3a eb 8e 3d 78 a3 63 3d 3f 59 2d 3e 82 7c b6 3d
       0.0697846 0.055575818 0.16928576 0.08910467
000380 cf d2 23 3c cd 1d 0e bd d2 d2 23 3c da f2 b0 3c
       0.009998991 -0.03469639 0.009998994 0.021600176
000390 56 82 62 3e f8 c5 b7 3c 16 d5 23 3c d9 47 07 3e
       0.22120032 0.022433266 0.009999534 0.13211001
0003a0 3b b0 dc 3d 7d 59 de 3c 3d 81 78 bd d2 d2 23 3c
       0.10775801 0.02714228 -0.060670126 0.009998994
0003b0 21 8e 40 3d 60 35 98 3d 3f 14 ef 3c fa c1 52 3d
       0.047010545 0.074320555 0.029184459 0.05145452
0003c0 a3 f4 d8 bd 8d e4 95 3d 24 85 9b bb 66 63 0c 3d
       -0.10593536 0.07318983 -0.004746096 0.03427448
0003d0 21 f1 41 3d 17 48 50 3e 11 fe 01 be 42 8a 46 3c
       0.0473491 0.2034 -0.12694575 0.012117924
0003e0 94 38 60 3e 76 ff c5 3b 75 98 80 bd a4 36 b5 3d
       0.21896583 0.006042416 -0.06279079 0.088483125
0003f0 ce 10 52 bd fd 5b 5f 3e 54 ea 1a 3d 41 5e 79 3e
       -0.051285557 0.21812434 0.03782113 0.24352361

bn1.weight f4 [256]
000000 f2 63 82 3f 9f d2 88 3f 14 13 7f 3f 93 ea 8d 3f
       1.0186751 1.0689276 0.99638486 1.1087211
000010 ea 08 6c 3f 74 cb 84 3f c7 7b 6c 3f 63 81 77 3f
       0.922011 1.0374589 0.9237637 0.96681803
000020 dd d6 77 3f 99 2e 7a 3f 4b 6a 86 3f f0 0d 85 3f
       0.9681223 0.9772735 1.0501188 1.0394878
000030 04 ab 79 3f 23 11 65 3f 8d 6a 9d 3f df 01 84 3f
       0.97526574 0.89479274 1.2298142 1.0313071
000040 54 13 76 3f e8 c0 6c 3f 22 af 7e 3f a9 75 7d 3f
       0.9612324 0.9248185 0.9948598 0.9900766
000050 fd 29 83 3f 78 9e 81 3f d5 46 6d 3f 5e b9 86 3f
       1.0247189 1.0126486 0.92686206 1.052532
000060 ae 18 76 3f 5d 72 6a 3f 1d c3 68 3f de 6d 8c 3f
       0.9613141 0.91580755 0.9092272 1.0971029
000070 7d c6 89 3f 2e a7 6a 3f 49 bc 85 3f 4d e7 6a 3f
       1.0763699 0.91661346 1.0448085 0.91759187
000080 af 86 70 3f 25 c4 87 3f f1 ed 5d 3f e3 13 8c 3f
       0.9395551 1.0606734 0.86691195 1.0943569
000090 2c 99 85 3f 1f fd 96 3f 2c 8d 7a 3f 00 4e 80 3f
       1.0437369 1.1795996 0.9787166 1.0023804
0000a0 3b 9f 88 3f de c4 72 3f de 85 72 3f d7 e8 70 3f
       1.0673593 0.94831645 0.94735515 0.94105285
0000b0 4a cd 65 3f 50 38 81 3f 50 69 78 3f 1b 02 7d 3f
       0.8976637 1.009531 0.97035694 0.9883134
0000c0 c2 e4 85 3f 09 bf 82 3f 7b 70 76 3f 29 26 78 3f
       1.0460436 1.0214549 0.9626538 0.9693323
0000d0 81 ba 6f 3f 2f 8b 80 3f 0e f5 7c 3f 87 b7 7a 3f
       0.9364396 1.0042475 0.98811424 0.9793629
0000e0 5e 16 83 3f 63 db 75 3f 7f 4d 6b 3f 85 fa 69 3f
       1.0241201 0.9603788 0.91915125 0.9139789
0000f0 24 6d 6f 3f 1f 5a 7e 3f bf 08 86 3f 5f 53 78 3f
       0.9352591 0.99356264 1.0471419 0.97002214
000100 22 a8 7c 3f 2f ae 73 3f de 51 83 3f 25 20 6c 3f
       0.9869405 0.9518766 1.0259359 0.9223655
000110 3d de 69 3f 14 22 7d 3f 2c 67 8a 3f ee 65 80 3f
       0.91354734 0.98880124 1.0812736 1.0031106
000120 9c 6a 86 3f d3 9d 82 3f 7b 24 7e 3f dc 1d 71 3f
       1.0501285 1.0204414 0.99274415 0.94186187
000130 1d e1 76 3f 65 c9 76 3f ef 21 71 3f 64 1b 86 3f
       0.96437246 0.96401054 0.94192404 1.0477109
000140 62 83 83 3f 8d da 74 3f 41 38 89 3f 6a 26 67 3f
       1.027447 0.9564598 1.0720292 0.9029299
000150 15 81 81 3f f9 80 7f 3f cd c0 72 3f 0c f2 6e 3f
       1.0117518 0.9980617 0.9482544 0.93338084
000160 05 9d 82 3f d6 05 6f 3f a6 df 8e 3f 4f a5 88 3f
       1.0204169 0.9336828 1.1162002 1.0675448
000170 52 5f 78 3f e4 f7 9f 3f 29 3b 6d 3f cc 94 8f 3f
       0.9702045 1.2497525 0.92668396 1.1217284
000180 8e 18 7c 3f 96 25 66 3f 9d a5 68 3f 17 10 75 3f
       0.9847497 0.899011 0.90877706 0.95727676
000190 9a b1 7e 3f 94 61 77 3f ff 46 7c 3f eb a0 75 3f
       0.9948975 0.9663327 0.9854583 0.95948666
0001a0 20 9b 85 3f d3 3a 80 3f 92 72 85 3f 35 92 80 3f
       1.0437965 1.0017952 1.0425589 1.0044619
0001b0 cf 4f 6d 3f e8 ff 84 3f 60 71 6c 3f 06 ac 76 3f
       0.92699903 1.0390596 0.92360497 0.96356237
0001c0 26 5b 7e 3f fd 29 7c 3f b0 3c 7d 3f d6 7e 80 3f
       0.9935783 0.9850157 0.98920727 1.0038707
0001d0 af 47 7c 3f af 45 7d 3f 38 0e 87 3f 29 8a 80 3f
       0.9854688 0.98934454 1.0551214 1.0042163
0001e0 27 7a 84 3f a2 4f 76 3f 36 fc 88 3f f1 15 74 3f
       1.0349778 0.9621526 1.0701969 0.9534598
0001f0 0f 5a 76 3f 76 fb 7c 3f a6 3d 67 3f 92 5a 69 3f
       0.9623117 0.988212 0.90328443 0.91153824
000200 44 33 a3 3f 98 5d 8b 3f d2 57 61 3f 3f 6f 76 3f
       1.275002 1.0887938 0.8802463 0.962635
000210 f2 a2 69 3f 8b bf 67 3f 6a c2 6c 3f 5b 60 7d 3f
       0.9126426 0.90526646 0.9248415 0.9897515
000220 b7 91 70 3f 53 f7 7f 3f 6b 9f 92 3f ea ef 75 3f
       0.93972343 0.9998676 1.14549 0.96069205
000230 0e 9c 73 3f 5b 37 84 3f 02 3d 88 3f 91 13 8e 3f
       0.95159996 1.0329393 1.0643618 1.1099721
000240 c8 90 85 3f 7a b6 81 3f f2 a0 73 3f 6d 84 7e 3f
       1.0434809 1.0133812 0.9516746 0.99420816
000250 0f fe 6c 3f 88 87 89 3f 21 4b 75 3f 4e a6 7c 3f
       0.9257516 1.0744486 0.9581776 0.9869126
000260 dc e4 81 3f 50 91 6c 3f 13 05 74 3f 0e 1d 83 3f
       1.0147967 0.9240923 0.9532024 1.0243242
000270 47 a2 7b 3f e5 78 67 3f 90 0a 7d 3f 33 3e 80 3f
       0.9829449 0.90418845 0.9884424 1.0018982
000280 99 a4 88 3f 02 4c 84 3f 5b f4 7f 3f 2f a1 74 3f
       1.0675231 1.0335696 0.9998223 0.95558447
000290 06 08 71 3f 81 7b 80 3f 26 c8 80 3f 7d b1 7e 3f
       0.9415287 1.003769 1.006108 0.99489576
0002a0 26 4a 7b 3f a9 7d 6a 3f dd 94 7e 3f 7d 79 7e 3f
       0.98160017 0.9159799 0.994459 0.99404126
0002b0 67 bc 85 3f b1 03 7f 3f 71 70 7a 3f c4 7e 89 3f
       1.0448121 0.9961501 0.9782782 1.0741811
0002c0 8b 02 69 3f f7 58 8f 3f 6f c4 87 3f 88 d1 84 3f
       0.91019505 1.1199025 1.0606822 1.0376444
0002d0 08 d2 6c 3f 68 53 63 3f 0b 7b 6f 3f a5 de 84 3f
       0.9250798 0.8879914 0.93547124 1.0380446
0002e0 7d ee 8b 3f 6a 82 76 3f d6 e2 77 3f 26 e5 84 3f
       1.0932156 0.96292746 0.968305 1.038243
0002f0 fd 4c 88 3f d3 ef 7c 3f 67 d3 79 3f 1a 61 82 3f
       1.0648495 0.9880344 0.975882 1.0185883
000300 33 15 74 3f 5e db 9f 3f c0 d1 6c 3f 8b d9 84 3f
       0.9534485 1.248882 0.92507553 1.0378889
000310 60 b1 78 3f c0 f9 6f 3f bc b5 95 3f 9e be 80 3f
       0.9714565 0.93740463 1.1696086 1.0058172
000320 fe c5 95 3f a0 ac 69 3f be 92 68 3f 55 40 77 3f
       1.1701047 0.9127903 0.9084891 0.9658254
000330 4e b2 6f 3f 63 42 6f 3f bb 41 6f 3f be 2f 8b 3f
       0.93631446 0.93460673 0.9345967 1.0873945
000340 25 75 7d 3f 88 9a 7f 3f f9 ae 81 3f b9 b6 6f 3f
       0.99006873 0.9984517 1.0131522 0.9363819
000350 10 4c 79 3f 88 44 87 3f 31 b6 69 3f 58 bb 6c 3f
       0.9738169 1.0567789 0.9129363 0.92473364
000360 10 1a 80 3f 78 1f 87 3f b1 50 6f 3f 84 70 82 3f
       1.0007954 1.0556479 0.934825 1.0190587
000370 f4 41 80 3f 46 3a 81 3f e5 6e 9d 3f 27 40 79 3f
       1.0020127 1.0095909 1.2299467 0.97363514
000380 5b bc 71 3f 2b 08 69 3f f4 0c 84 3f 6e 4c 7f 3f
       0.9442803 0.9102809 1.0316453 0.99726
000390 58 32 80 3f e1 dc 72 3f 53 72 6d 3f 54 bc 89 3f
       1.0015364 0.94868284 0.9275257 1.0760598
0003a0 a3 90 80 3f 8f 5f 72 3f 2a 47 7c 3f b7 c3 86 3f
       1.004414 0.9467706 0.9854609 1.0528477
0003b0 57 90 89 3f 17 e2 7a 3f 13 9c 7a 3f fd 19 72 3f
       1.0747174 0.98001236 0.978944 0.94570905
0003c0 0b 76 76 3f 66 45 78 3f 3e 98 78 3f 72 85 75 3f
       0.9627387 0.96980894 0.97107303 0.95906746
0003d0 bb eb 65 3f ec 0c 78 3f ce 20 74 3f e0 d8 70 3f
       0.8981282 0.9689472 0.95362556 0.94080925
0003e0 11 b3 84 3f b8 95 63 3f 13 67 72 3f 49 d4 78 3f
       1.0367147 0.8890033 0.9468853 0.9719892
0003f0 99 15 70 3f b8 63 80 3f b7 5b 72 3f d8 e7 92 3f
       0.93782955 1.0030432 0.94671196 1.1477003

bn1.bias f4 [256]
000000 40 e8 7c 3d c9 f5 8c bd cb 6c 20 3e 49 e3 97 3d
       0.06174493 -0.06882817 0.15666501 0.07416398
000010 90 c5 3f 3e 59 ed 15 3c 68 93 6a bb 9a 18 79 3a
       0.18727708 0.009150826 -0.0035793427 0.0009502262
000020 fa 14 0f 3d 66 ef c3 3c c8 1a 59 bd 47 c4 7a 3d
       0.034932114 0.023917865 -0.053004056 0.06122234
000030 91 7d 03 3c 08 ab 13 3c 0d 5a 86 3e 5d f0 60 3d
       0.008025543 0.009012945 0.26240578 0.05491673
000040 40 0c 07 3e 59 19 6a 3d 2c 1f dc 3c 78 0c 7d 3d
       0.13188267 0.05715308 0.026870333 0.06177947
000050 74 3d 0b bd 4a ad 8c 3d c1 af b7 3d 69 46 5d bd
       -0.033994153 0.0686899 0.08969069 -0.054022226
000060 a0 a4 cd ba 8d af ae 3d 29 f5 a3 3d da bb 33 3d
       -0.0015689321 0.085295774 0.08005745 0.04388032
000070 f2 9e 9a bd 21 8d ac 3d 8c 72 44 bd b0 02 ac 3d
       -0.07549848 0.08425356 -0.047960803 0.0839895
000080 1b f1 b8 3c ff 31 d2 3d 2a 55 02 3e 05 9f bd bd
       0.022575906 0.10263442 0.127278 -0.09258846
000090 49 b7 4c bd 34 7b 97 3d 17 26 a6 3d 81 eb 56 3d
       -0.04997948 0.07396546 0.08112734 0.052470688
0000a0 0d 4f 90 bd f4 f2 b3 3c 4f be bc 3d f2 92 85 3d
       -0.07046328 0.021966435 0.09215986 0.06522168
0000b0 a1 71 9b 3c 58 57 6b 3d 6c 89 fa 3b d5 5e b4 3d
       0.01897508 0.057456344 0.0076457765 0.0880715
0000c0 46 ac d7 3c a3 0e 97 bc ec f9 92 3c 5a b1 c9 bb
       0.026327264 -0.018439597 0.017941438 -0.006155175
0000d0 c2 bb e4 3c a6 af 49 3d e1 c1 00 3e 42 f5 ac bc
       0.027921561 0.049239777 0.12573959 -0.021113042
0000e0 f3 c8 90 3d 25 b9 04 3e d6 7c d2 3d d7 a4 1a 3e
       0.07069578 0.12961252 0.10277717 0.15101944
0000f0 02 43 51 3d 4e bb 4c bd 42 d9 b5 bd 5a 5a 45 3d
       0.051089294 -0.049983315 -0.08879329 0.04818187
000100 18 38 e3 3d 1c ae d3 3c 17 44 c7 bc 3c 27 99 3d
       0.110946834 0.025839858 -0.02432446 0.074781865
000110 64 f1 c4 bc 4d 69 6c 3d 01 e6 5b bc 93 e8 1a 3d
       -0.024040885 0.05771761 -0.013421536 0.037819456
000120 0a 96 e5 ba 0b 3a fb 3d 2d bd 19 3d 20 62 5e 3d
       -0.0017516029 0.1226693 0.037533928 0.054292798
000130 41 5f 2c 3c 51 5d 02 3e 7b 06 83 3d bb 8d 80 3d
       0.010520757 0.1273091 0.063977204 0.06277033
000140 c3 38 d8 3d 76 7a 46 bc 9c fd 8f bd 89 f1 38 3e
       0.105577014 -0.012114158 -0.07030794 0.18060888
000150 65 7d df 3c 6a b1 7a 3d 01 03 79 3d 8a 2b 2c 3d
       0.027281472 0.06120435 0.06079388 0.04203371
000160 43 04 46 3d ec 43 9e 3d 7d a2 17 3d 58 b4 98 bd
       0.048343908 0.07727799 0.037020195 -0.07456273
000170 e4 63 ea 3d 69 67 eb 3d 1b c5 dc 3d 00 d8 ec 3d
       0.11444834 0.11494333 0.107797824 0.11564636
000180 4c e6 f6 3d 18 6a d3 3d 10 52 95 3c 12 87 d4 3c
       0.120556444 0.1032297 0.018227607 0.025943313
000190 8b 22 34 3d 86 aa 20 b9 8d e2 be 3d b7 d9 50 3d
       0.043978255 -0.00015322314 0.09320555 0.05098888
0001a0 94 0b 5d 3d 8f 5b 71 3d c2 a6 5b 3d f2 63 6b 3c
       0.05396612 0.058925208 0.05362583 0.014367091
0001b0 f4 09 00 3e ff a0 ef bc ca bb e0 3d 03 f7 bc 3d
       0.12503797 -0.029251574 0.10973318 0.09226801
0001c0 c5 db 69 bd c8 ec ea 3c 26 a2 13 3e 0b 3a 83 bb
       -0.057094354 0.02867736 0.14417323 -0.004004722
0001d0 0d 04 8d bd 68 53 96 3d 33 42 7f 3d bc 8b 92 bd
       -0.06885538 0.07340127 0.062318992 -0.071555585
0001e0 c1 6a b3 3d 3e b6 7b 3d b9 7d 00 3e c7 e8 90 3d
       0.08760596 0.061453097 0.1254796 0.07075649
0001f0 6a c9 17 3e 95 e0 9e 3d ef 8b 7d 3c c0 37 13 3e
       0.14822927 0.077576794 0.015475257 0.14376736
000200 16 87 1e 3e e6 6c 19 3d 70 b6 cc 3d 64 7d 88 3c
       0.15481219 0.03745737 0.09995735 0.016661353
000210 5e 7a bf 3d e8 68 9a 3d 04 b5 0f 3b 5c c0 72 bd
       0.093495116 0.075395405 0.0021927962 -0.05926548
000220 19 e8 f7 3d 4f 16 8a bd 34 e0 81 3d 17 83 0a 3e
       0.12104816 -0.06742536 0.063415915 0.1352657
000230 4f 9f 98 3d 9a 10 15 bd 9f 16 88 bd 56 ed 96 bd
       0.07452261 -0.036392786 -0.0664494 -0.07369487
000240 e5 4d a5 3b 7e 1b 08 3d 81 df ab 3d b4 e7 5a 3d
       0.005044686 0.033229344 0.08392239 0.053443626
000250 e5 24 31 3e 52 c4 65 3d 1d a1 ca 3d 67 59 0e bc
       0.1729923 0.05609543 0.09894011 -0.008688307
000260 04 68 f6 3c a1 a4 05 3d 29 74 4a 3d 5e db 90 ba
       0.030078895 0.032627705 0.049427185 -0.0011051705
000270 44 73 11 3d 0f 1d ce 3d 50 bc 4e 3c 3c 5a 9b bc
       0.035510316 0.10064136 0.012618139 -0.018963926
000280 ed 66 8d bd 73 d1 05 3d 7d ae 6f bc 94 2b 29 bd
       -0.06904397 0.03267045 -0.014629004 -0.041301325
000290 e7 7d b8 3d 42 f2 16 3d dc 87 0f 3d db 49 df 3c
       0.09008389 0.03685213 0.035041675 0.027256897
0002a0 96 bf b3 bc 9a c6 9d 3d ac df 70 3c a7 d4 03 3d
       -0.021941941 0.07703896 0.014701765 0.032185223
0002b0 77 da 32 bd 11 dd 50 3d 47 e3 52 3c 12 76 86 3d
       -0.043665376 0.050992075 0.01287157 0.06565489
0002c0 c4 b0 9d 3d 9e 18 22 bd 18 0f 8c bd 43 1f 42 bc
       0.07699731 -0.039574258 -0.068388164 -0.011848274
0002d0 ea 12 83 3d e1 d6 51 3d 28 b5 64 3d ff 78 94 3d
       0.06400092 0.051230315 0.055836827 0.07249641
0002e0 b2 ea 11 3e 06 64 c9 3d ec 69 ea 3c 4a 38 df 3b
       0.14249685 0.09833531 0.02861496 0.00681213
0002f0 48 b8 31 3d c2 7e 93 3d 83 b8 f0 3c 1b f2 a1 bd
       0.043388635 0.072019115 0.029384857 -0.07907506
000300 97 21 08 3e 37 13 c8 bd 39 ee 22 3d f8 32 49 bd
       0.13294064 -0.0976929 0.039777968 -0.049120873
000310 c3 65 61 3e 76 4c 8a 3d dc 45 b7 3e 94 20 c0 3d
       0.22011475 0.06752865 0.35795486 0.09381214
000320 cd 6f 29 3c ae 19 b6 3d 6f 58 c7 3d fd ba 86 3d
       0.010341597 0.08891617 0.09733664 0.06578634
000330 b9 8b 87 3d e5 bd 85 3d f2 37 ce 3d 60 b6 62 3d
       0.06618447 0.0653036 0.100692645 0.055349708
000340 ae 3e 2f 3d a3 bf a1 3d 41 b9 e8 bb cd b9 6c 3d
       0.042784385 0.0789788 -0.007102162 0.05779438
000350 a4 33 e5 3d aa 9f 28 3d 9e c3 f4 bb d5 fb f2 3c
       0.1119149 0.041167893 -0.0074696084 0.029661098
000360 ac 93 5e bd 0b cb cb 3d d0 61 ab 3d 83 1c 93 3d
       -0.05434005 0.09950837 0.08368266 0.071831726
000370 8f d7 b4 3d 5a e6 0f ba 47 62 a2 3d cb d9 d0 3d
       0.08830177 -0.0005489342 0.07928901 0.10197791
000380 78 0d 4f 3d 52 85 06 3e e8 4f 08 bd 9c 70 c6 bc
       0.050549954 0.13136795 -0.03327933 -0.024223618
000390 0d 1c 54 3d 2d fc db 3d 96 80 1e 3e da d6 8d 3c
       0.051784564 0.10741458 0.15478739 0.017314363
0003a0 fd 64 8f 3d 7c be 09 bd 56 81 bb 3d 8f f7 74 bd
       0.07001684 -0.033628926 0.09155528 -0.059806403
0003b0 a5 52 9c bd 2e ff 97 3d 34 3a 1d 3d 43 f4 a1 3d
       -0.07632951 0.074217185 0.038385585 0.07907917
0003c0 a4 6c 60 3d 83 8d 8c 3d 67 48 09 3e ae 2b 4d bc
       0.054791108 0.06862929 0.13406526 -0.012522621
0003d0 28 03 4f 3c 8d f9 32 3e a1 40 b7 bb 45 16 e8 3c
       0.01263503 0.17478009 -0.005592421 0.028330931
0003e0 ee cd e0 3c 89 1f ef 3d ca 5f 26 bc b4 71 37 3d
       0.027441945 0.11675937 -0.010154674 0.04478617
0003f0 7b 56 fc 3d 7c 3a 4d 3d bb 35 f5 3d e7 5e 2d 3e
       0.12321182 0.050104603 0.11973139 0.16930734

bn1.running_mean f4 [256]
000000 a4 d8 eb 42 61 09 e1 bf 59 09 e1 bf 63 eb ab 41
       117.92313 -1.7580987 -1.7580978 21.489935
000010 fe 2e ca 44 e1 3a 8b 42 c2 34 ff 41 eb 56 92 42
       1617.4685 69.615 31.90076 73.16976
000020 48 0c 15 43 61 09 e1 bf 61 09 e1 bf 5d 09 e1 bf
       149.04797 -1.7580987 -1.7580987 -1.7580982
000030 07 e6 97 40 70 af 37 41 73 86 5e 42 5d 09 e1 bf
       4.7468295 11.480331 55.631298 -1.7580982
000040 73 12 16 44 ff 5e 12 43 08 40 32 42 81 be d9 42
       600.28827 146.37108 44.56253 108.87208
000050 61 09 e1 bf 5a 09 e1 bf 8b 6f 63 44 61 09 e1 bf
       -1.7580987 -1.7580979 909.74286 -1.7580987
000060 00 73 22 43 61 09 e1 bf 13 26 88 43 8b b6 e8 41
       162.44922 -1.7580987 272.29745 29.089132
000070 61 09 e1 bf a3 23 a6 44 61 09 e1 bf 61 09 e1 bf
       -1.7580987 1329.1136 -1.7580987 -1.7580987
000080 24 db bf 41 5b 09 e1 bf 61 09 e1 bf 61 09 e1 bf
       23.982002 -1.758098 -1.7580987 -1.7580987
000090 61 09 e1 bf 59 09 e1 bf bb 2c e2 44 aa 6a 40 44
       -1.7580987 -1.7580978 1809.3978 769.6666
0000a0 61 09 e1 bf c8 dd e6 40 68 f6 46 44 61 09 e1 bf
       -1.7580987 7.214573 795.8501 -1.7580987
0000b0 7b 3f c4 42 52 88 c4 bf 18 1b 5e 44 79 07 e1 bf
       98.123985 -1.5354102 888.42334 -1.7580405
0000c0 5b 09 e1 bf 61 09 e1 bf 9b 6b b3 41 82 33 c0 43
       -1.758098 -1.7580987 22.427542 384.4024
0000d0 ee ab 97 43 a3 b6 f2 42 92 20 f2 43 61 09 e1 bf
       303.3432 121.35671 484.25446 -1.7580987
0000e0 59 09 e1 bf 5a 09 e1 bf 66 d1 4a 44 2b 94 12 44
       -1.7580978 -1.7580979 811.27185 586.3151
0000f0 0d 1c 0d 43 61 09 e1 bf 5c 09 e1 bf d5 07 03 43
       141.10957 -1.7580987 -1.7580981 131.0306
000100 7c 68 75 42 a4 c8 95 41 61 09 e1 bf 14 d7 8c 44
       61.352036 18.72297 -1.7580987 1126.7212
000110 58 32 6c 43 8c cf 86 43 18 84 16 41 3a 0a 02 43
       236.19666 269.62146 9.407249 130.03995
000120 5d 09 e1 bf b2 8c 3a 42 61 09 e1 bf 61 09 e1 bf
       -1.7580982 46.637398 -1.7580987 -1.7580987
000130 3d 6b b8 40 5a f5 d9 bf 61 09 e1 bf 5b 09 e1 bf
       5.7630906 -1.7028 -1.7580987 -1.758098
000140 90 7a 50 43 5f 70 d0 41 61 09 e1 bf 86 2d 86 43
       208.47876 26.054869 -1.7580987 268.35565
000150 61 09 e1 bf c7 bc 31 42 c4 31 07 43 b0 3b c6 42
       -1.7580987 44.434353 135.1944 99.11658
000160 59 09 e1 bf 1e 81 a9 43 5b 09 e1 bf 61 09 e1 bf
       -1.7580978 339.00873 -1.758098 -1.7580987
000170 57 f1 a1 44 90 a9 6b 41 da 35 d9 43 09 de e0 bf
       1295.5419 14.728897 434.42072 -1.756776
000180 16 0f 5e 43 a3 4b 50 44 04 d4 05 45 79 ee fa 41
       222.05893 833.1818 2141.251 31.366442
000190 e9 51 8a 42 ed 5b 3f 42 30 12 12 43 30 33 38 43
       69.15998 47.83977 146.07104 184.19995
0001a0 5a 09 e1 bf 5e 09 e1 bf 5e 09 e1 bf 26 d5 12 42
       -1.7580979 -1.7580984 -1.7580984 36.708153
0001b0 aa 50 81 44 5f 09 e1 bf 48 17 14 44 e8 0a 0f 44
       1034.5208 -1.7580985 592.3638 572.1704
0001c0 7b d0 b1 42 bf b7 7f 42 e5 54 f6 42 9d 0a 5a 42
       88.90719 63.92944 123.16581 54.510365
0001d0 61 09 e1 bf 61 09 e1 bf 7e fe df bf 61 09 e1 bf
       -1.7580987 -1.7580987 -1.749954 -1.7580987
0001e0 db 06 b2 41 5b 09 e1 bf bb 1f 13 43 2e f0 d1 44
       22.253347 -1.758098 147.12395 1679.5056
0001f0 b0 84 d9 bf f5 95 43 43 64 3d 96 44 a4 48 5d 44
       -1.6993618 195.58577 1201.9185 885.135
000200 0f 1f 83 41 0c fa bb 42 0a 96 37 44 52 56 e3 43
       16.390165 93.98837 734.34436 454.67438
000210 61 09 e1 bf 97 5b b9 44 ad a3 28 43 bd 40 f6 41
       -1.7580987 1482.8622 168.63936 30.78161
000220 bf e0 d6 43 5f 09 e1 bf dd a0 72 42 66 94 cb 44
       429.75583 -1.7580985 60.657093 1628.6375
000230 1c 65 ac 44 5b 09 e1 bf 61 09 e1 bf 5c 09 e1 bf
       1379.1597 -1.758098 -1.7580987 -1.7580981
000240 a5 a5 e0 bf 4a 8c 1f 42 c2 59 ab 42 61 09 e1 bf
       -1.7550551 39.887 85.67531 -1.7580987
000250 00 f8 ba 44 42 09 e1 bf 11 71 ab 43 61 09 e1 bf
       1495.75 -1.758095 342.88333 -1.7580987
000260 5d 09 e1 bf c0 62 cf 43 c9 47 ae 43 5d 09 e1 bf
       -1.7580982 414.77148 348.56082 -1.7580982
000270 50 85 64 42 b0 20 4f 44 0e 72 3c 43 60 09 e1 bf
       57.130188 828.51074 188.44553 -1.7580986
000280 61 09 e1 bf 59 09 e1 bf 61 09 e1 bf 1f e6 8f 3f
       -1.7580987 -1.7580978 -1.7580987 1.1242102
000290 13 a1 78 44 5b 09 e1 bf b7 ee 60 43 61 09 e1 bf
       994.5168 -1.758098 224.93248 -1.7580987
0002a0 5a 09 e1 bf 1f 26 73 44 61 09 e1 bf 61 09 e1 bf
       -1.7580979 972.59564 -1.7580987 -1.7580987
0002b0 61 09 e1 bf 93 6b f5 42 ab 46 87 40 5b 09 e1 bf
       -1.7580987 122.710106 4.2273765 -1.758098
0002c0 fb b8 16 42 c8 6d 36 40 61 09 e1 bf 60 09 e1 bf
       37.680645 2.8504505 -1.7580987 -1.7580986
0002d0 cd 24 12 44 a7 e9 43 42 10 d0 83 42 7c 8f 29 43
       584.575 48.978176 65.90637 169.56049
0002e0 e9 51 f0 42 73 fe 0f 44 61 09 e1 bf 20 d8 de 40
       120.15998 575.97577 -1.7580987 6.9638824
0002f0 5a 09 e1 bf 34 09 90 43 61 09 e1 bf 5e 09 e1 bf
       -1.7580979 288.0719 -1.7580987 -1.7580984
000300 59 09 e1 bf 80 68 5a 41 d4 fc 91 44 61 09 e1 bf
       -1.7580978 13.650513 1167.9009 -1.7580987
000310 5b cc 70 42 41 ae f1 43 cd 5e 9d 42 da 8b 49 44
       60.199566 483.36136 78.68516 806.1852
000320 9e c3 0a 42 61 09 e1 bf bb 97 99 44 f8 0c 41 44
       34.691032 -1.7580987 1228.7416 772.20264
000330 61 09 e1 bf 3d 68 73 44 52 26 8a 44 22 b1 d5 bf
       -1.7580987 973.6287 1105.1975 -1.6694682
000340 8f f1 9a 43 b3 1d 6e 44 5b 09 e1 bf 61 09 e1 bf
       309.88718 952.46405 -1.758098 -1.7580987
000350 5d 09 e1 bf 3f eb 8b 42 f1 51 a8 42 0b 6a d1 42
       -1.7580982 69.959465 84.16004 104.707115
000360 5c a9 12 41 ec 6d 35 42 99 03 f9 44 5a 09 e1 bf
       9.1663475 45.357346 1992.1124 -1.7580979
000370 e0 25 77 44 5f 09 e1 bf 5a 09 e1 bf ac da b1 43
       988.5918 -1.7580985 -1.7580979 355.70837
000380 61 09 e1 bf 11 1a f2 44 61 09 e1 bf 5e 09 e1 bf
       -1.7580987 1936.8146 -1.7580987 -1.7580984
000390 8b a7 19 42 13 e4 ca 44 fd 41 d1 44 59 09 e1 bf
       38.413616 1623.1273 1674.0621 -1.7580978
0003a0 d2 3b 79 42 7c fb 07 41 5a 09 e1 bf 61 09 e1 bf
       62.30842 8.498898 -1.7580979 -1.7580987
0003b0 5e 09 e1 bf 5b 09 e1 bf 5c 09 e1 bf 89 cb 01 41
       -1.7580984 -1.758098 -1.7580981 8.112191
0003c0 ff 7d 03 44 c7 ad 68 bf ab c1 36 44 71 ba be 40
       525.9687 -0.90890163 731.02606 5.960259
0003d0 bc fc 8d 43 c0 45 38 44 5a 09 e1 bf d4 c6 5b 44
       283.9745 737.08984 -1.7580979 879.1067
0003e0 5a 09 e1 bf c5 64 09 42 ed 7c 4e 43 d6 55 06 43
       -1.7580979 34.348408 206.48799 134.3353
0003f0 f5 83 38 44 de 52 c5 42 3c 8b 2a 43 db 65 7e 42
       738.0618 98.66185 170.54388 63.59947

bn1.running_var f4 [256]
000000 6e eb 99 48 c7 9e 02 2a bf f9 fa 32 b1 05 a5 45
       315227.44 1.1601406e-13 2.9217402e-08 5280.7114
000010 7c 6d 36 4a 6f 11 fb 47 ea 54 43 46 4a b8 14 48
       2.988895e+06 128546.87 12501.229 152289.16
000020 81 15 58 48 c7 9e 02 2a c7 9e 02 2a c7 9e 02 2a
       221270.02 1.1601406e-13 1.1601406e-13 1.1601406e-13
000030 3f 59 f8 44 50 3b 81 45 ed 79 da 44 c7 9e 02 2a
       1986.789 4135.414 1747.8102 1.1601406e-13
000040 2a 22 2f 49 49 e3 cf 46 61 3f 44 47 27 63 4f 48
       717346.6 26609.643 50239.38 212364.61
000050 c7 9e 02 2a b7 98 e3 2b 57 ad 7a 49 c7 9e 02 2a
       1.1601406e-13 1.6171707e-12 1.02677344e+06 1.1601406e-13
000060 1c dc f4 48 c7 9e 02 2a e1 5c 7e 48 f6 8d 7c 47
       501472.88 1.1601406e-13 260467.52 64653.96
000070 c7 9e 02 2a b5 db d6 49 c7 9e 02 2a c7 9e 02 2a
       1.1601406e-13 1.7601186e+06 1.1601406e-13 1.1601406e-13
000080 35 a8 e9 45 5b a5 02 2a c7 9e 02 2a c7 9e 02 2a
       7477.026 1.1603689e-13 1.1601406e-13 1.1601406e-13
000090 c7 9e 02 2a 06 97 47 2b a1 c2 54 4a 28 47 60 49
       1.1601406e-13 7.090859e-13 3.4858642e+06 918642.5
0000a0 c7 9e 02 2a 95 9b 81 45 3d 17 8d 49 c7 9e 02 2a
       1.1601406e-13 4147.4478 1.1558156e+06 1.1601406e-13
0000b0 65 b5 9f 47 70 1c 0a 42 c3 f1 d4 49 f9 0f 98 3b
       81770.79 34.52777 1.7444404e+06 0.004640576
0000c0 8a 44 0f 2a c7 9e 02 2a 32 df b8 46 0a b2 22 49
       1.272473e-13 1.1601406e-13 23663.598 666400.6
0000d0 0c 0d c3 48 9e ae 57 48 b0 e6 5c 48 c7 9e 02 2a
       399464.38 220858.47 226202.75 1.1601406e-13
0000e0 6f 96 ac 37 f9 6d 79 2a 01 8e 81 49 74 44 cc 48
       2.0574049e-05 2.2153797e-13 1.0613121e+06 418339.62
0000f0 df 0e ed 46 c7 9e 02 2a c9 9e 02 2a d6 18 bd 48
       30343.436 1.1601406e-13 1.1601409e-13 387270.7
000100 7d 75 8f 45 9b 89 a2 45 c7 9e 02 2a ad a4 61 49
       4590.686 5201.2007 1.1601406e-13 924234.8
000110 04 65 7d 48 88 1e e6 47 75 c5 77 45 d4 15 a4 48
       259476.06 117821.06 3964.341 336046.62
000120 c7 9e 02 2a b7 c1 0c 46 c7 9e 02 2a c7 9e 02 2a
       1.1601406e-13 9008.429 1.1601406e-13 1.1601406e-13
000130 f0 b0 c1 44 47 98 f7 40 c7 9e 02 2a a9 a7 03 2a
       1549.5293 7.7373385 1.1601406e-13 1.1693306e-13
000140 9a 01 3d 48 83 05 2a 46 c7 9e 02 2a eb da 35 48
       193542.4 10881.378 1.1601406e-13 186219.67
000150 c7 9e 02 2a 34 f4 e6 47 35 be d9 46 ad 99 d1 46
       1.1601406e-13 118248.41 27871.104 26828.838
000160 c0 93 e8 36 e8 be 94 47 ef 9e 02 2a c7 9e 02 2a
       6.931339e-06 76157.81 1.160146e-13 1.1601406e-13
000170 ed 5d 9f 49 81 23 a2 43 e1 89 60 48 a7 8a 31 3d
       1.3055336e+06 324.27737 229927.52 0.04334512
000180 e9 82 c2 47 92 d6 3f 49 69 70 2d 4a b2 a7 72 46
       99589.82 785769.1 2.8416262e+06 15529.924
000190 82 ac 24 48 e7 d8 c0 46 d6 ef 2a 47 41 5a 7f 48
       168626.03 24684.451 43759.836 261481.02
0001a0 20 b1 4b 2e c7 9e 02 2a 20 9e 02 2a 05 ac 0e 47
       4.6314175e-11 1.1601406e-13 1.160118e-13 36524.02
0001b0 d6 a5 ff 49 c7 9e 02 2a c3 a5 ac 48 fa bc 30 49
       2.0942668e+06 1.1601406e-13 353582.1 723919.6
0001c0 39 41 cc 47 20 63 93 47 c3 b3 9b 45 ee 35 86 47
       104578.445 75462.25 4982.47 68715.86
0001d0 c7 9e 02 2a bb 8d 0c 2a cb cf 06 3d c7 9e 02 2a
       1.1601406e-13 1.248367e-13 0.03291301 1.1601406e-13
0001e0 55 bd 21 45 6c c9 0d 2a d2 af 8e 47 91 40 11 4a
       2587.8333 1.2593198e-13 73055.64 2.3798122e+06
0001f0 f5 82 65 40 58 98 09 49 7e f9 d0 49 ff 28 9c 49
       3.586118 563589.5 1.7119198e+06 1.2792639e+06
000200 a5 cd 24 44 d1 07 2f 48 fa 52 1d 49 0d d8 91 48
       659.2132 179231.27 644399.6 298688.4
000210 c7 9e 02 2a 45 3f 3a 4a f1 9c a6 47 66 fa 3d 47
       1.1601406e-13 3.0514732e+06 85305.88 48634.4
000220 86 4e 25 48 31 9d 10 2a 35 e3 bd 45 d8 50 69 4a
       169274.1 1.2844306e-13 6076.401 3.822646e+06
000230 cb d1 a3 49 04 18 09 2a c7 9e 02 2a c7 9e 02 2a
       1.3420094e+06 1.2176376e-13 1.1601406e-13 1.1601406e-13
000240 45 8d 09 3f 9e c0 45 47 76 68 2b 48 c7 9e 02 2a
       0.53731185 50624.617 175521.84 1.1601406e-13
000250 ce 31 bd 49 8e 86 5a 32 e2 59 90 48 c7 9e 02 2a
       1.5498818e+06 1.2719864e-08 295631.06 1.1601406e-13
000260 c7 9e 02 2a 46 01 95 48 fc 71 b8 48 c6 63 0a 2a
       1.1601406e-13 305162.2 377743.88 1.2291478e-13
000270 11 46 d6 47 a9 c9 84 49 17 80 d4 48 c7 9e 02 2a
       109708.13 1.0877971e+06 435200.72 1.1601406e-13
000280 c7 9e 02 2a 4e a4 c8 31 c7 9e 02 2a a5 59 4b 44
       1.1601406e-13 5.8394454e-09 1.1601406e-13 813.4007
000290 af 18 ac 49 81 b0 0c 2a 00 a9 51 49 f1 7d 02 2a
       1.4098139e+06 1.2495735e-13 858768.0 1.1590014e-13
0002a0 c4 9d 21 2d 2b 74 96 49 ba 9e 02 2a c7 9e 02 2a
       9.1868214e-12 1.2325174e+06 1.1601389e-13 1.1601406e-13
0002b0 c7 9e 02 2a 52 8a 86 47 37 d7 0d 45 4d cb 02 2a
       1.1601406e-13 68884.64 2269.451 1.1616854e-13
0002c0 d6 17 7d 46 63 6f f2 43 c7 9e 02 2a c7 9e 02 2a
       16197.959 484.8702 1.1601406e-13 1.1601406e-13
0002d0 94 7d 15 49 45 88 bd 46 e5 e3 18 47 98 c7 d4 48
       612313.25 24260.135 39139.895 435772.75
0002e0 e0 c3 d9 45 10 2c 5a 49 c7 9e 02 2a 9d 37 b0 45
       6968.4844 893633.0 1.1601406e-13 5638.9517
0002f0 b7 6d 2b 2a ab be 16 48 c7 9e 02 2a d7 9e 02 2a
       1.5225916e-13 154362.67 1.1601406e-13 1.1601428e-13
000300 9b 18 a0 36 08 d6 bd 43 03 7e b2 49 c7 9e 02 2a
       4.771236e-06 379.67212 1.4622084e+06 1.1601406e-13
000310 ed 9f b8 46 74 3b 5a 49 c5 8a 02 45 5a 5c a0 49
       23631.963 893879.25 2088.673 1.3136752e+06
000320 ed 7a a9 44 c7 9e 02 2a b1 da 9d 49 ea ab 66 49
       1355.8414 1.1601406e-13 1.2931421e+06 944830.6
000330 c7 9e 02 2a df 18 3f 49 cc 08 b7 49 8a 2a 07 41
       1.1601406e-13 782733.94 1.4994175e+06 8.4478855
000340 73 d3 f4 47 42 7c b1 49 83 70 0c 2a c7 9e 02 2a
       125350.9 1.4539602e+06 1.2473533e-13 1.1601406e-13
000350 c7 9e 02 2a af 12 56 48 8e 8b cc 46 02 08 80 47
       1.1601406e-13 219210.73 26181.777 65552.016
000360 26 fa b4 44 5a 6d 4f 46 09 72 26 4a 90 65 b3 2b
       1447.8171 13275.338 2.7270422e+06 1.2746904e-12
000370 9b ae 70 49 c7 9e 02 2a dd 07 0a 30 be 1d 00 49
       985833.7 1.1601406e-13 5.021528e-10 524763.9
000380 c7 9e 02 2a 62 cf 0d 4a c7 9e 02 2a c7 9e 02 2a
       1.1601406e-13 2.3234165e+06 1.1601406e-13 1.1601406e-13
000390 ea 21 9c 47 b0 e5 3f 4a 55 54 f0 49 ed bb bf 37
       79939.83 3.144044e+06 1.9687786e+06 2.2856484e-05
0003a0 d2 fe 09 47 7e 3d 09 45 a2 2a 80 2c c7 9e 02 2a
       35326.82 2195.8433 3.642712e-12 1.1601406e-13
0003b0 c7 9e 02 2a 23 5a 04 2a c7 9e 02 2a 4b e2 eb 44
       1.1601406e-13 1.1755228e-13 1.1601406e-13 1887.0717
0003c0 28 84 3d 49 22 22 77 42 71 34 92 49 cc 5c c3 44
       776258.5 61.783333 1.1977101e+06 1562.8999
0003d0 f8 1f 75 48 bc f1 f7 48 8d 18 f3 2a 82 bd fa 48
       251007.88 507789.88 4.3182507e-13 513516.06
0003e0 71 bc 02 2a af 2e a3 46 fc 39 0c 49 51 6f 01 48
       1.1611698e-13 20887.342 574367.75 132541.27
0003f0 36 e0 85 49 3e 32 1f 48 7b 6b 26 48 9e 12 d6 45
       1.0967108e+06 163016.97 170413.92 6850.327

fc2.weight f4 [128, 256]
000000 8a b9 28 3d 96 87 1c 3d 7d 25 f3 bd 40 d0 94 bd
       0.04119257 0.038215242 -0.11872385 -0.07266283
000010 0d 9b 9d 3c ab 11 fa bc 30 59 c6 3d e8 aa 9d bb
       0.019238973 -0.030526003 0.0968498 -0.0048116334
000020 79 43 5d 3c 17 2a 8a 3d 61 d6 5d 3d a8 30 7a 3d
       0.013504856 0.06746309 0.054159526 0.06108156
000030 d9 24 15 3d 3c 5f 4d bd 4f 6e 13 bc 7e 42 2b 3d
       0.036412094 -0.05013965 -0.008998468 0.04181146
000040 d0 22 fa bd 38 ff 03 3c 34 2a 93 3d d8 a8 80 bd
       -0.12213671 0.008056454 0.07185784 -0.062822044
000050 3a f0 fe bc 64 5c cd bd e3 30 4e 3d 13 3f a2 bd
       -0.031120408 -0.10027388 0.05033959 -0.07922187
000060 d5 6c 19 3b 3c b0 1b 3e 15 9c 34 3d e0 d6 2d 3d
       0.0023410816 0.15203947 0.044094164 0.04244125
000070 3d 34 f8 bc 71 9e 0f 3e da ca be bc c2 af bc bd
       -0.030298347 0.14025284 -0.023290087 -0.09213211
000080 cc d1 55 bd d8 5f 7f bd 3b 85 0b be 4a d5 3c 3c
       -0.05220203 -0.062347263 -0.13625042 0.011525461
000090 cb a5 3a bb 52 51 9a bd 3f 01 43 be 7a 7b 89 bd
       -0.0028480168 -0.07535042 -0.19043444 -0.067130044
0000a0 65 2c 22 3e 51 bb 9f 3d 5f bb 0d 3c 3a 5d 62 bd
       0.15837248 0.077994 0.00865063 -0.05526469
0000b0 ed 0f 38 3c ff ea 93 bd fb a9 3b be b7 91 34 3d
       0.011234266 -0.07222556 -0.18326561 0.044084277
0000c0 ab f3 32 bd 17 e8 55 bd 07 2b bc 3d 98 68 8d bc
       -0.04368941 -0.05222329 0.09187894 -0.017261788
0000d0 f2 a4 44 3d 2e 87 79 3d 8c 4d 26 be b4 e3 10 3d
       0.048008867 0.060919933 -0.1624052 0.035373405
0000e0 b0 5b 57 be 7a 78 5e 3d a3 01 d8 bd 81 b4 fe bd
       -0.2103107 0.054314114 -0.10547187 -0.12436772
0000f0 81 5b 24 3c ec 3f b7 3d f7 3c 57 3e c2 68 32 bd
       0.010031582 0.08947739 0.2101935 -0.043556936
000100 42 4e 0a 3c 5d 6e 00 3d 1e c9 e1 3d 33 44 d5 3d
       0.00844151 0.03135525 0.11024688 0.104133986
000110 34 8c 00 3d 2f 22 a4 bd ec 84 2f 3d 1f 37 21 bd
       0.031383708 -0.080143325 0.042851374 -0.03935921
000120 9d f0 7c 3d 76 43 a0 bc a3 55 5c bb a6 d3 cc 3d
       0.061752904 -0.019563418 -0.003362038 0.10001306
000130 20 69 b7 3c fa 25 39 bd a8 e3 32 bd 18 4a 89 bd
       0.022388995 -0.045202233 -0.04367414 -0.067035854
000140 1e 76 9e 3c 5d 5b 0d bd d6 48 4e 3c 70 c3 80 bd
       0.019343432 -0.03451096 0.012590608 -0.06287277
000150 b2 4d b2 bc 4c e3 70 bd c3 e4 08 be 46 c2 0a bd
       -0.021765564 -0.058810517 -0.13368516 -0.03387668
000160 88 56 d3 bd 00 f0 53 bd df d0 16 be 96 07 c3 3d
       -0.10319239 -0.051742554 -0.14728115 0.09522931
000170 4c 38 62 3b d4 42 61 3d 00 6e 5c bd 7c c5 af bc
       0.0034518419 0.054995373 -0.05381584 -0.021456473
000180 63 e5 88 bd 05 43 a6 bc 33 66 8c bd 81 64 c3 3b
       -0.06684377 -0.02029563 -0.068554305 0.0059629087
000190 55 21 9f bd 6d 6f c4 bd 84 ad c4 bd 9d 60 6b be
       -0.077700295 -0.09591565 -0.09603408 -0.22986074
0001a0 b7 cc f8 bb 13 15 79 bc e5 95 c8 bd 72 25 ee bb
       -0.0075927633 -0.015202778 -0.09794215 -0.0072676474
0001b0 a0 94 b2 3b c7 a3 bb bd 1f d9 96 bc c0 56 60 bd
       0.0054498464 -0.091620974 -0.018414078 -0.05477023
0001c0 dc 11 e5 ba ae da 40 bd 57 4f 7c 3d 72 bc 1c bd
       -0.0017476636 -0.04708355 0.061599102 -0.038265653
0001d0 b2 b7 6c 3d 15 3c 40 3a 95 13 32 3d 55 1b 7f 3d
       0.057792373 0.00073331717 0.043475706 0.062281925
0001e0 43 58 db bd 68 fd cf 3d fc 10 9b 3c 21 77 f8 bd
       -0.10710194 0.10155755 0.018928997 -0.12132097
0001f0 dc 3e 28 3d 1c 3e 39 3d a1 2b 9e bc 77 2a 43 bd
       0.041075572 0.045225248 -0.019307913 -0.04764792
000200 1a ef ce bd 44 ce 4d bd d5 f8 10 3c 46 3c cb bd
       -0.10104199 -0.05024554 0.008848389 -0.099236056
000210 99 76 b2 3d ca 30 ee 3c 8a 49 81 3d f9 2d c4 3c
       0.08714027 0.029075999 0.063128546 0.023947703
000220 30 e2 8f bc 2c a5 b0 3c cd 3c 9a bd 3e 86 aa 3b
       -0.01756391 0.021563135 -0.07531128 0.005203991
000230 a1 ff bb bc fd 81 a3 bc b8 0d 8f 3d 0e 47 71 3d
       -0.022949042 -0.019959444 0.069850385 0.058905654
000240 97 4a ca 3c 62 81 9d bc ae d1 c8 3d bc 43 31 3c
       0.02469377 -0.019226734 0.09805618 0.010819372
000250 37 49 cd bd 21 47 59 3d 2d eb 87 bd cd 05 0a bd
       -0.1002373 0.05304635 -0.06636653 -0.03369694
000260 e8 c2 3f 3d 20 7f 8e 3d 5c 59 94 bc ef 98 ab 3b
       0.046816736 0.06957841 -0.018109016 0.005236737
000270 7e 65 09 3d 2f 9c 9a bc 32 ba cd bd 7e 54 6d 3d
       0.033544056 -0.018873302 -0.100452796 0.057941906
000280 e4 0a 71 3d 0b c1 a7 3d 0f e3 33 3d 21 e3 41 bd
       0.058848277 0.08191117 0.04391771 -0.047335748
000290 d0 e6 3d bd ff 6e ab 3c d2 a4 84 bd a3 01 9c 3d
       -0.046362698 0.02092695 -0.064767495 0.076175
0002a0 14 89 e8 3d 19 68 47 bd a5 54 bc 3c 17 5c 8a bc
       0.113542706 -0.04868326 0.02298958 -0.016889615
0002b0 f2 17 df bd 55 60 d2 bc 83 64 59 bd 98 98 01 3e
       -0.10893239 -0.0256807 -0.05307437 0.12655866
0002c0 e9 1b 09 3e 25 4e 96 3b 3c dd 7b 3d 44 ff be 3c
       0.13389553 0.0045869523 0.061490282 0.02331508
0002d0 a9 e2 b0 3d 79 a9 ab bd 56 c6 8a 3d 32 46 92 bd
       0.08636982 -0.08381934 0.06776111 -0.07142295
0002e0 19 e3 4f 3c b4 75 31 bd 09 8b 2b 3d 71 aa 13 bc
       0.012688422 -0.04332514 0.04188064 -0.009012804
0002f0 9f ce 8b bc 06 6e bb bd df 5f 41 3b 35 9f 3d 3d
       -0.017066298 -0.09151845 0.0029506607 0.04629441
000300 bf e1 b5 bd 02 9d 78 3c 6c 92 b8 bd 38 36 f3 3d
       -0.08880948 0.015174152 -0.09012303 0.11875576
000310 10 f6 08 bd 04 0e 9b bd 8e f8 2d bd 98 52 73 bc
       -0.03343779 -0.07571033 -0.04247337 -0.014851235
000320 10 81 02 bd 0e 2c 37 3d e9 88 e1 bd 4f 73 c1 bd
       -0.031861365 0.04471975 -0.11012442 -0.094458215
000330 0f a0 1b bd 8f 6b 5c bc 2f e1 ce bd af a1 1f 3c
       -0.03799444 -0.013453378 -0.10101544 0.009743138
000340 8c 30 b3 bd 05 84 ea bd 8c 77 84 3b ea 4a 90 bd
       -0.08749494 -0.11450962 0.0040425714 -0.07045539
000350 28 3e 8d bd 38 9c 31 3d 81 d9 5f bd 0f 20 28 3e
       -0.06896621 0.043361872 -0.054650787 0.1641848
000360 68 6e 37 3d 19 53 02 be 3f 85 c9 bd 4b 9c ff 3c
       0.044783026 -0.12727012 -0.09839868 0.031202456
000370 65 91 f4 bd 4a f9 33 bd 47 c8 35 bd 70 bf da b8
       -0.11941794 -0.043938912 -0.044380452 -0.00010430708
000380 a1 c0 16 be c1 61 b2 bd 5c b0 44 ba 6c d8 a3 3d
       -0.1472192 -0.08710051 -0.0007503086 0.080002636
000390 cf 85 3d be 54 32 82 bc 97 c8 c8 bd 45 d3 91 bd
       -0.18508075 -0.015893139 -0.098038845 -0.071203746
0003a0 5a 0a 82 3d a2 a0 be 3c 8c a1 fc bb 27 61 c8 3c
       0.06349631 0.023269955 -0.0077096876 0.024460388
0003b0 3e 70 42 3d 18 64 07 bc bf d6 ba bd 19 ee 91 3d
       0.047470324 -0.00826361 -0.09122991 0.07125492
0003c0 c7 05 14 bd f4 ce a1 3a ef a7 37 bd 90 a1 c7 3a
       -0.036138322 0.0012345002 -0.04483789 0.0015230644
0003d0 1c a4 7d bd 6b 1c b9 bc 16 97 01 3d 56 b1 bf bd
       -0.061924085 -0.022596559 0.031638227 -0.09359996
0003e0 0f 1d 47 bc cf 06 8c 3d 8c 2c 07 3d b2 4f 81 3c
       -0.012152924 0.06837236 0.033001468 0.015785072
0003f0 59 90 89 bd 9c 8f 3c bd db 92 13 3d 0c bc 1b 3d
       -0.06716985 -0.046035394 0.036028724 0.038021132
