models/save_models/mlp_features_temporales.pth (torch, 200878 bytes, 20 tensors)

fc1.weight f4 [256, 18]
0	0xbdafa0c7	-0.08575588
1	0x3d2dba7f	0.042414185
2	0x3de79e56	0.11309497
3	0x3cb08d99	0.021551894
4	0xbccd2c79	-0.02504562
5	0xbd002e85	-0.031294364
6	0x3afd726b	0.0019336467
7	0x3d9ec9df	0.077533476
8	0xbd6f389f	-0.058403607
9	0xbaaf3c5f	-0.0013369432
10	0x3c938d4b	0.01801171
11	0xbc884d0d	-0.016638303
12	0x3c298896	0.010347506
13	0xbb83ac09	-0.004018311
14	0xbd51aa98	-0.05118808
15	0x3d1ff9d2	0.039056607
16	0x3cd264d0	0.025682837
17	0x3b8650c4	0.0040989835
18	0xbd1febee	-0.03904336
19	0x3bfa3b55	0.0076364675
20	0xbd2af23f	-0.04173493
21	0x3c9256f8	0.017863736
22	0x3d718814	0.058967665
23	0x3dccca4a	0.09999521
24	0x3cf7c02e	0.030243006
25	0x3e0f9100	0.14020157
26	0x3b2ad2df	0.002606563
27	0xbb42b5da	-0.0029710443
28	0x3bfb5d4f	0.0076710354
29	0xbdee5b79	-0.11638541
30	0x3d2afd4c	0.04174547
31	0x3df829c2	0.1211734
32	0xb7ee93a8	-2.8440569e-05
33	0x3c75cde7	0.015002704
34	0xbe1494a4	-0.14509827
35	0x3cf7e368	0.030259803
36	0x3dedcbc5	0.116111316
37	0x3c5a31b6	0.013317516
38	0xbba261a6	-0.0049554883
39	0x3d62340c	0.055225417
40	0xbd157ff8	-0.036498994
41	0xb7f26ba8	-2.889878e-05
42	0x3c2b3305	0.010449176
43	0xbdb5fa47	-0.08885627
44	0x3d119839	0.03554556
45	0x3cbfba94	0.023404397
46	0x3dc7b41d	0.09751151
47	0x3d3a3825	0.0454637
48	0x3c217a45	0.0098558115
49	0xbd3463c0	-0.04404044
50	0x3d35f35e	0.044421546
51	0xbd0a6757	-0.03378996
52	0xbcdecb75	-0.027196625
53	0x3d07927c	0.033098683
54	0xbd2c3df7	-0.04205128
55	0x3e03cb38	0.1287049
56	0x3dcf8f1d	0.101347186
57	0x3e020d0e	0.12700292
58	0x3d78683a	0.060646273
59	0xbb106c06	-0.0022037043
60	0x3d268508	0.040654212
61	0x3d735385	0.059405822
62	0xbda44aef	-0.08022105
63	0x3b789aae	0.0037933993
64	0x3dd6cc74	0.10488215
65	0x3d07543e	0.033039324
66	0x3c8d3394	0.017236508
67	0xbd4c5e88	-0.04989484
68	0xbd4cf208	-0.050035506
69	0x3e0f0a83	0.13968854
70	0x3cb429cf	0.021992592
71	0x3d8c4b8a	0.068503454
72	0x3d1d9ef9	0.038481686
73	0xbd2480a8	-0.04016176
74	0x3cb6de56	0.022322815
75	0x3d37662e	0.04477518
76	0x3d909d48	0.07061249
77	0x3e2c7a2f	0.16843484
78	0xba2fc83e	-0.00067055586
79	0xbe0c9a2a	-0.13730684
80	0xbe2fd0ab	-0.17169444
81	0xbce68771	-0.028140755
82	0xbd3e10fd	-0.04640292
83	0x3b6b79dc	0.0035930788
84	0xbdca5863	-0.0988014
85	0xbb2e81ea	-0.0026627728
86	0x3dbc6188	0.0919829
87	0xbc0ab83f	-0.008466779
88	0x3b223ac9	0.0024754277
89	0x3dfb7685	0.12278465
90	0x3be15cd8	0.006877523
91	0xbdc0fd58	-0.094233215
92	0xbc9dc142	-0.019257192
93	0x3bc439b5	0.0059883245
94	0x3d32f0d5	0.043686707
95	0x3df4cce7	0.119531445
96	0x3d9b87be	0.0759425
97	0xbd969d9f	-0.073542826
98	0x3dc42f69	0.09579355
99	0xbdb7462a	-0.089489296
100	0x3ccf6839	0.025318252
101	0x3e053e0f	0.13011955
102	0x3de94af1	0.11391247
103	0x3e0d3e9b	0.13793413
104	0x3d15134c	0.036395356
105	0xbd52d732	-0.051474757
106	0xb98307bb	-0.00024992027
107	0xbd3c977b	-0.0460429
108	0xbe0959fc	-0.13413233
109	0x3d03fcfe	0.032223694
110	0x3db725d8	0.08942765
111	0x3cb2f241	0.021844031
112	0xbd13be81	-0.03607035
113	0xbd8378e9	-0.06419546
114	0x3da051fc	0.07828137
115	0x3d7e24d2	0.062046833
116	0x3d82a05a	0.06378241
117	0xbceb7370	-0.028741568
118	0x3ba0c8d0	0.004906751
119	0xbdb0cc2b	-0.08632692
120	0x3c274afd	0.01021075
121	0xbc9f2f68	-0.019431785
122	0xbdc14526	-0.09437017
123	0xbbf49cde	-0.007464989
124	0x3d94cdb8	0.072658
125	0xbdb93ed7	-0.09045189
126	0x3cd1a9db	0.025593689
127	0xbd609d86	-0.054837726
128	0x3bd9e1ab	0.006649216
129	0x3c01e4b4	0.007928062
130	0x3ce606f2	0.028079484
131	0x3d6327e6	0.055457972
132	0x3d823ad5	0.063588776
133	0xbe413c41	-0.18870641
134	0xbdc5b22d	-0.09653125
135	0xbb45e355	-0.0030195315
136	0x3d7c3552	0.061574288
137	0x3da5fe2b	0.08105119
138	0x3d8b6c19	0.06807727
139	0xbd8f0a41	-0.06984378
140	0x3c384bcf	0.011248543
141	0xbad0d4bf	-0.0015932544
142	0x3d8450d6	0.06460731
143	0x3dbd00cb	0.09228667
144	0xbdc0e0b1	-0.094178565
145	0xbb945c76	-0.0045276238
146	0x3b6cd1f5	0.0036135886
147	0x3b8f6257	0.0043757367
148	0xbdc50a8a	-0.09621151
149	0xbddc69b6	-0.1076235
150	0xbd2576ee	-0.040396623
151	0x3d9920a4	0.07476929
152	0x3d8ee311	0.06976903
153	0x3d870a92	0.06593813
154	0x3d5db058	0.054123253
155	0xbdc903b3	-0.09815159
156	0xbc855191	-0.016274245
157	0x3d37a6f1	0.044836942
158	0xbd41571b	-0.04720221
159	0xbd80ebdd	-0.06294987
160	0x3cc063c8	0.02348508
161	0xbe060bab	-0.13090388
162	0xbc4b5ea6	-0.012412703
163	0x3d86ea9d	0.06587718
164	0x3d65d218	0.056108564
165	0xbdaac1c3	-0.08337738
166	0xbcbb085f	-0.02283114
167	0xbdc45265	-0.09586028
168	0xbd6310bf	-0.055435892
169	0x3e29bd29	0.16576065
170	0x3dadf001	0.08493043
171	0xbe88fb12	-0.2675405
172	0x3cb73b45	0.02236713
173	0xbe015b38	-0.12632453
174	0x3d42a19a	0.047517397
175	0xbe08f8ea	-0.13376203
176	0xbd5d7c9d	-0.05407392
177	0xbd2e4e85	-0.04255535
178	0x3d020f8a	0.0317531
179	0xbd45b995	-0.048272688
180	0x3d1e04f9	0.03857896
181	0xbc2355ce	-0.009969188
182	0x3dbb3222	0.091404215
183	0xbb9db223	-0.0048124953
184	0x3c851de7	0.01624961
185	0x3d2f5622	0.042806752
186	0x3e16d3ec	0.1472928
187	0x3dc9606a	0.09832843
188	0x3d47781c	0.04869853
189	0xbd20fa70	-0.039301336
190	0x3d1db505	0.03850271
191	0x3e0b28fb	0.13589852
192	0xbe0aebf8	-0.13566577
193	0x3d89cf4e	0.06728993
194	0xbc53a04f	-0.0129166385
195	0x3cadd217	0.021218343
196	0xbe16778c	-0.14694041
197	0x3da041c0	0.07825041
198	0x3d09194d	0.033471394
199	0x3d86c1f3	0.06579962
200	0x3c3b2f28	0.011424817
201	0xbdb71028	-0.089386284
202	0x3d437df7	0.04772755
203	0x3d1bbecd	0.03802376
204	0x3daeee70	0.08541572
205	0x3df343b2	0.11878146
206	0x3cc4d9c0	0.024029613
207	0x3d6d3405	0.057910938
208	0xbd6db95e	-0.058038108
209	0xbc280f63	-0.010257575
210	0x3cf07a4b	0.029355189
211	0x3e0acd3e	0.13554856
212	0x3db42e50	0.08797896
213	0xbd0055c8	-0.031331807
214	0xbdf67e07	-0.120357566
215	0xbe11583a	-0.14193812
216	0xbdb808f4	-0.08986083
217	0xbcdd24fd	-0.026995176
218	0x3d67685e	0.056496017
219	0x3c874fb7	0.016517503
220	0x3c81680b	0.015796682
221	0x3dfaffd2	0.12255825
222	0xbcaf85fe	-0.021426197
223	0xbe451259	-0.1924528
224	0x3de13991	0.10997308
225	0x3a0b9831	0.00053251075
226	0x3ba5aca0	0.005055979
227	0x3e055809	0.13021864
228	0xbe14bcc6	-0.14525136
229	0x3e816eb8	0.25279784
230	0xbbd08798	-0.0063638203
231	0x3c513b0b	0.012770425
232	0xbc856450	-0.016283184
233	0x3d92d71f	0.07169937
234	0x3d1165d9	0.03549752
235	0xbc956a05	-0.01823903
236	0xbca2a527	-0.019854141
237	0xbc4afa59	-0.012388789
238	0xbd288aaf	-0.041147884
239	0x3d901f3b	0.07037207
240	0x3e3c9066	0.18414459
241	0xbe38ddfe	-0.18053433
242	0x3e25284f	0.16128658
243	0xbbcd6c45	-0.0062690102
244	0xbca70720	-0.02038914
245	0x3d1e953a	0.038716532
246	0x3da09ad5	0.07842032
247	0x3c133f70	0.008987293
248	0x3d7315ef	0.05934709
249	0xbcb19e65	-0.021681974
250	0xbc9174eb	-0.017755946
251	0xbd1f0aef	-0.038828786
252	0x3ce0eef0	0.027457684
253	0xbd3ba073	-0.045807313
254	0x3bb937c0	0.005652398
255	0x3ce37f70	0.027770728

fc1.bias f4 [256]
0	0x3cb8a9fc	0.022541992
1	0x3d7b7060	0.061386466
2	0x3d093ca4	0.033505097
3	0x3cf8422f	0.030304996
4	0x3d25470c	0.04035096
5	0xbdc2fd09	-0.09520919
6	0x3da1d873	0.079026125
7	0xbcd46b5c	-0.0259301
8	0x3b9ae680	0.004727185
9	0xbb8c725e	-0.0042860946
10	0xbdc08c0f	-0.09401714
11	0x3ac7c812	0.0015242121
12	0x3c649ead	0.013953847
13	0xbc68b212	-0.0142026115
14	0xbd87c650	-0.06629622
15	0x3d779f71	0.06045479
16	0x3cfbe471	0.030748578
17	0x3c212cef	0.009837373
18	0x3cddf37b	0.02709364
19	0xbd03f317	-0.03221425
20	0x3d141480	0.036152363
21	0x3d320c14	0.04346855
22	0x3d93e7de	0.072219595
23	0x3d75dc6e	0.06002467
24	0x3d9c0643	0.07618382
25	0x3d251514	0.040303305
26	0xbe29f389	-0.16596808
27	0xbd021a94	-0.031763628
28	0xbccc6fd5	-0.02495567
29	0x3c35e7bb	0.011102612
30	0x3cc3e8cd	0.023914719
31	0x3d36fe55	0.044676144
32	0xbd3b9a6f	-0.045801576
33	0xbbe95e47	-0.0071218344
34	0x3d1bb71f	0.038016435
35	0x3c94740d	0.018121744
36	0xbd487ec6	-0.048949026
37	0xbdbce7a4	-0.092238694
38	0x3c84947e	0.016184088
39	0x3b0721d8	0.0020619538
40	0x3c86b5ba	0.016444076
41	0x39698d94	0.00022273354
42	0x3df95981	0.12175275
43	0xbccb8146	-0.024841916
44	0xbd183263	-0.037157428
45	0xbb9b52ec	-0.0047401097
46	0xbd35f112	-0.044419356
47	0xbd0b8b10	-0.034068167
48	0xbd8a5bf4	-0.0675582
49	0xbb358870	-0.0027699731
50	0x3ded875c	0.115980834
51	0xbcb9093a	-0.022587407
52	0x3e185a28	0.14878142
53	0xbd9c6e10	-0.0763818
54	0x3de68609	0.11256034
55	0x3d8b3ef8	0.0679912
56	0x3d08d630	0.03340739
57	0x3d6be77c	0.057593808
58	0xbd6cbfe6	-0.057800196
59	0x3cd4bee4	0.02596993
60	0x3cd7a4b9	0.026323663
61	0xbd9aeccd	-0.075646974
62	0x3c0b4587	0.008500463
63	0xbcd600e4	-0.026123472
64	0xbd5652cd	-0.05232506
65	0xbc84418c	-0.016144536
66	0x3ca094e0	0.01960224
67	0x3d6e40e6	0.05816736
68	0x3c35785b	0.011076058
69	0xbd4864b9	-0.04892418
70	0x3c476be9	0.012171724
71	0xbb908bec	-0.0044112112
72	0xbbd4118f	-0.0064718197
73	0x3d2f620d	0.042818118
74	0x3d6a357f	0.057179924
75	0x3bb9e037	0.0056724804
76	0xbcbc4bb5	-0.022985319
77	0xbd853d75	-0.065058626
78	0xbd60737e	-0.054797642
79	0x3d2c1078	0.042007893
80	0x3c146d60	0.00905928
81	0x3c9ffcd3	0.019529736
82	0x3d3b8664	0.04578246
83	0xbd0b8661	-0.0340637
84	0x3e0ede93	0.13952093
85	0xbc502175	-0.012703289
86	0xbd2618de	-0.04055106
87	0xbd8c291d	-0.06843779
88	0x3c82f2c1	0.015984895
89	0xbc1e14e6	-0.009648537
90	0x3be35329	0.0069374037
91	0xbc939ee8	-0.018020108
92	0xbd45ded3	-0.048308205
93	0xbd0cd1b8	-0.03437969
94	0x3cc72c0f	0.024313001
95	0xbd698726	-0.057013653
96	0xbcb57249	-0.022149222
97	0x3be38c93	0.006944248
98	0xbd59f7ca	-0.053214826
99	0xbc9508a8	-0.018192604
100	0x3d80c5d2	0.06287731
101	0xbdd3887f	-0.10328769
102	0x3c87a872	0.016559813
103	0xbb124d77	-0.0022324005
104	0xbce14ce7	-0.02750249
105	0xbce11bd8	-0.027479097
106	0x3c1b7e7c	0.009490605
107	0xbc947fcb	-0.018127343
108	0x3c6a8f80	0.01431644
109	0xbd23b953	-0.03997166
110	0xbd466233	-0.048433494
111	0xbc20a1d1	-0.009804205
112	0x3b7b4e34	0.0038346173
113	0x3c7e273c	0.015512284
114	0x3d91e3e5	0.071235456
115	0x3db3d0c3	0.087800525
116	0x3d24ecc3	0.040264856
117	0xbd51907c	-0.05116318
118	0x3d8430c5	0.064546145
119	0xbe3c188b	-0.18368737
120	0xbcbad880	-0.022808313
121	0x3c081ccb	0.008307646
122	0x38a7d4fa	8.0028505e-05
123	0xbb6dd42b	-0.0036289792
124	0x3b9350cd	0.004495716
125	0xbdd715e5	-0.10502223
126	0xbd8327e6	-0.064040944
127	0x3d275f25	0.04086222
128	0x3ca8fbd8	0.020627901
129	0xbcbc6593	-0.022997653
130	0x3a233271	0.0006225473
131	0x3d5e2858	0.054237694
132	0xbdaa10e1	-0.08304001
133	0xbd2df6a2	-0.042471536
134	0x3c8662bc	0.016404502
135	0x3cba721a	0.022759486
136	0xbdd626ec	-0.104566425
137	0xbca9d262	-0.020730201
138	0x3ca992da	0.020699907
139	0xbcf854e0	-0.030313909
140	0xbd0885c0	-0.03333068
141	0xbcd54edb	-0.026038578
142	0xbc6e7756	-0.014554819
143	0xbd7f5171	-0.062333528
144	0x3d7d979f	0.061912175
145	0x3d12cf10	0.035842
146	0x3d8436d0	0.06455767
147	0xbd571b4a	-0.05251626
148	0xbd7ab6b1	-0.061209384
149	0x3d38c5c5	0.045110483
150	0x3d83d01e	0.064361796
151	0xbbf793a6	-0.007555443
152	0x3c1cadd4	0.009562928
153	0xbd4c4747	-0.049872663
154	0x3d2b9b5c	0.04189621
155	0x3d03d9bd	0.032190073
156	0xbd64ac6a	-0.05582849
157	0x3cca1764	0.024669357
158	0x3cad45c7	0.021151436
159	0x3b97d52f	0.0046335678
160	0xbd217a1d	-0.039423097
161	0xbbd74fcb	-0.0065707914
162	0xbc55342a	-0.013012925
163	0xbcf360d7	-0.029709263
164	0x3d09deed	0.033659864
165	0xbce7017e	-0.028198954
166	0xbd33d55c	-0.043904647
167	0xbd346513	-0.044041704
168	0x3d5600a6	0.052246712
169	0x3d8a34dd	0.06748364
170	0xbc8872de	-0.016656335
171	0xbbf95db0	-0.0076100454
172	0xbd1f5520	-0.03889954
173	0x3d8fcdbe	0.07021664
174	0x3ce826ba	0.028338779
175	0xbde66fb4	-0.112517744
176	0x3d8e11b3	0.069369696
177	0xbd211609	-0.039327655
178	0xbd897eea	-0.0671366
179	0xbc465a46	-0.012106484
180	0x3c90d43f	0.017679332
181	0xbc8b6feb	-0.01702114
182	0x3b7694b2	0.003762525
183	0xbd16cdb7	-0.03681728
184	0xbd420aff	-0.047373768
185	0x3dd7540b	0.10514077
186	0xbdb6e110	-0.08929646
187	0x3bb4aa70	0.005513482
188	0xbde57c31	-0.11205328
189	0x3d2028ca	0.0391014
190	0xbce5d7ed	-0.028057063
191	0xbc855576	-0.016276103
192	0x3df28391	0.118415006
193	0x3d45a6b3	0.04825468
194	0x3dcd8e46	0.10036902
195	0x3d8098b2	0.06279124
196	0xbbee26dc	-0.007267816
197	0x3ca9fe1f	0.020751057
198	0xbc4eeb39	-0.012629324
199	0x3d1e978a	0.038718738
200	0xbc8c7755	-0.017146746
201	0x3dccd5f7	0.10001748
202	0xbd120018	-0.03564462
203	0x3d533170	0.05156082
204	0x3d233ea7	0.03985467
205	0x3d0cc17f	0.03436422
206	0xbd1941c0	-0.03741622
207	0xbd648984	-0.055795208
208	0x3d3eaa2c	0.046549007
209	0xbc02e7e8	-0.007989861
210	0xbca0d3b5	-0.0196322
211	0x3cc89046	0.024482857
212	0x3c77e82c	0.015131038
213	0xbbbc1bfd	-0.005740641
214	0x3d209cfa	0.039212205
215	0xbd240c6b	-0.040050905
216	0xbd3b4947	-0.04572418
217	0xbdb09ccb	-0.08623656
218	0x3c85b485	0.01632143
219	0x3d067789	0.03282884
220	0xbaa42382	-0.0012522789
221	0xbdfe9636	-0.12430994
222	0xbcb55657	-0.022135897
223	0x3d3be667	0.045874026
224	0xbd6581e1	-0.056032065
225	0xbc589c2e	-0.01322083
226	0xbdf0e907	-0.117631964
227	0xbca2f7cb	-0.019893548
228	0x3c8d83db	0.017274788
229	0x3d521a11	0.05129439
230	0x3bb35b5c	0.0054735374
231	0xbbefee72	-0.007322126
232	0xbd95af85	-0.07308868
233	0xbbe9a6d0	-0.0071304813
234	0x3d5da8ca	0.054116048
235	0x3e1fd9fb	0.15610497
236	0x3cdedc50	0.027204663
237	0xbd5af643	-0.05345751
238	0x3c00ce52	0.007861691
239	0x3cef49db	0.029210022
240	0xbccec0da	-0.025238443
241	0xbc8e50e1	-0.01737255
242	0x3c4fc18e	0.012680424
243	0xbb2e2e66	-0.0026577949
244	0x3b8f5a45	0.0043747746
245	0x3cb7c298	0.022431657
246	0xbd0b66c8	-0.034033567
247	0x3db3871b	0.08766004
248	0x3c236e87	0.009975082
249	0xbdaec41c	-0.08533499
250	0xbd8ee15b	-0.06976577
251	0xbc8f1e5f	-0.017470537
252	0xbd318dac	-0.043348
253	0xbc56e888	-0.013116963
254	0x3c5dcac1	0.01353711
255	0x3d142858	0.036171287

bn1.weight f4 [256]
0	0x3f864119	1.0488616
1	0x3f8a22a5	1.0791823
2	0x3f7250a0	0.94654274
3	0x3f7649e9	0.9620653
4	0x3f78f115	0.9724286
5	0x3f76cfd0	0.96410847
6	0x3f806665	1.0031248
7	0x3f8a0155	1.0781657
8	0x3f7afc1e	0.9804095
9	0x3f85b543	1.0445942
10	0x3f87c02b	1.060552
11	0x3f81e33f	1.0147475
12	0x3f89dc15	1.0770289
13	0x3f89bf97	1.0761594
14	0x3f83de11	1.0302144
15	0x3f815ab6	1.0105808
16	0x3f7d5408	0.98956347
17	0x3f807eaa	1.0038655
18	0x3f864e2a	1.0492604
19	0x3f8133a4	1.0093884
20	0x3f823d02	1.0174868
21	0x3f7ec76a	0.9952303
22	0x3f8bc25f	1.0918692
23	0x3f7ca11f	0.9868335
24	0x3f80913e	1.0044324
25	0x3f850f88	1.0395365
26	0x3f83b47d	1.0289456
27	0x3f82bf18	1.0214567
28	0x3f8738ce	1.056421
29	0x3f819c3a	1.0125802
30	0x3f7e0f91	0.992425
31	0x3f800423	1.0001262
32	0x3f9342cb	1.1504759
33	0x3f843236	1.0327823
34	0x3f8405bf	1.0314254
35	0x3f8537db	1.0407671
36	0x3f851f46	1.0400169
37	0x3f923d0b	1.1424879
38	0x3f72bf0e	0.94822776
39	0x3f833f77	1.0253743
40	0x3f8fc948	1.1233301
41	0x3f811dc9	1.0087215
42	0x3f823205	1.0171515
43	0x3f808757	1.0041302
44	0x3f84c276	1.0371845
45	0x3f79f84f	0.97644514
46	0x3f74e056	0.9565481
47	0x3f871be6	1.0555389
48	0x3f707189	0.9392324
49	0x3f848085	1.0351721
50	0x3f8bacf8	1.0912161
51	0x3f8312ec	1.024015
52	0x3f808d24	1.0043073
53	0x3f844fa3	1.0336803
54	0x3f81bb3e	1.0135267
55	0x3f855175	1.0415484
56	0x3f9198f8	1.1374807
57	0x3f831ce1	1.0243188
58	0x3f81e0ab	1.0146688
59	0x3f82fe1f	1.0233802
60	0x3f8c2db5	1.0951449
61	0x3f841ea4	1.0321851
62	0x3f832767	1.02464
63	0x3f82d8b2	1.022238
64	0x3f8c42c2	1.0957873
65	0x3f7c734d	0.98613435
66	0x3f8640b0	1.0488491
67	0x3f7e6d28	0.9938531
68	0x3f7cf0d6	0.98804986
69	0x3f8c8451	1.097788
70	0x3f818b72	1.012068
71	0x3f6fb788	0.9363942
72	0x3f8c6928	1.0969591
73	0x3f8246a2	1.0177805
74	0x3f8571ed	1.0425392
75	0x3f777195	0.9665769
76	0x3f9013f1	1.1256086
77	0x3f88dce9	1.0692416
78	0x3f89336f	1.0718821
79	0x3f883850	1.0642185
80	0x3f88708e	1.0659349
81	0x3f88fd96	1.0702388
82	0x3f85c003	1.0449222
83	0x3f80e52a	1.0069935
84	0x3f77014a	0.9648634
85	0x3f85b49c	1.0445743
86	0x3f888f2c	1.0668693
87	0x3f8624a9	1.0479938
88	0x3f8ab682	1.0836947
89	0x3f6c96f9	0.92417866
90	0x3f810a4b	1.0081266
91	0x3f874283	1.0567173
92	0x3f85b2e9	1.0445224
93	0x3f88702f	1.0659236
94	0x3f82b89c	1.0212588
95	0x3f7ecba8	0.99529505
96	0x3f8bd2f1	1.0923749
97	0x3f7fa471	0.9986029
98	0x3f865f28	1.0497789
99	0x3f87a4e0	1.0597191
100	0x3f89bab2	1.07601
101	0x3f8126fd	1.0090023
102	0x3f794aa6	0.9737953
103	0x3f8082c5	1.0039908
104	0x3f80374b	1.0016874
105	0x3f7a0879	0.9766918
106	0x3f7ed481	0.99543005
107	0x3f82ae6d	1.020948
108	0x3f7c8e84	0.9865496
109	0x3f7fccad	0.99921685
110	0x3f8e0d44	1.1097798
111	0x3f894b4f	1.0726107
112	0x3f80f427	1.0074509
113	0x3f8b76c2	1.0895617
114	0x3f813ff9	1.0097648
115	0x3f883525	1.0641218
116	0x3f81d8d3	1.0144295
117	0x3f854efa	1.0414727
118	0x3f808f2a	1.004369
119	0x3f8be63a	1.0929635
120	0x3f8439ca	1.0330136
121	0x3f813f80	1.0097504
122	0x3f83f059	1.0307723
123	0x3f82150a	1.0162671
124	0x3f893dcc	1.0721984
125	0x3f886b6c	1.0657783
126	0x3f84a196	1.0361812
127	0x3f802f41	1.0014421
128	0x3f7632e5	0.9617141
129	0x3f6cf2ea	0.9255816
130	0x3f7f9bea	0.9984728
131	0x3f8a8bd9	1.0823928
132	0x3f81c443	1.0138019
133	0x3f777514	0.9666302
134	0x3f8280b1	1.0195524
135	0x3f84a211	1.0361959
136	0x3f87317d	1.0561978
137	0x3f903161	1.1265069
138	0x3f866dd8	1.0502272
139	0x3f8c8548	1.0978174
140	0x3f8d47a2	1.1037486
141	0x3f8491c3	1.0356983
142	0x3f85032c	1.0391593
143	0x3f7a604d	0.97803193
144	0x3f883579	1.0641319
145	0x3f737228	0.95096064
146	0x3f879a82	1.0594027
147	0x3f83978d	1.0280625
148	0x3f7c61e2	0.9858686
149	0x3f7d7104	0.99000573
150	0x3f87dbd6	1.0613964
151	0x3f82bc8c	1.021379
152	0x3f75320f	0.9577951
153	0x3f889be6	1.0672576
154	0x3f7ccf3f	0.9875373
155	0x3f835408	1.0260019
156	0x3f810849	1.0080653
157	0x3f81e2dd	1.0147358
158	0x3f871d76	1.0555866
159	0x3f72d8f6	0.94862306
160	0x3f8224b7	1.0167454
161	0x3f80e3e0	1.0069542
162	0x3f81ff34	1.0156007
163	0x3f80e6c6	1.0070426
164	0x3f876efb	1.0580744
165	0x3f853334	1.0406251
166	0x3f8a3de6	1.080014
167	0x3f86b93c	1.0525279
168	0x3f7f7f37	0.9980349
169	0x3f71f7b2	0.9451858
170	0x3f848a4e	1.0354707
171	0x3f78ecbd	0.97236234
172	0x3f833d03	1.0252994
173	0x3f89310d	1.0718094
174	0x3f86171e	1.0475805
175	0x3f7add1a	0.97993624
176	0x3f6976a7	0.91196674
177	0x3f7b61b5	0.98195964
178	0x3f7bffbc	0.98437095
179	0x3f84df19	1.0380584
180	0x3f7d0334	0.9883301
181	0x3f854d4f	1.0414218
182	0x3f8a6cd1	1.0814458
183	0x3f77ee12	0.9684764
184	0x3f87f7ce	1.0622499
185	0x3f89438b	1.0723737
186	0x3f83e7de	1.0305135
187	0x3f781ae6	0.96916044
188	0x3f857af7	1.0428151
189	0x3f8a2b51	1.0794469
190	0x3f6f4dc8	0.9347806
191	0x3f7dbea8	0.99119043
192	0x3f84ddfa	1.0380242
193	0x3f89a35b	1.0752977
194	0x3f7d0857	0.9884085
195	0x3f825a39	1.0183784
196	0x3f854ab3	1.0413421
197	0x3f868d21	1.0511819
198	0x3f85cb2f	1.0452632
199	0x3f8bb5cc	1.0914855
200	0x3f81d47b	1.0142969
201	0x3f8db5c8	1.10711
202	0x3f8f985a	1.1218369
203	0x3f84658f	1.0343493
204	0x3f7d9484	0.9905474
205	0x3f7e27b9	0.9927936
206	0x3f87938d	1.0591904
207	0x3f8b3c0d	1.0877701
208	0x3f83e47f	1.0304106
209	0x3f86c877	1.0529927
210	0x3f8040d1	1.001978
211	0x3f77aedf	0.9675121
212	0x3f8a3b18	1.0799284
213	0x3f7c9222	0.9866048
214	0x3f762f72	0.96166146
215	0x3f806854	1.0031838
216	0x3f835b63	1.0262264
217	0x3f800d2f	1.0004023
218	0x3f820fa3	1.0161022
219	0x3f791a03	0.97305316
220	0x3f789cdf	0.97114366
221	0x3f8705b1	1.0548612
222	0x3f8652a6	1.0493972
223	0x3f85b8f9	1.0447074
224	0x3f8731fc	1.0562129
225	0x3f842e34	1.03266
226	0x3f82646d	1.0186898
227	0x3f89673a	1.0734627
228	0x3f770b1d	0.9650133
229	0x3f894988	1.0725565
230	0x3f7988cb	0.97474355
231	0x3f822360	1.0167046
232	0x3f788958	0.9708457
233	0x3f7b5917	0.98182815
234	0x3f86fd99	1.0546142
235	0x3f80a871	1.0051404
236	0x3f850979	1.0393516
237	0x3f81a861	1.012951
238	0x3f855895	1.0417658
239	0x3f7c9cd2	0.9867679
240	0x3f80fca1	1.0077096
241	0x3f87629b	1.0576967
242	0x3f821319	1.0162078
243	0x3f7f4f0d	0.99729997
244	0x3f7e807c	0.994148
245	0x3f89c522	1.0763285
246	0x3f7c5414	0.98565793
247	0x3f8d1d8a	1.102464
248	0x3f8c7f86	1.0976417
249	0x3f7ff136	0.99977434
250	0x3f7f6704	0.99766564
251	0x3f71bc10	0.94427586
252	0x3f872991	1.055956
253	0x3f7e59d5	0.9935582
254	0x3f82928e	1.0200975
255	0x3f711b6c	0.9418247

bn1.bias f4 [256]
0	0xbc11a564	-0.00888953
1	0xbd96d40c	-0.073646635
2	0xbd4fd2d2	-0.050738163
3	0x3d2e9be3	0.042629134
4	0xbda58941	-0.0808282
5	0x3e1df0cc	0.15423888
6	0x3d6388b9	0.05555031
7	0xbdd0e160	-0.10199237
8	0xbe0013e9	-0.12507595
9	0xbd95d786	-0.073164985
10	0xbde1b6ff	-0.11021232
11	0x3d9069d5	0.07051436
12	0x3d8d878c	0.06910619
13	0x3d09602f	0.033538993
14	0xbdfae11a	-0.12249966
15	0xbd87def4	-0.06634322
16	0x3d2bdc8d	0.04195838
17	0xbcec825c	-0.028870754
18	0xbe4615cd	-0.19344254
19	0xbd5f29f3	-0.054483365
20	0xbc70e865	-0.014703845
21	0x3dbd40fb	0.0924091
22	0x3d23b00b	0.03996281
23	0x3d4c1322	0.049822934
24	0x3dbf726e	0.093479976
25	0x3e4c696e	0.19962093
26	0x3e620a78	0.22074306
27	0x3e155d48	0.14586365
28	0xbe5a8759	-0.21340694
29	0xbe100a4a	-0.14066425
30	0xbc9de5ee	-0.019274678
31	0x3dcf8fe2	0.10134865
32	0x3d824cca	0.063623026
33	0x3d5b0d5e	0.053479545
34	0xbc8577a6	-0.016292404
35	0x3b375d0c	0.0027979044
36	0x3e21d2fb	0.15803139
37	0xbe0ab97d	-0.1354732
38	0x3d1b9b25	0.037989754
39	0x3c96061a	0.018313456
40	0x3c78dde8	0.015189625
41	0x3bd01973	0.00635069
42	0xbd13feab	-0.036131542
43	0xbe010d5c	-0.12602752
44	0x3d0bc233	0.03412075
45	0x3c0e7994	0.008695979
46	0x3e4cf4a5	0.200152
47	0xbe16608a	-0.14685264
48	0x3e0e8e7d	0.13921542
49	0x3ae5db7e	0.0017536727
50	0xbe5468a7	-0.20743047
51	0x3b626da3	0.0034550212
52	0x3de54d3a	0.111963704
53	0xbd294ca0	-0.04133284
54	0xbc88948d	-0.016672397
55	0x3dc8bdda	0.09801836
56	0x3dd2a9ea	0.10286315
57	0x3c271790	0.010198489
58	0x3cf4a27e	0.029862639
59	0xbe2b4c8b	-0.16728418
60	0xbdee6ecd	-0.11642227
61	0xbd81733c	-0.06320807
62	0x3dceec98	0.101037204
63	0xbc91c3a3	-0.017793482
64	0xbe13f2c1	-0.14448072
65	0x3ce144fe	0.027498718
66	0xbc8ed1ac	-0.017433964
67	0xbca9cf18	-0.020728633
68	0xbe4d9d75	-0.20079596
69	0xbdbd13a5	-0.092322625
70	0x3b626a1e	0.0034548114
71	0xbdcf34aa	-0.10117467
72	0xbe8d8c65	-0.27646175
73	0x3dc0bdcd	0.094112016
74	0x3e1dd999	0.15415038
75	0xbd5e0e00	-0.05421257
76	0xbce31cd9	-0.027723717
77	0xbcdb5197	-0.026772304
78	0xbc062926	-0.0081885215
79	0xbdb6e74a	-0.08930834
80	0x3e3cb2ae	0.18427536
81	0x3d8cfd9a	0.06884308
82	0xbe684728	-0.22683394
83	0xbd8c20a4	-0.06842163
84	0xbd3bd701	-0.04585934
85	0xbcd3045c	-0.025758915
86	0xbe49be7f	-0.19701575
87	0xbd66891d	-0.056283105
88	0x3e31d97b	0.17368118
89	0xbbd63f6d	-0.0065383227
90	0x3d895e36	0.067074224
91	0xbd8b3470	-0.06797111
92	0x3ce4e103	0.027939325
93	0xbdb437a3	-0.08799674
94	0xbdd75627	-0.10514479
95	0x3d89c8c3	0.067277454
96	0xbde0a7f7	-0.10969537
97	0xbdcaab2c	-0.0989593
98	0xbd42cc8b	-0.04755835
99	0x3e4b0257	0.19825111
100	0x3e15c694	0.14626533
101	0xbdb49239	-0.08816952
102	0xb76fe580	-1.4298945e-05
103	0x3db5963d	0.08866546
104	0xbdd9dc03	-0.10637667
105	0x3e0a5f88	0.13513005
106	0x3dd3c04a	0.103394106
107	0x3d1b254f	0.037877377
108	0x3d4f3ef3	0.050597142
109	0xbe494932	-0.19656828
110	0x3d1cae68	0.038252264
111	0x3e472cfd	0.19450755
112	0x3dccbffa	0.09997554
113	0x3dbbcceb	0.091699444
114	0x3db3c3cb	0.08777579
115	0x3e1590c9	0.14606012
116	0x3c4f7226	0.012661492
117	0xbe27082a	-0.16311708
118	0xbe2c8c25	-0.16850336
119	0xbda2b2c1	-0.07944251
120	0x3e0dbe9b	0.13842241
121	0x3e19c18f	0.15015243
122	0xbe1ca7d2	-0.15298393
123	0xbd9f1709	-0.077680655
124	0x3d780ac7	0.060557153
125	0xbe16c3c0	-0.1472311
126	0xbdbe085b	-0.092789374
127	0x3d875843	0.066086315
128	0xbd911948	-0.070849
129	0x3d027bf1	0.03185648
130	0x3cae983c	0.021312825
131	0x3d01f140	0.031724215
132	0xbdf4594e	-0.11931096
133	0xbc850f0e	-0.01624253
134	0x3dc2f34e	0.09519063
135	0xbd86efdf	-0.065887205
136	0xbcbdef7f	-0.02318549
137	0x3e15d817	0.14633213
138	0xbd57533a	-0.052569605
139	0xbb4e6d2e	-0.0031498182
140	0xbd7517b2	-0.05983705
141	0x3c616771	0.0137575725
142	0xbd9eee37	-0.077602796
143	0x3dcda4f1	0.10041226
144	0x3e056302	0.1302605
145	0x3e219bb5	0.15782054
146	0x3d0047c4	0.03131844
147	0xbe1c468e	-0.1526129
148	0xbe03a4d6	-0.12855849
149	0xbe0ccb7c	-0.13749498
150	0xbda07326	-0.07834463
151	0xbe27388e	-0.16330168
152	0xbdfaebae	-0.122519836
153	0x3e2357b5	0.15951426
154	0xbce7e2d3	-0.0283064
155	0x3d8f9531	0.07010878
156	0xbdf27d67	-0.11840325
157	0xbdae97dd	-0.08525059
158	0x3bf74424	0.007545965
159	0xbd2d0aa1	-0.042246465
160	0xbe798542	-0.2436724
161	0x3e1088a6	0.14114627
162	0x3decd2e2	0.1156366
163	0x3be236e2	0.006903515
164	0x3d4c1251	0.049822155
165	0x3b27e180	0.0025616586
166	0xbc5bce8d	-0.013415945
167	0xbdecb0af	-0.11557137
168	0x3de56b61	0.112021215
169	0x3d3c6144	0.045991197
170	0xbb7dd380	-0.00387308
171	0xbb26b69c	-0.0025438434
172	0x3bffae6c	0.007802775
173	0x3d2edd47	0.042691495
174	0xbd07f99b	-0.033197027
175	0x3db3b6f6	0.087751314
176	0xbd74975e	-0.059714667
177	0x3a26ac7c	0.00063580996
178	0xbdaf10dd	-0.08548138
179	0xbcadf811	-0.021236451
180	0x3dace8c3	0.08442833
181	0x3de1a2c9	0.11017377
182	0xbc80e85d	-0.0157358
183	0xbdeb740d	-0.11496744
184	0x3de18637	0.110119276
185	0x3d96d834	0.07365456
186	0xbe48bda8	-0.19603598
187	0xbd8b412c	-0.0679954
188	0x3db6208f	0.08892929
189	0xbd0cc677	-0.03436896
190	0xbe2f9e8e	-0.17150328
191	0x3d6d1ad6	0.05788692
192	0xbd095278	-0.033525914
193	0xbce5b4eb	-0.02804037
194	0xbdae1c07	-0.085014395
195	0xbd6eefa2	-0.058334
196	0x3c361494	0.011113305
197	0xbd4af7c5	-0.049552698
198	0x3df6a763	0.12043645
199	0xbde81c46	-0.11333518
200	0x3c29c965	0.010362958
201	0x3e4237d8	0.18966615
202	0x3dd11016	0.10208146
203	0xbc537776	-0.0129069
204	0x3e597516	0.21236071
205	0x3dc0daee	0.094167575
206	0xbe1da36a	-0.15394369
207	0xbdfcdd51	-0.123469
208	0xbda9b763	-0.08286931
209	0x3d653c78	0.05596587
210	0x3beba4f3	0.0071912943
211	0x3bc8a1ac	0.0061227884
212	0x3e0468d5	0.12930615
213	0xbbebc0db	-0.007194621
214	0xbdb910a8	-0.0903638
215	0xbe1e1126	-0.15436229
216	0xbdc6f5c9	-0.097148485
217	0xbd07c66c	-0.033148214
218	0x3aef09a6	0.0018237128
219	0x3de59832	0.112106696
220	0xba6641f5	-0.0008783632
221	0x3c967152	0.018364582
222	0xbdfabfb6	-0.12243597
223	0xbc890ccf	-0.01672974
224	0xbd8b52cb	-0.06802901
225	0x3d8ce905	0.068803824
226	0xbc9f73e1	-0.019464435
227	0x3ccb9495	0.024851123
228	0xbe38b416	-0.18037447
229	0xbd847060	-0.06466746
230	0xbd9ffe17	-0.07812136
231	0xbd134e8a	-0.035963573
232	0xbd29a0a3	-0.04141296
233	0xbc8c8946	-0.0171553
234	0x3cd6869a	0.02618723
235	0xbe0308ae	-0.1279628
236	0x3d87cfa2	0.066314
237	0x3d148ae5	0.036265273
238	0x3d4fce6f	0.05073398
239	0xbc5648ca	-0.013078878
240	0x3c1a1c09	0.009406098
241	0x3d394165	0.04522838
242	0xbe801ab8	-0.25020385
243	0x3df994bb	0.12186571
244	0xbd366748	-0.04453209
245	0x3c1df8e0	0.009641856
246	0xbbf32d20	-0.007421151
247	0x3dbd0e81	0.09231282
248	0x3e94094c	0.28913343
249	0xbd1790c1	-0.037003282
250	0xbde0bd30	-0.10973585
251	0xbdce67a0	-0.10078359
252	0xbcfb9ef8	-0.03071545
253	0x3e1ed6c7	0.15511619
254	0xbd76bf78	-0.060241193
255	0x3c597f0a	0.013274917

bn1.running_mean f4 [256]
0	0x3d5caaf0	0.053873956
1	0x3e62e226	0.22156581
2	0x3deb3738	0.114851415
3	0x3f376648	0.71640444
4	0x3f1302a5	0.5742591
5	0x3ebfda34	0.37471163
6	0xbf07d2c7	-0.53055996
7	0x3ebe8031	0.37207177
8	0xbf5ae90d	-0.8551186
9	0xbf1a0563	-0.6016447
10	0x3ef687f4	0.481506
11	0xbe465fbd	-0.19372459
12	0x3f42a61b	0.76034707
13	0xbdd40b2c	-0.10353693
14	0xbf0bfdea	-0.5468432
15	0x3f1229ba	0.5709492
16	0xbe66079b	-0.22463839
17	0xbe6f69cf	-0.23380207
18	0xbf6e3fc7	-0.93066067
19	0x3f2e8115	0.68165714
20	0x3bee16fa	0.0072659226
21	0xbcbed1e8	-0.02329345
22	0x3cc9da97	0.024640365
23	0xbf48ae16	-0.78390634
24	0x3ba9d3f3	0.005182737
25	0x3e0568ac	0.1302821
26	0x3e2d1bed	0.16905184
27	0x3f113b67	0.56731266
28	0xbfa46af6	-1.2845142
29	0xbdb34959	-0.08754224
30	0x3e097a78	0.13425624
31	0x3d7e5329	0.062091026
32	0xbd578743	-0.05261923
33	0x3f1597ef	0.5843496
34	0xbe09ea9e	-0.13468406
35	0xbeecac8f	-0.46225402
36	0x3ebfb5a7	0.37443277
37	0xbee126c8	-0.439749
38	0x3cca96e5	0.024730155
39	0x3daa2be1	0.083091505
40	0x3f630638	0.88681364
41	0x3e257d56	0.16161093
42	0x3f9b842a	1.2149708
43	0xbea1b61a	-0.31584245
44	0x3b9996b8	0.0046871565
45	0xbdeac011	-0.11462415
46	0xbe9b3cc0	-0.30319786
47	0xbe020d8c	-0.1270048
48	0x3e5e9a44	0.21738535
49	0xbd8f6146	-0.07000975
50	0xbef19d1f	-0.47190186
51	0x3dd35fc2	0.10320999
52	0xbe8b8e69	-0.27257088
53	0x3edc9f70	0.4309039
54	0x3fb61b2e	1.4227045
55	0xbce884c7	-0.028383626
56	0xbe9dd426	-0.3082592
57	0xbe48b4ce	-0.19600222
58	0xbf5220f7	-0.8208155
59	0xbea241d5	-0.3169085
60	0x3f8eaac7	1.1145867
61	0x3d26be58	0.04070887
62	0xbc6cbc0e	-0.014449133
63	0xbdee0596	-0.11622159
64	0xbd693df5	-0.056943852
65	0x3f8a12ef	1.0787028
66	0xbf2200dc	-0.6328256
67	0xbcade5d5	-0.021227757
68	0x3c015ff4	0.007896412
69	0xbcc87fb9	-0.024474965
70	0xbd91ab6d	-0.07112775
71	0xbe819f23	-0.25316724
72	0xbf2045a5	-0.6260627
73	0x3e2d18e7	0.1690403
74	0xbe0765e7	-0.13222466
75	0x3e3bbeb4	0.18334466
76	0x3dc886e6	0.09791355
77	0xbefadf3b	-0.48998436
78	0x3e05ca69	0.13065495
79	0xbefe36c4	-0.49651158
80	0x3cf2a4ca	0.029619593
81	0xbf348afe	-0.70524585
82	0xbf82473b	-1.0177988
83	0xbeb82143	-0.35962877
84	0xbf38c10b	-0.7216956
85	0xbd888621	-0.06666208
86	0xbed50ee8	-0.41612935
87	0xbe10c2af	-0.14136766
88	0x3cd9a4c0	0.026567817
89	0x3ebc2370	0.36745787
90	0x3f13ed19	0.5778366
91	0xbe2fe219	-0.17176093
92	0xbf2a093b	-0.66420335
93	0xbd662cf1	-0.056195203
94	0xbd06abce	-0.03287869
95	0x3da43c61	0.08019329
96	0xbf1f1248	-0.6213727
97	0xbea332a6	-0.3187458
98	0x3dd4a1bd	0.10382412
99	0x3e126322	0.14295629
100	0xbc272b2a	-0.010203162
101	0x3f28c153	0.6591999
102	0xbed9b9c6	-0.42524546
103	0x3db3fe1c	0.08788702
104	0x3dd686cc	0.10474929
105	0xbd659881	-0.056053642
106	0x3e149284	0.14509016
107	0xbb6f825e	-0.003654621
108	0xbea00d6c	-0.3126024
109	0xbf8b293f	-1.0871962
110	0xbf043796	-0.5164732
111	0xbbddd109	-0.0067693037
112	0x3ca77dac	0.020445667
113	0x3e09f4cf	0.13472293
114	0x3e0d5078	0.13800228
115	0x3d9f5cc0	0.077813625
116	0x3ebba7bb	0.36651406
117	0xbf103f95	-0.5634702
118	0xbf6175df	-0.8807048
119	0xbf033550	-0.51253223
120	0x3ced9f23	0.029006546
121	0x3e4405e7	0.19142877
122	0xbf0e2335	-0.5552247
123	0x3f046551	0.51717097
124	0x3e0b513a	0.13605204
125	0xbf5677f2	-0.8377677
126	0x3d29732d	0.041369606
127	0x3eb949a5	0.36189
128	0x3f72a7ea	0.94787467
129	0xbebd2c70	-0.36947966
130	0xbf00017c	-0.50002265
131	0xbc6f814e	-0.014618231
132	0xbf44fe92	-0.76950943
133	0x3c9724ac	0.018450104
134	0x3ea19fcf	0.31567237
135	0xbcb16862	-0.021656219
136	0xbf6c1859	-0.9222465
137	0xbdd9b0c1	-0.10629416
138	0x3fa9c90c	1.326448
139	0x3d722bbb	0.059123736
140	0x3c038c9f	0.008029132
141	0xbf2319b7	-0.6371111
142	0x3e736313	0.23768263
143	0xbe7d3a66	-0.24729308
144	0xbdaf17e6	-0.0854948
145	0x399b380d	0.00029605665
146	0xbf1e46fc	-0.61827064
147	0xbf168e51	-0.5881091
148	0xbd252b6d	-0.040324617
149	0xbdf34d99	-0.11880035
150	0xbf4170c3	-0.75562686
151	0xbf1e6935	-0.61879283
152	0xbf589d61	-0.8461514
153	0x3d964906	0.07338147
154	0x3f168c8d	0.58808213
155	0x3e5198a7	0.20468388
156	0xbee0bc86	-0.43893832
157	0x3eaee889	0.34161785
158	0x3d1e23d4	0.038608387
159	0xbf4e2218	-0.8052077
160	0xbf68f98a	-0.91005766
161	0x3d98610c	0.07440385
162	0x3d1f29c3	0.038858186
163	0xbc0c830c	-0.008576166
164	0xbf834af0	-1.0257244
165	0xbf064c6e	-0.5246037
166	0xbc36cc6a	-0.011157135
167	0xbee37b95	-0.44430223
168	0x3e8636e2	0.26213747
169	0xbea66fa2	-0.32507044
170	0x3ea76365	0.3269302
171	0x3ec593cb	0.3858932
172	0x3dc2284e	0.09480344
173	0xbd85f9c4	-0.0654178
174	0xbdfff114	-0.12497154
175	0x3e4cb927	0.19992505
176	0x3f15f803	0.5858156
177	0xbd7b70f7	-0.06138703
178	0xbf1e4f1e	-0.61839473
179	0x3e377d0a	0.17918792
180	0xbde93dbf	-0.1138873
181	0x3e34568d	0.17611142
182	0xbe0ee39d	-0.13954015
183	0x3e20f6ed	0.15719195
184	0xbdd0f2de	-0.10202573
185	0xbcd1307c	-0.025535814
186	0xbf0f0d53	-0.55879706
187	0x3f2eb3f6	0.6824335
188	0x3e6d355b	0.23164885
189	0xbe117fa5	-0.14208849
190	0xbf6b4d9d	-0.91915303
191	0x3e8344f8	0.25638556
192	0xbf197f6b	-0.5996005
193	0x3f11adf6	0.5690607
194	0xbf44ec81	-0.76923376
195	0xbe078cb7	-0.13237272
196	0xbf1772a0	-0.5915928
197	0x3f73b89b	0.9520356
198	0x3c69d45f	0.014271825
199	0x3f5d817b	0.86525697
200	0x3e3b0673	0.18264179
201	0x3d4056a9	0.046957646
202	0x3e26e356	0.1629766
203	0xbeabc802	-0.3355103
204	0x3eb6f610	0.35734606
205	0x3ce108b8	0.027469978
206	0xbea3cb17	-0.31990883
207	0xbee3fe8b	-0.44530138
208	0xbf1fb797	-0.6238951
209	0xbf3313f1	-0.69952303
210	0x3bcc874e	0.0062417155
211	0x3f299976	0.6624979
212	0xbc9fc504	-0.019503124
213	0xbf37bb80	-0.7177048
214	0x3f14eaaa	0.5817057
215	0x3e8552e8	0.26039815
216	0xbed9dd90	-0.4255185
217	0xbe885fd0	-0.266356
218	0x3f12ea10	0.573884
219	0xbdb409f2	-0.087909594
220	0xbf44d908	-0.76893663
221	0xbf095876	-0.53650606
222	0x3f054607	0.5205998
223	0xbdfe0b81	-0.12404538
224	0xbf3cf317	-0.73808426
225	0xbe97e2a3	-0.29665098
226	0xbd8a9777	-0.06767171
227	0x3eded802	0.43524176
228	0x3f1051c9	0.56374794
229	0xbf8a5f0c	-1.0810256
230	0xbe8faff5	-0.28063932
231	0xbf3fcff6	-0.749267
232	0xbea9b83e	-0.33148378
233	0xbf076094	-0.5288174
234	0x3ce2948b	0.027658721
235	0xbf867e33	-1.0507263
236	0x3ec2d724	0.38054764
237	0xbf790ca2	-0.972849
238	0x3e19333a	0.14960948
239	0x3e15042e	0.14552376
240	0xbdc0145d	-0.09378884
241	0x3d87752e	0.06614147
242	0x3ee02005	0.4377443
243	0xbef16529	-0.47147492
244	0xbf28b7a8	-0.6590524
245	0x3e46ce24	0.19414574
246	0xbe2f3ce4	-0.17113072
247	0xbe9528c9	-0.2913268
248	0xbc6d4c2e	-0.014483495
249	0xbf6cb76c	-0.9246738
250	0xbea37045	-0.31921592
251	0xbf0244f1	-0.50886446
252	0x3e727eb5	0.23681147
253	0x3e4f5419	0.20246924
254	0x3e0b40d9	0.13598956
255	0x3d6d3e40	0.057920694

bn1.running_var f4 [256]
0	0x3d4639fa	0.048395135
1	0x3d0148ed	0.031563688
2	0x3d35f47d	0.044422615
3	0x3ed929ba	0.42414647
4	0x3d5658e3	0.052330863
5	0x3d9df969	0.07713587
6	0x3d37547c	0.044758305
7	0x3c892fd0	0.016746432
8	0x3da89756	0.0823199
9	0x3e2bcab2	0.16776541
10	0x3ddcf727	0.10789328
11	0x3dac2af1	0.08406628
12	0x3d3802d7	0.044924583
13	0x3de0dabc	0.1097922
14	0x3d9e57f0	0.077316165
15	0x3d6e4f16	0.05818089
16	0x3e5011e8	0.2031933
17	0x3ddb1d1d	0.10698912
18	0x3cae26eb	0.021258792
19	0x3e370ef7	0.17876802
20	0x3d2e2e6b	0.042524736
21	0x3ead7740	0.33880043
22	0x3d7a682e	0.06113451
23	0x3d380235	0.04492398
24	0x3e4e2ff9	0.20135488
25	0x3d7d4385	0.06183197
26	0x3d9eec81	0.07759953
27	0x3e5c87b0	0.21536136
28	0x3dbfe2b4	0.09369412
29	0x3d69231b	0.056918245
30	0x3d13884f	0.036018666
31	0x3d39e0b5	0.045380313
32	0x3d09395d	0.03350197
33	0x3d0e0df2	0.034681268
34	0x3e0630bb	0.13104527
35	0x3d94275c	0.0723407
36	0x3d8b916b	0.06814846
37	0x3e113f12	0.14184216
38	0x3e1f9aef	0.15586446
39	0x3dbbcb34	0.09169617
40	0x3cae8578	0.021303877
41	0x3d5316a9	0.051535282
42	0x3d90a800	0.070632935
43	0x3d3b6121	0.045746926
44	0x3da020ee	0.07818781
45	0x3dc527ad	0.09626708
46	0x3da2cd84	0.07949355
47	0x3d4b5d44	0.049649492
48	0x3da919f9	0.08256907
49	0x3d84d973	0.06486788
50	0x3d592158	0.053010315
51	0x3d692d67	0.056928065
52	0x3d313164	0.043259993
53	0x3dda613f	0.106630795
54	0x3e8b9af7	0.27266666
55	0x3d1b08e9	0.037850294
56	0x3cfd48ce	0.030918505
57	0x3d5855d1	0.052816216
58	0x3d64a9b4	0.055825904
59	0x3db5647d	0.08857057
60	0x3db8702e	0.090057716
61	0x3cc0d4b1	0.02353892
62	0x3d12375c	0.035697326
63	0x3d93207d	0.07183931
64	0x3e12cb6d	0.14335413
65	0x3dbc13a6	0.09183435
66	0x3d6f6c35	0.058452804
67	0x3d702432	0.05862827
68	0x3e09ae8f	0.13445495
69	0x3c9cfde0	0.019164026
70	0x3d36347d	0.04448365
71	0x3eb01da9	0.3439763
72	0x3d9a1c9a	0.075249866
73	0x3e4d3379	0.20039167
74	0x3dced5f0	0.10099399
75	0x3de0a7a3	0.10969474
76	0x3cd4c089	0.025970714
77	0x3d8b0b17	0.067892246
78	0x3d54dc92	0.051968165
79	0x3d057a66	0.03258743
80	0x3eb9424f	0.36183402
81	0x3dc6e3ce	0.09711419
82	0x3d6ee158	0.058320373
83	0x3e01233d	0.12611099
84	0x3dc6f725	0.09715108
85	0x3d92a5fd	0.07160566
86	0x3d49a462	0.049229033
87	0x3e2f2046	0.17102155
88	0x3e13b1ef	0.14423345
89	0x3ddf072e	0.10890041
90	0x3e094dff	0.1340866
91	0x3d6c6c21	0.057720307
92	0x3d8c1868	0.068405926
93	0x3cab86b1	0.02093825
94	0x3cefe4ec	0.029283963
95	0x3db8eb9a	0.090293124
96	0x3d8686d5	0.06568686
97	0x3d9d565a	0.07682486
98	0x3dbc0228	0.09180099
99	0x3d8875d4	0.06663099
100	0x3d1e9a90	0.03872162
101	0x3caca667	0.02107544
102	0x3e9b6fdb	0.30358776
103	0x3d22f9a7	0.03978887
104	0x3e059a46	0.13047132
105	0x3dfa091b	0.12208768
106	0x3ed57fae	0.41698974
107	0x3ddf8589	0.10914142
108	0x3e1f7b8a	0.1557447
109	0x3d586572	0.05283112
110	0x3c6ad6e6	0.014333462
111	0x3cec3fa3	0.028838938
112	0x3d6afe1d	0.057371248
113	0x3d2f4202	0.04278756
114	0x3d1b2772	0.037879415
115	0x3de5d0ed	0.1122149
116	0x3c7450e0	0.01491186
117	0x3ddfa447	0.10920005
118	0x3e95fd36	0.29294747
119	0x3d12677b	0.035743218
120	0x3ece4ef0	0.402946
121	0x3ecaadb1	0.3958564
122	0x3e072846	0.13198957
123	0x3e265e70	0.16246963
124	0x3d9d66c4	0.076856166
125	0x3e90164c	0.2814201
126	0x3d8369d0	0.064166665
127	0x3d13700f	0.03599554
128	0x3e10a9e8	0.14127314
129	0x3e62a7b0	0.2213428
130	0x3e5fc933	0.21854095
131	0x3c87506a	0.016517837
132	0x3decc6cd	0.11561356
133	0x3ddf2bf8	0.10897058
134	0x3dcc2fef	0.0997008
135	0x3dd2579a	0.10270615
136	0x3d2afc1c	0.041744336
137	0x3cf96831	0.03044519
138	0x3d379f9d	0.044829953
139	0x3d3052ab	0.04304759
140	0x3cf8e8b6	0.030384403
141	0x3d3790c7	0.044815805
142	0x3e4d7428	0.20063841
143	0x3e154d16	0.14580187
144	0x3da84c7a	0.08217712
145	0x3d8f0694	0.069836766
146	0x3c8f5aac	0.01749929
147	0x3e1a5a35	0.15073474
148	0x3e431cc0	0.19053936
149	0x3dfd2e6d	0.12362371
150	0x3d95c081	0.07312108
151	0x3e06f4da	0.13179341
152	0x3e08d4ef	0.13362478
153	0x3d886c9c	0.066613406
154	0x3e3d2afc	0.18473428
155	0x3ed659e6	0.41865462
156	0x3e7e9c5b	0.24864332
157	0x3ce0445c	0.027376346
158	0x3d89f3d9	0.067359634
159	0x3e738119	0.23779716
160	0x3dcc0d92	0.09963526
161	0x3d6a349c	0.05717908
162	0x3dc4ac0a	0.09603126
163	0x3d906417	0.070503406
164	0x3df1846f	0.11792838
165	0x3d4058b3	0.04695959
166	0x3d9226d0	0.07136309
167	0x3dc0856c	0.09400448
168	0x3d187b2e	0.03722685
169	0x3e7366b8	0.23769653
170	0x3e034264	0.12818295
171	0x3dd9c372	0.10632981
172	0x3cc3689b	0.02385359
173	0x3cb7dc55	0.02244393
174	0x3d5bea0c	0.05369
175	0x3daebaf3	0.085317515
176	0x3e8a0c63	0.26962575
177	0x3d7d09c9	0.06177691
178	0x3e3e719d	0.18598028
179	0x3d884e70	0.06655586
180	0x3da86f4e	0.08224355
181	0x3dbb9b80	0.09160519
182	0x3d5df036	0.05418416
183	0x3e33733e	0.1752443
184	0x3e0be61f	0.13662003
185	0x3e23d502	0.15999225
186	0x3d3200ca	0.043457784
187	0x3d87f606	0.06638722
188	0x3dbf8d00	0.093530655
189	0x3cb36e5a	0.021903206
190	0x3e543efa	0.20727149
191	0x3e12a605	0.14321144
192	0x3d05e9e0	0.032693744
193	0x3d02237d	0.031772126
194	0x3d72c266	0.059267424
195	0x3e1baca6	0.15202579
196	0x3dbe6434	0.09296456
197	0x3cc4456c	0.023958884
198	0x3d4e1d1b	0.050320726
199	0x3cb4d3b6	0.022073608
200	0x3d616f2a	0.055037655
201	0x3d19d689	0.037558112
202	0x3d82043a	0.063484624
203	0x3def623e	0.1168866
204	0x3db6d5dd	0.0892751
205	0x3db5d69d	0.08878825
206	0x3e203657	0.15645729
207	0x3da83eb4	0.08215085
208	0x3cd66f8f	0.026176242
209	0x3d97a07d	0.074036576
210	0x3d7ae39a	0.061252214
211	0x3dc622c3	0.09674599
212	0x3d848cfa	0.06472202
213	0x3dfd5489	0.123696394
214	0x3d17bbce	0.03704434
215	0x3e29ac7b	0.16569702
216	0x3d1658ad	0.03670566
217	0x3d4e826d	0.050417352
218	0x3da31b41	0.07964183
219	0x3dbbc7dd	0.0916898
220	0x3dddba8e	0.10826598
221	0x3d44302b	0.0478975
222	0x3e1dec09	0.15422072
223	0x3d2c90c4	0.042130247
224	0x3dd891ed	0.10574708
225	0x3e338a86	0.17533311
226	0x3e556618	0.20839727
227	0x3da2cc58	0.07949132
228	0x3dad6c0e	0.084678754
229	0x3dc6df7d	0.09710596
230	0x3df57fa6	0.11987238
231	0x3d7ddd16	0.061978422
232	0x3def5f86	0.116881415
233	0x3ee8d11f	0.45472047
234	0x3cc9ccc5	0.024633775
235	0x3dab07e7	0.083511166
236	0x3da590f5	0.08084289
237	0x3cf4af64	0.029868789
238	0x3dbeae41	0.0931058
239	0x3ddf9bb5	0.10918371
240	0x3d57e90c	0.052712485
241	0x3df07ec6	0.1174293
242	0x3d844ee9	0.064603634
243	0x3e23ace4	0.15983921
244	0x3d6784b3	0.056523036
245	0x3d4bf7f9	0.049797032
246	0x3d9e7c32	0.07738532
247	0x3ceaf425	0.02868087
248	0x3d9bfb7f	0.076163284
249	0x3d9756f2	0.073896304
250	0x3d505474	0.05086179
251	0x3dde9eab	0.10870107
252	0x3dfcbe81	0.12341023
253	0x3de1aad4	0.11018911
254	0x3e0fae4e	0.14031336
255	0x3e60ae78	0.21941555

fc2.weight f4 [128, 256]
0	0x3d021d43	0.031766187
1	0x3d8d4534	0.06897965
2	0x3cb7acd9	0.022421287
3	0x3bc851e5	0.006113278
4	0x3c119583	0.008885744
5	0xbdeec3e6	-0.116584584
6	0x3cb0f3e3	0.02160067
7	0xbda0b2d2	-0.07846607
8	0x3d1b87e8	0.037971407
9	0x3d52e14f	0.051484402
10	0x3d3ea841	0.04654718
11	0x3da5921d	0.080845095
12	0x3d9ff77c	0.07810876
13	0xbdd42f74	-0.103606135
14	0x3d5ba802	0.05362702
15	0xbd6ee877	-0.058327165
16	0x3cd820ea	0.026382882
17	0xbaa19f97	-0.0012330887
18	0xbdfb1461	-0.12259746
19	0x3d89fdb5	0.06737844
20	0xbbff3d89	-0.007789318
21	0xbc939b2e	-0.018018331
22	0x3e0614f8	0.13093936
23	0xbd2afc82	-0.041744716
24	0x3d0fbd98	0.03509292
25	0x3c3c2b45	0.011484926
26	0x3e037252	0.12836578
27	0x3d2d7cb6	0.04235526
28	0xbcc40f6d	-0.023933137
29	0x3d1c3ade	0.038142078
30	0xbdd960c4	-0.1061416
31	0x3d68f832	0.056877322
32	0xbe3f3bda	-0.18675175
33	0xbdb397da	-0.08769198
34	0xbc2784af	-0.010224505
35	0x3d54f6b4	0.051993087
36	0x3d2f2f20	0.04276955
37	0xbb18c1fd	-0.0023308985
38	0x3d637843	0.055534612
39	0xbd54db50	-0.051966965
40	0xbb980487	-0.0046392116
41	0xbbee4781	-0.0072717075
42	0x3c5bcb8e	0.01341523
43	0xbd5992fe	-0.0531187
44	0x3b5b2edd	0.003344468
45	0x3e2b55d3	0.16731958
46	0x3d44b3a9	0.0480229
47	0xbd46e67a	-0.048559643
48	0xbd895ad0	-0.06706774
49	0xbddc247f	-0.107491486
50	0x3dde019b	0.1084015
51	0x3d402ee5	0.046919722
52	0x3d42a6ea	0.047522463
53	0x3c075eb9	0.00826233
54	0xbddcc0ae	-0.10778938
55	0x3c668800	0.014070511
56	0xbdd537c7	-0.10411029
57	0xbc966ae3	-0.018361514
58	0x3d5d9e09	0.054105792
59	0x3dbb55ac	0.091472
60	0x3d1896fb	0.03725336
61	0x3ca17681	0.019709827
62	0x3dd2d9aa	0.102954224
63	0xbcd14b8f	-0.025548724
64	0x3dba0a97	0.09084051
65	0xbde4640d	-0.11151896
66	0xbd93bb87	-0.072135024
67	0x3c9476ab	0.018122992
68	0xbdaa5c0e	-0.08318339
69	0xbd7b310d	-0.061326075
70	0xbe26c490	-0.1628592
71	0x3b3467c8	0.0027527679
72	0xbdcd6e02	-0.10030748
73	0x3d99828f	0.07495605
74	0xbd9df140	-0.077120304
75	0xbcfe88b3	-0.031071043
76	0x3d0b654e	0.03403216
77	0xbdcd199c	-0.1001465
78	0x3e29789f	0.1654992
79	0xbb28d4c3	-0.0025761581
80	0xbe0be4d2	-0.13661507
81	0x3d4f0816	0.05054482
82	0x3d578b2e	0.052622966
83	0xbd2634bc	-0.040577635
84	0x3d045bab	0.032313984
85	0xbdb191ef	-0.08670413
86	0x3ce0a012	0.027420077
87	0x3d5795b7	0.052633014
88	0x3cf1faf4	0.02953861
89	0x3daa1231	0.08304251
90	0xbc1c2df8	-0.009532444
91	0xbcc00695	-0.023440639
92	0x3dd3c2c4	0.10339883
93	0xbca3eb0c	-0.02000954
94	0x3d666eba	0.05625794
95	0x3ccc69b3	0.024952745
96	0x3d6ba15d	0.057526935
97	0x3dab3301	0.083593376
98	0x3c8d1660	0.017222583
99	0x3d56bd2f	0.052426513
100	0xbc0397c2	-0.008031787
101	0x3c8ab24a	0.016930718
102	0xbcf7f419	-0.030267762
103	0xbd0718a2	-0.032982476
104	0x3d2537e6	0.040336512
105	0x3d94e296	0.0726978
106	0xbd344c42	-0.044018038
107	0xbc17bb07	-0.009260899
108	0x3dbf829d	0.093510844
109	0xbd23e38d	-0.04001193
110	0x3c2f52e9	0.01070092
111	0x3b9beebb	0.0047586835
112	0x3bbb1130	0.005708836
113	0x3d9f3948	0.077745974
114	0x3e091c81	0.1338978
115	0xbc6efdf6	-0.014586916
116	0x3d59b389	0.053149734
117	0x3db218e5	0.086961545
118	0xbdae99ff	-0.08525466
119	0xbc595d52	-0.013266878
120	0xbda2320f	-0.07919704
121	0xbc188dec	-0.009311181
122	0x3d64b98b	0.05584101
123	0xbd82117c	-0.06350991
124	0xbcd1a424	-0.025590964
125	0x3df9be24	0.121944696
126	0x3c893753	0.016750013
127	0x3db41126	0.08792333
128	0xbda7a47c	-0.0818567
129	0xbd83e351	-0.064398415
130	0x3cad34cb	0.021143338
131	0x3b9cba2d	0.004782936
132	0x3dbfa26e	0.09357153
133	0xbd53cc4e	-0.051708512
134	0x3d0025e4	0.031286135
135	0x3da0930a	0.078405455
136	0xbd9aea31	-0.075642
137	0xbe13880c	-0.14407367
138	0x3c73ba9b	0.014876033
139	0x3c9b483f	0.018955348
140	0x3be92bd3	0.00711582
141	0x3d5cba68	0.05388871
142	0x3d0ce1c4	0.034394994
143	0x3ce83f43	0.028350478
144	0x3d1b789b	0.037956815
145	0xbd058b7b	-0.032603722
146	0xbdc2a781	-0.09504605
147	0x3dd4ba34	0.10387078
148	0x3d446253	0.04794533
149	0x3d94f320	0.07272935
150	0xbc53620c	-0.012901794
151	0x3e0547fa	0.13015738
152	0xbd0d436b	-0.034488123
153	0xbd9c7131	-0.07638777
154	0xbd721002	-0.059097297
155	0xbd69f5fc	-0.057119355
156	0x3b8f1dab	0.0043675504
157	0xbcb5f49f	-0.022211371
158	0xbc508c26	-0.0127287265
159	0x3d4ee123	0.050507676
160	0xbdbf9948	-0.09355408
161	0x3c60284a	0.013681481
162	0xbcb9ad20	-0.02266556
163	0xbc840f96	-0.016120713
164	0xbda390e9	-0.07986624
165	0x3df6bac5	0.12047342
166	0xbd69e270	-0.057100713
167	0x3a0ab915	0.00052918616
168	0xbda8f20a	-0.0824929
169	0xbcc3f429	-0.023920136
170	0x3d97ce04	0.07412341
171	0xbdcdb90d	-0.10045061
172	0x3d8aa561	0.06769825
173	0xbd7ddbd9	-0.06197724
174	0x3b56a08f	0.003274951
175	0xbc79530a	-0.015217552
176	0x3d870e8e	0.06594573
177	0x3d1f504d	0.03889494
178	0xbce4bc23	-0.027921742
179	0xbe5393c9	-0.20661844
180	0xbd7e0eb8	-0.062025756
181	0x3e0e6c85	0.13908584
182	0xbdd84a0e	-0.10561
183	0x3dd3c48a	0.10340221
184	0xbdbe6ff4	-0.09298697
185	0xbe202221	-0.15638019
186	0xbc74bc68	-0.014937498
187	0xbbc40f25	-0.0059832507
188	0x3da5ef3b	0.0810227
189	0xbd162fa5	-0.03666653
190	0xbcc337cf	-0.023830323
191	0xbcde7b5d	-0.027158434
192	0xbc8faea5	-0.017539332
193	0x3bf34cd7	0.0074249315
194	0x3ca3dae1	0.02000183
195	0xbdd0b99c	-0.10191652
196	0x3d1318c8	0.035912305
197	0xbb8f6ab5	-0.004376734
198	0xbd639415	-0.055561144
199	0xbcbd4006	-0.023101818
200	0x3d193670	0.03740543
201	0x3da51a04	0.08061603
202	0x3cca7a81	0.024716618
203	0xbcd8521a	-0.026406337
204	0x3d3e1246	0.046404146
205	0xbda89abf	-0.082326405
206	0x3cf19d8f	0.029494075
207	0x3b60cb2e	0.0034300792
208	0x3b83fbff	0.004027843
209	0x3dc9aef8	0.09847826
210	0x3d5fcfc9	0.05464152
211	0x3dc745b0	0.09730089
212	0x3cfd8a53	0.030949747
213	0x3d312495	0.043247778
214	0x3dfa00fd	0.1220722
215	0x3d4f3a6b	0.05059282
216	0xbded4fb3	-0.11587467
217	0xbc905bcb	-0.017621895
218	0x3bc04715	0.0058678486
219	0x3c654787	0.013994104
220	0xbd54f5db	-0.05199228
221	0xbdca9444	-0.09891561
222	0xbddc481b	-0.107559405
223	0x3ba3a3e9	0.004993905
224	0x3c52cc3e	0.012866078
225	0x3dd23c58	0.10265416
226	0x3dc1feec	0.094724506
227	0x3d35aa4d	0.044351865
228	0xbd551195	-0.05201872
229	0xbde207fa	-0.11036678
230	0x3dfb5854	0.12272707
231	0x3bf44d20	0.007455483
232	0x3c68aa6b	0.014200787
233	0x3ddbcf12	0.10732855
234	0x3d923ffa	0.07141109
235	0x3dcd6f7b	0.10031029
236	0xbe04b3ce	-0.12959215
237	0x3d8f0c09	0.069847174
238	0x3cc07f27	0.023498131
239	0xbdc33128	-0.0953086
240	0xbcdca20b	-0.026932737
241	0xbd128ae2	-0.03577698
242	0xbe224dcb	-0.15849988
243	0xbd8ad3b1	-0.06778658
244	0xbdb859d1	-0.09001506
245	0x3c9361b6	0.017990928
246	0x3d335da3	0.04379047
247	0xbc23fa93	-0.010008472
248	0x3c1ec75b	0.009691085
249	0xbd9f5766	-0.07780342
250	0xbd7e76d4	-0.062125042
251	0xbd8dbb08	-0.06920439
252	0x3deffe10	0.117183805
253	0xbb1e4ef9	-0.0024155958
254	0xbaf52c2c	-0.0018705181
255	0xbde3468d	-0.11097441
