models/save_models/mlp_features_temporales.pth (torch, 200705 bytes, 20 tensors)

fc1.weight f4 [256, 18]
0.14301966 -0.07491676 0.052173357 0.0006830512 0.04641044 -0.039397065 -0.080013275 -0.16209756
-0.041921165 -0.008852953 0.0572923 0.14189275 -0.09893808 0.009708819 0.072505035 -0.010216471
0.085584134 -0.08786027 -0.029932277 -0.19624463 -0.034875825 -0.0039674444 0.06510921 0.021658516
-0.027811851 -0.29491222 -0.102864735 -0.033184994 -0.25700504 -0.16607368 0.025077734 -0.28994673
0.021121312 0.020854672 -0.21005233 -0.036562525 0.017655598 0.0869964 0.028637942 -0.036569797
0.06814302 -0.016770082 0.108568735 0.067271054 0.0025616395 -0.040870648 -0.11861517 -0.016649278
0.0002714811 0.13589045 -0.038594775 0.020315811 -0.08466904 -0.0077141654 -0.051787816 0.09514669
-0.08705116 -0.032005608 -0.02757151 -0.044784002 -0.010627 0.054054033 0.12666948 -0.016464528
0.0012733891 0.019547036 0.051426984 0.037669096 -0.0014516282 -0.10028676 -0.040803462 -0.025706185
-0.02058981 -0.11649674 0.021851983 -0.0024930816 -0.0636452 -0.14174573 -0.051850524 0.30870423
0.017597595 0.073945515 0.00035338846 0.041588187 0.1637152 -0.059950948 0.015851086 -0.016077064
0.012552092 -0.025295872 0.09338085 0.10383481 0.05183111 -0.17581213 0.018123524 0.06030283
0.010028613 -0.0063418825 0.11795358 -0.08211067 -0.018116621 -0.0566278 0.08475647 0.25413772
0.11047265 -0.09348836 -0.10830575 -0.07452308 0.02834415 -0.013354732 -0.013766073 0.0010250149
0.047408443 -0.0993567 0.002369532 -0.0073095225 -0.05365637 -0.036569275 -0.06308096 -0.043676674
0.10114187 -0.11445343 -0.063819766 0.018206993 0.12992719 -0.036389574 0.09740561 -0.122408174
-0.062000908 -0.015402351 0.08375457 0.040709343 -0.03491675 -0.16266556 0.13048455 0.05360793
-0.025086038 -0.03240429 0.048458815 -0.06439249 -0.008811039 -0.017910933 0.102168374 0.03324152
0.048717365 0.10530838 -0.035407063 -0.016929619 0.05970409 -0.038350165 -0.090061195 0.020424958
0.003416251 0.037053034 -0.00047714668 0.050975036 0.022177294 0.27416146 -0.06701252 0.021793945
0.0009505433 -0.011678259 -0.020202398 0.22668728 -0.006383938 0.01617708 0.13127494 0.013986561
0.02021076 -0.1487489 -0.0019569378 -0.009770087 0.033350416 -0.051124565 0.008826213 -0.059364386
-0.073272526 -0.020917876 -0.13686062 -0.030926773 -0.060825367 -0.009639321 -0.10096978 -0.023408396
0.009122484 -0.03457852 -0.062456183 0.019264346 -0.016260302 0.06140462 -0.06007042 0.12436239
-0.21097754 0.0037259 0.11077293 0.042350747 -0.03371686 -0.111495696 -0.015810905 -0.035512026
0.02301699 0.02505265 0.037658505 0.022951419 -0.03983788 -0.17493099 0.03238414 -0.0025153274
-0.033208854 0.07370311 -0.037820064 0.038074475 -0.048351936 0.08564199 0.09474886 -0.088233665
0.04346428 -0.11492718 0.009459518 -0.0034878647 0.029833935 0.0043019666 -0.10518274 -0.061171513
-0.019969234 -0.0047429926 -0.124671906 -0.13467075 -0.106379345 -0.278335 0.021258425 -0.025306566
-0.06855399 -0.10292948 -0.034330536 0.12737615 0.009680268 -0.0360036 -0.006844031 -0.04305557
0.046443176 0.059296433 0.15347101 -0.04439589 -0.057687584 -0.064327344 0.052519802 0.09364712
-0.16867584 0.057833556 -0.07397759 0.06387666 -0.056791395 0.10830598 0.096770905 0.013063221
00000000: bf73 123e f56d 99bd bbb3 553d ca0e 333a
00000010: e018 3e3d d15e 21bd 00de a3bd e7fc 25be
00000020: 87b5 2bbd fa0b 11bc 55ab 6a3d 554c 113e
00000030: 0ca0 cabd bd11 1f3c 857d 943d fc62 27bc
00000040: bc46 af3d 16f0 b3bd 8934 f5bc 5af4 48be
00000050: f4d9 0ebd 5601 82bb fa57 853d 336d b13c
00000060: aed5 e3bc bcfe 96be bfaa d2bd fdec 07bd
00000070: 2a96 83be 380f 2abe d26f cd3c e673 94be
00000080: 9a06 ad3c 6bd7 aa3c f517 57be 96c2 15bd
00000090: 79a2 903c 2b2b b23d 1e9a ea3c 36ca 15bd
000000a0: 918e 8b3d 6961 89bc 4959 de3d 68c5 893d
000000b0: 2ee1 273b fb67 27bd 83ec f2bd 1164 88bc
000000c0: 9455 8e39 de26 0b3e 8e15 1ebd 586d a63c
000000d0: f666 adbd 1cc7 fcbb 761f 54bd 45dc c23d
000000e0: e147 b2bd 5018 03bd a6dd e1bc 6e6f 37bd
000000f0: de1c 2ebc c367 5d3d a5b5 013e 9ee0 86bc
00000100: d9e7 a63a 1b21 a03c 1aa5 523d e94a 1a3d
00000110: 8f44 beba 2563 cdbd 8821 27bd c795 d2bc
00000120: f6ab a8bc d895 eebd ee02 b33c f862 23bb
00000130: 6a58 82bd cb25 11be 3761 54bd 7b0e 9e3e
00000140: d528 903c bf70 973d ff46 b939 6058 2a3d
00000150: f5a4 273e 208f 75bd 23da 813c 0cb4 83bc
00000160: 4aa7 4d3c 4a39 cfbc 763e bf3d 58a7 d43d
00000170: dc4c 543d 1808 34be c977 943c 1a00 773d
00000180: 0d4f 243c 91cf cfbb a691 f13d a429 a8bd
00000190: 4f69 94bc 8df2 67bd cd94 ad3d 571e 823e
000001a0: 7c3f e23d d376 bfbd 68cf ddbd 8e9f 98bd
000001b0: fe31 e83c cecd 5abc 188b 61bc cb59 863a
000001c0: 5b2f 423d 877b cbbd 264a 1b3b b884 efbb
000001d0: c8c6 5bbd aac9 15bd 9730 81bd 50e6 32bd
000001e0: 7823 cf3d 8f66 eabd f0b3 82bd d526 953c
000001f0: a20b 053e 3c0d 15bd 987c c73d 23b1 fabd
00000200: aaf4 7dbd 245a 7cbc 8487 ab3d d7be 263d
00000210: de04 0fbd cd91 26be be9d 053e fd93 5b3d
00000220: 3c81 cdbc 5cba 04bd c07c 463d 36e0 83bd
00000230: 2d5c 10bc f3b9 92bc a73d d13d 4328 083d
00000240: dc8b 473d ecab d73d ff06 11bd fcaf 8abc
00000250: 478c 743d 1015 1dbd 0172 b8bd 3e52 a73c
00000260: 2ee3 5f3b ecc4 173d 8b29 fab9 33cb 503d
00000270: 28ad b53c e45e 8c3e dc3d 89bd 3789 b23c
00000280: e22d 793a 2b56 3fbc 807f a5bc b620 683e
00000290: 5a30 d1bb cc85 843c f06c 063e e427 653c
000002a0: 0991 a53c a251 18be f83f 00bb b712 20bc
000002b0: 729a 083d fe67 51bd d29b 103c 1228 73bd
000002c0: e80f 96bd f75b abbc 3125 0cbe 255a fdbc
000002d0: 0524 79bd 3eee 1dbc 3ec9 cebd f7c2 bfbc
000002e0: 7976 153c 35a2 0dbd 0ed2 7fbd 43d0 9d3c
000002f0: 5334 85bc 6983 7b3d 670c 76bd b5b1 fe3d
00000300: 7f0a 58be 3b2e 743b ebdc e23d fa77 2d3d
00000310: b11a 0abd db57 e4bd df85 81bc 0f75 11bd
00000320: 208e bc3c 373b cd3c ce3f 1a3d 9d04 bc3c
00000330: 0b2d 23bd 1c21 33be 3ba5 043d 31d8 24bb
00000340: 0206 08bd a8f1 963d 36e9 1abd fbf3 1b3d
00000350: ae0c 46bd 1165 af3d b10b c23d dab3 b4bd
00000360: 9a07 323d f15e ebbd 18fc 1a3c a994 64bb
00000370: 4c66 f43c 83f7 8c3b 0c6a d7bd fb8e 7abd
00000380: 8596 a3bc 1b6b 9bbb fc53 ffbd 21e7 09be
00000390: 6add d9bd ed81 8ebe 2626 ae3c b74f cfbc
000003a0: 0966 8cbd b1cc d2bd 2d9e 0cbd e56e 023e
000003b0: fd99 1e3c 8378 13bd e543 e0bb 0a5b 30bd
000003c0: 333b 3e3d d1e0 723d 8127 1d3e 77d8 35bd
000003d0: d149 6cbd 0ebe 83bd 011f 573d 10ca bf3d
000003e0: 5cb9 2cbe e1e2 6c3d 9081 97bd c4d1 823d
000003f0: 189e 68bd 87cf dd3d d32f c63d 1f07 563c

fc1.bias f4 [256]
-0.014383881 -0.04754537 0.023801897 0.0055547617 0.13355134 -0.049627177 -0.08666691 0.027137151
-0.030158168 -0.020991422 -0.032922167 -0.031899355 0.007132109 0.009270714 -0.0077569955 0.0065325596
0.043032516 0.0132245235 -0.028995031 -0.01114632 -0.009208526 -0.008901577 0.06365428 0.048483606
-0.020165013 -0.0070049064 0.108121105 0.028332686 0.048268728 0.043556783 0.016257545 0.07155676
-0.045065936 0.034549043 0.036769226 0.010363986 0.04888436 -0.022066187 0.03427081 0.020990465
0.017177863 0.06563953 0.023930471 -0.04186176 -0.011015761 -0.020933706 0.034405217 -0.003952784
0.027418004 0.0488812 -0.04232561 0.029007383 0.08001226 0.05763975 0.07526365 0.022496698
0.01953953 -0.015888156 0.18317643 -0.04776265 -0.026351884 0.030337933 0.029036397 0.16678539
0.018317666 -0.012425433 -0.08126687 -0.15370812 -0.003986821 -0.029058833 0.024952723 0.031686965
-0.011816795 0.046293393 -0.011523589 0.03662599 0.046875436 -0.061040387 0.022064196 -0.03348338
-0.048836432 0.0064985193 -0.0021478115 0.016901502 -0.060131732 -0.011013689 0.015815277 -0.004857566
-0.021787208 -0.04671735 -0.030734634 -0.018746074 0.017681697 0.28027943 1.5624244e-05 0.050031323
0.08551465 0.03883642 0.03899554 0.016771423 0.0059672594 -0.0034271856 0.057829678 -0.022592101
0.047112685 -0.05788478 -0.04316528 0.058534365 -0.010164494 0.055806078 0.041843597 0.122977845
-0.02060929 0.0414468 0.0050508515 0.009591966 -0.0073120925 0.03779422 0.06716136 -0.05034816
-0.055213932 0.101226814 0.04530155 0.08097974 0.024197387 -0.004563531 0.040362548 -0.028027045
-0.05310884 0.19648588 -0.0060723964 0.0034180498 0.029695448 0.0321465 0.034129333 -0.08086172
-0.06344883 0.002515615 0.083249085 0.19344759 -0.03893375 0.014504562 -0.015936375 -0.041596558
0.054610323 -0.060420565 -0.015864575 0.009921472 0.018117886 0.002562068 0.0011286737 0.021048613
0.009388823 0.009940265 0.026816601 -0.009326506 0.004447648 -0.027769238 0.12468588 -0.01727232
-0.0057077883 0.05469679 -0.0037940375 -0.05326196 -0.0455889 0.08302115 0.024714356 0.0056793494
0.014419666 0.021715181 0.0020588792 0.0207282 0.02523273 0.029842122 0.054201823 -0.017555282
0.05029237 0.018338684 0.030799598 -0.04408816 0.028355798 0.015552693 0.035897862 -0.08738055
0.04735046 -0.01449223 -0.06219499 0.030863453 0.10224697 0.013383433 -0.058666963 -0.05958782
-0.01571383 -0.011294495 0.2482599 0.0916267 -0.002847585 0.011132265 0.021484584 0.04771548
-0.08693208 -0.01927066 0.023749916 0.028521024 -0.05072052 0.0067103463 0.06129938 0.07223761
0.08523217 -0.068299755 -0.0025558772 0.0055552092 -0.019754594 -0.047570348 0.17013529 -0.08516656
-0.008622444 -0.01911118 0.045211375 0.002718749 0.04504647 -0.07074419 -0.07777075 0.022047456
0.025338728 -0.028320389 -0.040321063 0.030230232 -0.014622094 0.023263983 0.02379314 -0.017903259
-0.025741339 -0.040642988 0.18131472 0.004039909 -0.005490182 -0.014334384 -0.03455904 0.0025061998
0.0018218998 -0.028990587 -0.0002019464 0.0020103962 0.011787152 0.058875944 0.034120493 0.016828261
0.0020196617 0.054347645 -0.03526063 0.039976355 0.021617297 -0.044592682 0.004848696 -0.04579423
00000000: 5faa 6bbc efbe 42bd 32fc c23c b804 b63b
00000010: afc1 083e de45 4bbd 6c7e b1bd bb4e de3c
00000020: 430e f7bc 34f6 abbc 65d9 06bd e6a8 02bd
00000030: 77b4 e93b 31e4 173c 652e febb 150f d63b
00000040: dd42 303d acab 583c fd86 edbc 0e9f 36bc
00000050: 5cdf 16bc ecd7 11bc 2d5d 823d bf96 463d
00000060: 1931 a5bc 6a89 e5bb 996e dd3d f319 e83c
00000070: 6eb5 453d 9968 323d 8b2e 853c 5a8c 923d
00000080: 0f97 38bd 4c83 0d3d 549b 163d b5cd 293c
00000090: f73a 483d 26c4 b4bc 8d5f 0c3d 32f4 ab3c
000000a0: 97b8 8c3c 056e 863d d609 c43c 3d77 2bbd
000000b0: 737b 34bc 2a7d abbc 7cec 0c3d 5b86 81bb
000000c0: b99b e03c a737 483d 9e5d 2dbd e4a0 ed3c
000000d0: 78dd a33d a917 6c3d d423 9a3d ff4a b83c
000000e0: 5d11 a03c e127 82bc 9a92 3b3e c5a2 43bd
000000f0: e8df d7bc 4287 f83c bddd ed3c cac9 2a3e
00000100: ee0e 963c 0b94 4bbc 3f6f a6bd a965 1dbe
00000110: e1a3 82bb ca0c eebc a769 cc3c 31ca 013d
00000120: 3b9b 41bc 249e 3d3d 6fcd 3cbc 2205 163d
00000130: 7500 403d 7c05 7abd f9bf b43c de25 09bd
00000140: b608 48bd 88f1 d43b 4cc2 0cbb 0575 8a3c
00000150: b14c 76bd c372 34bc 0a8f 813c 382c 9fbb
00000160: 167b b2bc b15a 3fbd 33c7 fbbc 5e91 99bc
00000170: 35d9 903c c980 8f3e cf10 8337 a5ed 4c3d
00000180: 4e22 af3d f012 1f3d cab9 1f3d 3964 893c
00000190: 0089 c33b a29a 60bb d0de 6c3d 1213 b9bc
000001a0: 3bf9 403d 9718 6dbd 14ce 30bd bbc1 6f3d
000001b0: fa88 26bc ea94 643d 3164 2b3d cfdb fb3d
000001c0: d0d4 a8bc 1fc4 293d 9d81 a53b 9f27 1d3c
000001d0: 479a efbb 1dce 1a3d e58b 893d df39 4ebd
000001e0: 0128 62bd 0150 cf3d 1e8e 393d b5d8 a53d
000001f0: 9939 c63c ac89 95bb 3353 253d f998 e5bc
00000200: a888 59bd 9833 493e f4fa c6bb 5c01 603b
00000210: de43 f33c 0cac 033d 33cb 0b3d d49a a5bd
00000220: 76f1 81bd 04dd 243b 7f7e aa3d 2017 463e
00000230: ff78 1fbd 8ba4 6d3c 008d 82bc 2761 2abd
00000240: 13af 5f3d 8e7b 77bd 6df6 81bc ab8d 223c
00000250: f66b 943c 5ee8 273b 01f0 933a 246e ac3c
00000260: 94d3 193c 7edc 223c 7dae db3c 34ce 18bc
00000270: 93bd 913b 507c e3bc 505b ff3d ae7e 8dbc
00000280: 6608 bbbb be09 603d 63a5 78bb 3729 5abd
00000290: 6dbb 3abd fe06 aa3d c375 ca3c d619 ba3b
000002a0: 7640 6c3c 09e4 b13c 43ee 063b 30ce a93c
000002b0: dfb4 ce3c 7777 f43c bb02 5e3d 18d0 8fbc
000002c0: 5fff 4d3d 023b 963c 704f fc3c c995 34bd
000002d0: 6b4a e83c b9d0 7e3c a309 133d 93f4 b2bd
000002e0: 8ef2 413d d170 6dbc 2dc0 7ebd 5ad5 fc3c
000002f0: dc66 d13d 3046 5b3c c54c 70bd 5c12 74bd
00000300: 4aba 80bc 8c0c 39bc d837 7e3e c7a6 bb3d
00000310: 8c9e 3abb 1b64 363c 7000 b03c 4f71 433d
00000320: 7209 b2bd 81dd 9dbc 2f8f c23c eca4 e93c
00000330: 52c0 4fbd 77e2 db3b 0f15 7b3d 50f1 933d
00000340: 348e ae3d bee0 8bbd 8180 27bb 7908 b63b
00000350: 63d4 a1bc 20d9 42bd f237 2e3e ce6b aebd
00000360: 2745 0dbc 0d8f 9cbc 902f 393d 0a2d 323b
00000370: a682 383d 54e2 90bd 4546 9fbd de9c b43c
00000380: 2a93 cf3c 2900 e8bc b327 25bd 64a5 f73c
00000390: 8291 6fbc 1c94 be3c d5e9 c23c dba9 92bc
000003a0: 80df d2bc 4379 26bd 91aa 393e 3761 843b
000003b0: fce6 b3bb c4da 6abc c88d 0dbd 0e3f 243b
000003c0: d0cc ee3a ab7d edbc 93c1 53b9 dac0 033b
000003d0: e61e 413c e727 713d eec1 0b3d 6cdb 893c
000003e0: 4d5c 043b a39b 5e3d 736d 10bd 3fbe 233d
000003f0: c216 b13c d1a6 36bd cfe1 9e3b bb92 3bbd

bn1.weight f4 [256]
1.0376532 1.0353175 1.0050697 0.96144533 1.0584935 1.0012074 1.063713 1.0240052
1.0383921 1.0681962 1.0094677 1.0192221 1.0109762 1.0591456 1.0861965 1.0628712
1.0744472 0.9266008 0.98502535 0.9387177 1.0799276 0.9870323 1.0110017 1.0838176
1.0126935 1.0261104 1.0255644 0.9636961 1.079428 1.0508853 0.97112846 1.0639203
1.0394822 1.1405503 0.9942286 0.90239507 0.98746395 1.03339 1.0472944 1.0201164
1.1017251 1.0006843 1.0002519 1.0101832 1.0295697 1.0500845 1.0779834 0.9778126
1.0396456 1.026765 1.0027845 1.0862917 1.0875595 1.0593458 1.0156503 0.96575534
1.0709387 1.0173057 1.0083848 1.0355037 1.0751683 1.0021957 0.94683164 0.96161854
1.0377872 1.1621457 1.01184 0.9740688 0.9414262 1.0465497 0.9787836 1.0245776
1.0115566 1.0179579 1.0460941 1.0100174 1.0167164 1.0052576 0.9750423 1.0031976
1.0062624 1.020521 1.0086035 0.99835384 1.1089231 1.0273157 1.1293634 1.0141016
0.9687196 1.0642879 0.99520576 0.9860608 0.98219013 1.048358 1.0211049 1.0188004
1.1085409 1.0233417 0.9579022 1.015324 1.0141954 0.9951642 1.0572912 1.0731604
1.0528483 1.0146116 1.028856 1.0063783 0.9676482 0.98829436 0.96832603 1.0606917
0.94800377 1.0771568 1.0108503 0.98561335 1.0705171 0.9801683 1.0345968 1.0284015
1.0435878 1.0396395 0.9730683 1.0009689 0.9790048 0.99731344 1.0001807 1.1025054
1.014351 1.1060579 0.9685654 0.9785619 1.0941278 1.0536835 1.0032697 1.0257889
1.0860105 0.9879161 1.0662649 1.0497881 1.0470783 1.0057472 1.0781897 1.0591403
1.0342555 1.0682098 1.0562098 0.99945575 1.0199252 0.9709877 1.0321143 1.0078444
1.0569085 0.9902654 1.0347413 1.1181513 1.0778238 1.0837862 1.1248999 1.0409806
0.93508834 0.99588007 1.0357792 1.0051669 0.9785222 0.9752613 1.0748521 1.0087439
1.0759456 1.0506953 1.0965477 1.0599356 1.02277 0.9574388 0.93402666 1.0402489
0.97681975 1.0241987 1.0138468 1.0202676 0.99479526 1.0202068 1.0649782 1.0318693
1.0426023 1.0061516 0.9709564 1.0068201 1.0597996 1.0942867 0.9761857 0.9683218
1.0238899 1.0368692 1.0199006 0.9895216 1.0543786 1.0610874 0.9925245 0.9603933
1.0133442 1.1118369 1.0545899 1.0161074 1.0557628 0.9453808 0.9944737 1.0442365
1.0042505 0.9681268 1.0098886 0.9803597 1.0594524 1.0312417 1.0820031 1.0358201
1.104745 0.98998713 1.0169079 0.9709456 0.98944545 0.99819666 1.0496202 1.0590365
1.0159142 1.0209835 1.0162244 1.0063616 1.0745482 1.011487 0.99361485 1.0696777
1.0728757 1.0027679 1.0473589 1.081212 0.9940122 0.9789525 0.98012567 0.98721844
1.017318 1.0259794 0.9688647 1.0119541 1.0011351 0.9976029 1.0265274 0.9605481
1.058898 0.97808695 0.96947247 0.984913 0.9953459 1.0169518 0.9809634 0.98380965
00000000: d2d1 843f 4985 843f 20a6 803f 4821 763f
00000010: b77c 873f 9027 803f bf27 883f 9a12 833f
00000020: 08ea 843f a7ba 883f 3d36 813f df75 823f
00000030: ab67 813f 1592 873f 7d08 8b3f 2a0c 883f
00000040: 7c87 893f b635 6d3f 9f2a 7c3f ce4f 703f
00000050: 113b 8a3f 26ae 7c3f 8168 813f 89ba 8a3f
00000060: f19f 813f 9657 833f b245 833f cab4 763f
00000070: b22a 8a3f 6983 863f e09b 783f 8a2e 883f
00000080: c10d 853f 8dfd 913f c485 7e3f 5d03 673f
00000090: 70ca 7c3f 2046 843f be0d 863f 2d93 823f
000000a0: 5405 8d3f 6c16 803f 4108 803f af4d 813f
000000b0: f1c8 833f 2b69 863f 5cfb 893f ed51 7a3f
000000c0: 1b13 853f 096d 833f 3e5b 803f 9b0b 8b3f
000000d0: 2635 8b3f a598 873f d400 823f be3b 773f
000000e0: 8514 893f 1337 823f c112 813f 638b 843f
000000f0: 1d9f 893f f347 803f 8f63 723f a22c 763f
00000100: 36d6 843f 31c1 943f f983 813f 935c 793f
00000110: 4f01 713f 57f5 853f 9091 7a3f 5c25 833f
00000120: b07a 813f 724c 823f 69e6 853f 4048 813f
00000130: c323 823f 48ac 803f 5f9c 793f c768 803f
00000140: 35cd 803f 6fa0 823f eb19 813f 1e94 7f3f
00000150: 31f1 8d3f 157f 833f fb8e 903f 15ce 813f
00000160: 02fe 773f 963a 883f cec5 7e3f 7b6e 7c3f
00000170: d070 7b3f 9830 863f 91b3 823f 0d68 823f
00000180: abe4 8d3f dcfc 823f 1439 753f 23f6 813f
00000190: 28d1 813f 15c3 7e3f 5155 873f 525d 893f
000001a0: bcc3 863f cbde 813f 8eb1 833f 01d1 803f
000001b0: cbb7 773f dc00 7d3f 37e4 773f bfc4 873f
000001c0: 60b0 723f 46e0 893f 8b63 813f 2851 7c3f
000001d0: b406 893f 4fec 7a3f ab6d 843f a9a2 833f
000001e0: 4994 853f e812 853f 011b 793f c01f 803f
000001f0: 0fa0 7a3f ef4f 7f3f ec05 803f e61e 8d3f
00000200: 41d6 813f 4e93 8d3f e7f3 773f 0883 7a3f
00000210: 610c 8c3f 1adf 863f 246b 803f 0d4d 833f
00000220: 6402 8b3f 12e8 7c3f 5e7b 883f 755f 863f
00000230: a906 863f 53bc 803f 1f02 8a3f e991 873f
00000240: 7c62 843f 19bb 883f e231 873f 55dc 7f3f
00000250: e98c 823f a692 783f 521c 843f 0c01 813f
00000260: c748 873f 0982 7d3f 6772 843f 951f 8f3f
00000270: 21f6 893f 82b9 8a3f b8fc 8f3f da3e 853f
00000280: f361 6f3f fff1 7e3f 6a94 843f 4fa9 803f
00000290: 6e80 7a3f b9aa 793f c194 893f 851e 813f
000002a0: 96b8 893f 2f7d 863f ad5b 8c3f f8ab 873f
000002b0: 21ea 823f b61a 753f 5f1c 6f3f e026 853f
000002c0: dc10 7a3f f118 833f bbc5 813f 2198 823f
000002d0: e7aa 7e3f 2396 823f 3551 883f 4b14 843f
000002e0: fe73 853f 93c9 803f 9990 783f 7bdf 803f
000002f0: 83a7 873f 9611 8c3f 4ee7 793f f0e3 773f
00000300: d30e 833f 21b8 843f 1a8c 823f 4a51 7d3f
00000310: e1f5 863f b6d1 873f 1616 7e3f 56dc 753f
00000320: 43b5 813f ac50 8e3f cdfc 863f cf0f 823f
00000330: 3c23 873f 7a04 723f d495 7e3f 8ba9 853f
00000340: 488b 803f 28d7 773f 0844 813f daf8 7a3f
00000350: 239c 873f baff 833f 147f 8a3f c195 843f
00000360: 4968 8d3f cc6f 7d3f 0a2a 823f e48f 783f
00000370: 4c4c 7d3f d189 7f3f f459 863f 828e 873f
00000380: 7a09 823f 96af 823f a413 823f 75d0 803f
00000390: cc8a 893f 6878 813f 8b5d 7e3f 33eb 883f
000003a0: fe53 893f b35a 803f db0f 863f 2865 8a3f
000003b0: 9577 7e3f a29c 7a3f 84e9 7a3f 59ba 7c3f
000003c0: 7a37 823f 4b53 833f 8407 783f b687 813f
000003d0: 3225 803f e762 7f3f 4065 833f 7be6 753f
000003e0: f889 873f e863 7a3f 592f 783f 4223 7c3f
000003f0: fdce 7e3f 7a2b 823f 6b20 7b3f f3da 7b3f

bn1.bias f4 [256]
0.099069074 -0.25118893 0.041552357 0.03451489 0.06470502 0.06807049 0.040238105 0.1154887
0.2134297 -0.0051713097 0.050535668 0.100010015 0.016879471 0.018058402 0.005122971 0.22744508
-0.06489345 0.02107498 0.014183332 -0.025010152 -0.008974948 -0.04290759 0.016113449 0.09596029
-0.0015950471 -0.04653728 0.13732062 -0.17460044 0.09393131 -0.111903995 -0.04454196 -0.102630876
-0.03867098 0.09427239 0.13316607 0.06900211 -0.008269883 -0.116153285 0.03373595 -0.10782878
0.16188407 0.10990639 0.1750466 0.08754234 -0.036521073 0.05684954 -0.17996514 0.005533639
0.119399965 -0.07028557 0.10952645 0.080995776 0.099821 0.102836944 0.047209736 0.12273079
0.07827003 -0.0055533443 -0.047403548 0.022359231 0.16008182 -0.08063766 0.1051159 -0.06459159
-0.12815958 -0.03645226 -0.025389757 0.12050628 -0.0154228 -0.06598453 -0.035075378 -0.0145668145
-0.078690074 0.12526307 -0.087188706 -0.06936402 -0.09332549 0.078115374 -0.037813626 -0.10152708
-0.04760557 0.1629224 0.12088867 -0.14762855 0.22715867 -0.10433293 0.053389587 0.102912486
0.04563664 -0.20175515 -0.07473249 0.0066557685 0.20753784 -0.23623466 -0.037332542 -0.059766777
0.06655465 -0.094025806 -0.07561492 -0.1355769 -0.08218925 -0.04154003 -0.05018192 -2.0667569e-05
-0.04290876 -0.107671306 -0.113473386 0.040645406 -0.0103788115 -0.03492421 0.029957507 0.0010869425
0.0826708 -0.013751057 -0.10535745 -0.09189494 -0.011273364 0.14103124 0.15666442 -0.12653475
-0.11613926 -0.07002715 -0.0007742456 0.1112362 -0.049880654 -0.13187876 -0.22953874 -0.05549951
0.055929232 0.08409952 -0.008660555 0.04569362 0.15392558 0.07916683 0.017299116 -0.1192243
0.08394331 0.010048931 0.03283377 -0.08590759 0.023594119 -0.003939202 -0.0382531 -0.026239326
-0.10041746 -0.044008594 -0.10950461 -0.1505551 0.01241417 0.12210405 -0.027558027 0.12270752
-0.041191038 -0.030958219 0.16297427 0.2557517 0.083588466 -0.032365788 -0.07903525 0.080905154
-0.108486935 0.07868588 0.017386828 -0.051768564 0.020280724 0.024762692 -0.1560631 -0.08596357
0.13594654 -0.07989252 0.010316412 0.19776571 -0.0074531017 0.101403035 0.09460611 0.08881469
0.1414643 0.043963876 0.045376703 -0.011669893 0.12333406 -0.06084944 0.029995736 -0.17756677
0.09828236 0.1515187 0.051015202 0.0027630287 -0.17456084 0.0042013014 -0.012018091 0.11410389
0.112310134 -0.18157879 -0.03046656 0.005603 0.17242 -0.11096721 0.01700632 -0.059666164
-0.10082293 -0.049958486 -0.10036653 0.12417031 0.15049422 0.005617091 -0.0053930604 0.078546375
-0.044691313 -0.09340944 0.1386778 0.094628364 0.11949531 0.027487012 -0.010059438 -0.18335482
-0.033352394 0.009798557 0.06936476 0.054241296 0.029894317 0.19348486 -0.12046446 0.046336
-0.09534086 -0.042278606 0.033497583 -0.14666079 0.044055074 0.050908525 -0.23293489 -0.01677455
0.01322205 0.02065585 0.061484158 0.24286757 -0.0056769666 0.10751312 -0.14947954 -0.04233337
0.17837581 0.086757265 -0.021078318 0.13296278 0.112661585 0.05309188 -0.075503305 0.17037345
0.04046333 -0.009506679 0.104820944 -0.08124874 -0.03558781 -0.15340464 0.05342351 -0.025805395
00000000: bae4 ca3d d69b 80be ce32 2a3d 7c5f 0d3d
00000010: 1184 843d 8b68 8b3d b6d0 243d 5785 ec3d
00000020: 518d 5a3e 1774 a9bb 7dfe 4e3d 0dd2 cc3d
00000030: d146 8a3c 37ef 933c 98de a73b 5de7 683e
00000040: dbe6 84bd 70a5 ac3c 3561 683c 17e2 ccbc
00000050: a90b 13bc debf 2fbd 5a00 843c d486 c43d
00000060: e610 d1ba e09d 3ebd c79d 0c3e 75ca 32be
00000070: 0f5f c03d ec2d e5bd a171 36bd 2330 d2bd
00000080: 7665 1ebd e211 c13d b05c 083e fa50 8d3d
00000090: 677e 07bc c6e1 edbd b52e 0a3d 56d5 dcbd
000000a0: f0c4 253e 9a16 e13d 6a3f 333e 6649 b33d
000000b0: 1f97 15bd 10db 683d c848 38be 8753 b53b
000000c0: f887 f43d e2f1 8fbd 674f e03d 1de1 a53d
000000d0: f46e cc3d 2d9c d23d ff5e 413d 485a fb3d
000000e0: 0a4c a03d d4f8 b5bb 392a 42bd b52a b73c
000000f0: 7dec 233e 5c25 a5bd 0147 d73d 9848 84bd
00000100: 443c 03be f74e 15bd 2efe cfbc ffcb f63d
00000110: e9af 7cbc e622 87bd 33ab 0fbd a6a9 6ebc
00000120: 4328 a1bd f644 003e fe8f b2bd b90e 8ebd
00000130: 6f21 bfbd f4fa 9f3d 76e2 1abd 6eed cfbd
00000140: 0ffe 42bd 21d5 263e 7b94 f73d f02b 17be
00000150: 489c 683e 81ac d5bd 0aaf 5a3d c8c3 d23d
00000160: 7ced 3a3d e798 4ebe 590d 99bd a218 da3b
00000170: cd84 543e 80e7 71be 02ea 18bd 02ce 74bd
00000180: ce4d 883d 9a90 c0bd ffdb 9abd acd4 0abe
00000190: d652 a8bd e125 2abd 8f8b 4dbd 445f adb7
000001a0: 19c1 2fbd c682 dcbd bc64 e8bd cc7b 263d
000001b0: e40b 2abc b00c 0fbd 7269 f53c bd77 8e3a
000001c0: 4f4f a93d 1d4c 61bc a6c5 d7bd 6a33 bcbd
000001d0: eab3 38bc 7e6a 103e a36c 203e 5392 01be
000001e0: 6cda edbd 656a 8fbd bef6 4aba cecf e33d
000001f0: a84f 4cbd 3a0b 07be 340c 6bbe 7453 63bd
00000200: 0d16 653d 5f3c ac3d 00e5 0dbc 3c29 3b3d
00000210: ab9e 1d3e 3822 a23d e0b6 8d3c df2b f4bd
00000220: 78ea ab3d 46a4 243c b47c 063d 52f0 afbd
00000230: 7448 c13c 6c14 81bb 48af 1cbd dbf3 d6bc
00000240: aba7 cdbd 5b42 34bd f443 e0bd 1e2b 1abe
00000250: ce64 4b3c b011 fa3d 5fc1 e1bc 154e fb3d
00000260: efb7 28bd 179c fdbc bae2 263e e3f1 823e
00000270: 6e30 ab3d fd91 04bd 3cdd a1bd 9ab1 a53d
00000280: 662e debd 1026 a13d d26e 8e3c 460b 54bd
00000290: c323 a63c 21db ca3c 01cf 1fbe ab0d b0bd
000002a0: 9235 0b3e b19e a3bd 2b06 293c 1883 4a3e
000002b0: 2639 f4bb 65ac cf3d d9c0 c13d 7ae4 b53d
000002c0: 04dc 103e 7713 343d ecdc 393d 1433 3fbc
000002d0: 9196 fc3d 433d 79bd 9eb9 f53c 10d4 35be
000002e0: 4348 c93d b827 1b3e 51f5 503d ee13 353b
000002f0: 14c0 32be 12ab 893b 87e7 44bc 4daf e93d
00000300: db02 e63d caef 39be 0295 f9bc 5f99 b73b
00000310: de8e 303e c742 e3bd d750 8b3c 8264 74bd
00000320: 417c cebd 45a1 4cbd f88c cdbd 014d fe3d
00000330: 281b 1a3e 930f b83b 45b8 b0bb ecdc a03d
00000340: 3d0e 37bd 734d bfbd 8e01 0e3e 84cc c13d
00000350: f5b9 f43d 712c e13c 57d0 24bc 5ec1 3bbe
00000360: 859c 08bd 208a 203c 1c0f 8e3d 1f2c 5e3d
00000370: ede4 f43c e520 463e 12b6 f6bd d1ca 3d3d
00000380: 1242 c3bd 552c 2dbd c334 093d 3f2e 16be
00000390: 1873 343d 7585 503d 7c86 6ebe c86a 89bc
000003a0: 4ca1 583c 7536 a93c d0d6 7b3d 47b2 783e
000003b0: d905 babb d72f dc3d 2a11 19be c165 2dbd
000003c0: 26a8 363e cbad b13d 70ac acbc 6527 083e
000003d0: 1ebb e63d df76 593d 7aa1 9abd 6176 2e3e
000003e0: e0bc 253d e7c1 1bbc 5dac d63d bd65 a6bd
000003f0: 86c4 11bd 1b16 1dbe 9cd2 5a3d d665 d3bc

bn1.running_mean f4 [256]
0.08741117 -1.1741791 0.013284157 -0.25988314 -0.15250865 -0.11390259 -0.6041135 -0.083386675
0.31008685 -0.34102452 -0.074058354 0.08535735 -1.0449339 -0.108671226 0.043892205 -0.004027209
0.845365 0.26795056 -0.06052132 -0.25773588 -0.048610054 0.7506054 -0.33265147 -0.06927948
-0.28452381 -0.22186835 0.0739712 -0.54174477 -0.35888553 0.16581205 0.616171 0.9445019
-0.81346023 -0.10107345 0.20427768 1.1378603 -0.06466701 -0.06028351 -0.041800197 -0.10183496
0.09572436 0.08669298 0.08426894 0.3059382 -0.59442437 -0.005367077 0.3901225 0.06903655
0.009980452 -0.050870355 0.19752383 -0.12791607 -0.0037514078 -0.028896732 0.2925601 0.1041778
-0.112165436 -0.49918738 1.4497246 0.33146575 -0.10421746 -0.6531178 -0.0785123 1.0091382
0.23441172 -0.13893043 -0.78237027 0.13076147 -0.20340055 -0.2571386 0.24443236 -0.43195128
1.1214645 0.45213217 -0.031165985 -0.36464196 0.6706671 0.13775131 0.48678732 0.9153683
-0.12466863 -0.24919902 0.28835028 0.40657428 0.10555595 -1.0517147 0.045584217 0.16015351
0.37432912 -0.473456 0.033092096 -0.33289376 0.09159154 -1.053805 0.48893636 -0.07366868
-0.2009486 0.4954916 0.59392333 0.89197254 0.35786912 0.23645324 0.58871675 0.0048135496
-0.024304455 0.08106079 0.7297954 0.27331117 0.13410288 0.18857203 -0.20658532 -0.7113783
-0.021487417 0.17932089 -0.46407723 0.77349573 0.04359827 -0.6504739 0.03857693 0.5566086
0.31147438 -0.6114572 0.97561014 0.09806121 -0.4796424 -0.82323116 -1.1444805 -0.86718816
-0.48772937 -0.15160337 -0.34328708 -0.25032347 -0.08924795 0.0019499415 0.44670293 -1.0293361
-0.44317383 0.21985245 0.9942528 -0.7542733 0.23518406 -0.112540245 0.05379553 -0.582846
0.4290041 0.52115095 -0.32552522 1.0992484 0.21434589 0.62422615 -0.20218694 0.7838799
-0.11869352 -0.007856849 0.07951583 0.0057980153 0.071520194 -0.13615248 -0.23896399 -0.1808743
-1.3740005 0.5124296 -0.24922833 -0.6040041 0.7007922 0.21117482 0.4768556 -1.1225022
0.05031494 -0.36815298 0.09256436 -0.019035077 0.18251202 0.20155537 -0.07103345 -0.33955625
0.10253615 -0.09311855 0.32596537 0.0724638 0.072575904 -0.31368122 -0.5552387 -0.7180325
0.06808263 -0.11262004 -0.7469249 0.25477043 -0.36558735 -0.054609105 0.7250628 -0.81563926
-0.042155173 -0.11204371 -0.6448336 -0.16433033 -0.05447514 0.123941734 -0.64846635 -0.63540787
-0.49137804 -0.622069 -0.40302387 -0.018855859 -0.07436386 -0.76007026 0.1313455 -0.6934873
0.92441076 -0.02460656 -0.06489492 -0.5882028 0.051236983 -0.03059937 -0.5363917 -1.1280985
-0.1210973 0.10900557 -0.050903145 0.7561953 0.17378634 0.1751775 -0.44579163 -0.06680496
0.26576722 0.51696676 -0.0049553653 -0.575067 0.13738616 -0.082273394 -1.1908551 -0.5148451
-0.62785906 -0.018553188 -0.37387508 0.19800818 0.054889143 -0.2101609 -0.64543176 0.57608
-0.08506026 -0.11136572 0.020572655 0.019197939 0.058941 0.07155486 -0.14075221 0.31988063
0.22193463 0.15724319 0.2573564 -0.3482108 -0.54235 -0.567024 0.06194994 -0.5767353
00000000: a104 b33d 804b 96bf cba5 593c 670f 85be
00000010: 3a2b 1cbe c345 e9bd 2fa7 1abf a2c6 aabd
00000020: b4c3 9e3e c49a aebe e8ab 97bd d6cf ae3d
00000030: 65c0 85bf 058f debd 50c8 333d adf6 83bb
00000040: d769 583f d130 893e 34e5 77bd f5f5 83be
00000050: 561b 47bd ad27 403f 4b51 aabe 66e2 8dbd
00000060: 1bad 91be 7531 63be 367e 973d c9af 0abf
00000070: d8bf b7be a2ca 293e 62bd 1d3f e0ca 713f
00000080: ee3e 50bf 99ff cebd 2b2e 513e 68a5 913f
00000090: 2370 84bd d7eb 76bd af36 2bbd d98e d0bd
000000a0: 220b c43d 178c b13d 3295 ac3d efa3 9c3e
000000b0: 322c 18bf 4ede afbb 23be c73e 0963 8d3d
000000c0: 0d85 233c 6f5d 50bd b043 4a3e 6efc 02be
000000d0: 2eda 75bb d7b8 ecbc 70ca 953e 2c5b d53d
000000e0: feb6 e5bd 7d95 ffbe 9390 b93f e1b5 a93e
000000f0: f76f d5bd ba32 27bf 0fcb a0bd 712b 813f
00000100: a009 703e c743 0ebe 6b49 48bf 56e6 053e
00000110: 3c48 50be aca7 83be 7a4c 7a3e b828 ddbe
00000120: 268c 8f3f de7d e73e cf4f ffbc 5ab2 babe
00000130: d7b0 2b3f ae0e 0d3e 303c f93e 9455 6a3f
00000140: 4452 ffbd 072e 7fbe a6a2 933e 812a d03e
00000150: b82d d83d 969e 86bf 84b6 3a3d 48ff 233e
00000160: 11a8 bf3e d368 f2be 948b 073d 0d71 aabe
00000170: 5894 bb3d 15e3 86bf de55 fa3e 9bdf 96bd
00000180: 78c5 4dbe 13b1 fd3e 5c0b 183f 5058 643f
00000190: 9f3a b73e cc20 723e 24b6 163f fbba 9d3b
000001a0: 231a c7bc 3303 a63d dfd3 3a3f 71ef 8b3e
000001b0: 4452 093e 0719 413e 1a8b 53be e31c 36bf
000001c0: 6106 b0bc e59f 373e 889b edbe d103 463f
000001d0: 1994 323d 7585 26bf d802 1e3d e77d 0e3f
000001e0: 9279 9f3e 7688 1cbf 96c1 793f 51d4 c83d
000001f0: b093 f5be 47bf 52bf 567e 92bf 0b00 5ebf
00000200: aab7 f9be ea3d 1bbe 53c3 afbe 662a 80be
00000210: a1c7 b6bd 2e95 ff3a 3fb6 e43e 49c1 83bf
00000220: aee7 e2be 0021 613e 5a87 7e3f 0e18 41bf
00000230: 17d4 703e 807b e6bd b458 5c3d 6535 15bf
00000240: 6da6 db3e 266a 053f 3eab a6be 2cb4 8c3f
00000250: 7d7d 5b3e 49cd 1f3f 180a 4fbe 5aac 483f
00000260: 9715 f3bd 03ba 00bc 32d9 a23d 47fd bd3b
00000270: 2e79 923d 8e6b 0bbe fab2 74be 1d37 39be
00000280: 40df afbf 962e 033f b635 7fbe 03a0 1abf
00000290: 1e67 333f 363e 583e 6b26 f43e 27ae 8fbf
000002a0: 0a17 4e3d 8c7e bcbe 6292 bd3d 73ef 9bbc
000002b0: 6ee4 3a3e 8864 4e3e fc79 91bd 51da adbe
000002c0: 79fe d13d f0b4 bebd efe4 a63e e767 943d
000002d0: ada2 943d d39a a0be 2024 0ebf fad0 37bf
000002e0: e86e 8b3d 56a5 e6bd 7836 3fbf 4571 823e
000002f0: 442e bbbe ccad 5fbd b79d 393f bccd 50bf
00000300: e7aa 2cbd 2c77 e5bd d113 25bf 3646 28be
00000310: 5321 5fbd 2ad5 fd3d e401 26bf 17aa 22bf
00000320: e795 fbbe ea3f 1fbf 2559 cebe 9a77 9abc
00000330: 144c 98bd f793 42bf 6f7f 063e 6288 31bf
00000340: 2fa6 6c3f b293 c9bc a1e7 84bd 7594 16bf
00000350: dfdd 513d 88ab fabc f750 09bf 8865 90bf
00000360: dc01 f8bd 503e df3d d17f 50bd 0496 413f
00000370: 0cf5 313e bb61 333e cd3e e4be 0ad1 88bd
00000380: a412 883e ef57 043f 9e60 a2bb 9737 13bf
00000390: f5ae 0c3e f47e a8bd f16d 98bf e3cc 03bf
000003a0: 5fbb 20bf dbfc 97bc 8e6c bfbe a8c2 4a3e
000003b0: 70d3 603d 6b34 57be 043b 25bf fb79 133f
000003c0: 1334 aebd b613 e4bd fc87 a83c ff44 9d3c
000003d0: 1e6c 713d 5b8b 923d 5921 10be 65c7 a33e
000003e0: d542 633e 5c04 213e 38c4 833e b048 b2be
000003f0: 73d7 0abf 7c28 11bf 38bf 7d3d eda4 13bf

bn1.running_var f4 [256]
0.034470685 0.107589684 0.06984492 0.12761919 0.09155959 0.26189855 0.040127527 0.101118185
0.102250956 0.088925324 0.1417195 0.2745203 0.05609259 0.06550763 0.04027322 0.05853429
0.044819355 0.3067635 0.10405971 0.30289033 0.04321633 0.11168898 0.07637988 0.060459126
0.044561476 0.07348093 0.059994187 0.04274392 0.03143685 0.0989077 0.14340317 0.029749423
0.06137518 0.027565764 0.2650506 0.3855708 0.06273159 0.06556917 0.110101245 0.22986962
0.032174565 0.07540472 0.38482687 0.30698937 0.056134857 0.20863974 0.1418446 0.13144597
0.045514937 0.07057956 0.05537916 0.06814251 0.046280086 0.021755908 0.040478814 0.20236318
0.04536563 0.07335259 0.07074568 0.20097026 0.023487808 0.023152703 0.34984046 0.05856032
0.033297203 0.06917615 0.029267527 0.16231163 0.07893723 0.07268196 0.10204076 0.050037056
0.14682221 0.0526822 0.034607824 0.069327235 0.15322392 0.0802952 0.082285404 0.18239857
0.15203 0.035511497 0.17249504 0.035466846 0.02454678 0.08542854 0.019178165 0.31728595
0.118917 0.15234713 0.12243651 0.059772305 0.33601934 0.119529605 0.071034215 0.07116939
0.06436698 0.028984345 0.22221056 0.032666232 0.07747181 0.057744168 0.02595573 0.023530887
0.058886446 0.094382495 0.08079221 0.21122348 0.038921554 0.08067933 0.43362287 0.01868555
0.51860684 0.045775652 0.13372838 0.126833 0.0457954 0.049755696 0.088243656 0.03332911
0.034676738 0.07696399 0.08119829 0.21280037 0.040381253 0.062215406 0.1559105 0.03166881
0.023968173 0.05263898 0.33400816 0.070112735 0.08127151 0.047242466 0.07987923 0.12373741
0.04335595 0.20346943 0.026806582 0.07024396 0.038880665 0.06151718 0.05819812 0.10029621
0.098689936 0.0796182 0.12899308 0.09166545 0.043920677 0.19709863 0.07128107 0.16738081
0.083745964 0.14593214 0.14229727 0.05704675 0.08411822 0.07925945 0.040134534 0.021418486
0.071001455 0.031007156 0.20628965 0.061914746 0.14388396 0.10896371 0.045813788 0.06840174
0.07976423 0.14778246 0.024158923 0.16212438 0.049061015 0.10765844 0.30499274 0.16905689
0.14935282 0.08852369 0.17514607 0.05388166 0.15544935 0.071332425 0.03617196 0.28987813
0.06048369 0.3003327 0.049517605 0.04434279 0.04236478 0.060194485 0.06455074 0.08455941
0.14786623 0.060514495 0.022600647 0.08773852 0.09097444 0.052823786 0.09488567 0.14268027
0.20579126 0.023749938 0.046560854 0.1451042 0.122148156 0.07046593 0.04951717 0.23708805
0.06624684 0.0997374 0.41558528 0.6909211 0.041483 0.039921597 0.09358573 0.08519925
0.0299123 0.11565282 0.10990612 0.24044403 0.054236595 0.10614318 0.13666 0.024937777
0.07938433 0.32931715 0.07446633 0.07607847 0.04956691 0.09306069 0.20304458 0.04514364
0.02211106 0.091212176 0.04102059 0.039562084 0.20482066 0.10258143 0.09577547 0.04482453
0.0855686 0.33779952 0.41874924 0.10199143 0.03669021 0.37376523 0.20836651 0.094544455
0.04636994 0.13261722 0.2004729 0.12028999 0.07947618 0.04941027 0.1506986 0.08857721
00000000: 2231 0d3d fb57 dc3d da0a 8f3d 9bae 023e
00000010: 9883 bb3d 9117 863e c35c 243d 0d17 cf3d
00000020: f368 d13d 7b1e b63d eb1e 113e ed8d 8c3e
00000030: 58c1 653d dd28 863d 88f5 243d a7c1 6f3d
00000040: 8094 373d 1b10 9d3e 421d d53d 7114 9b3e
00000050: 9b03 313d 31bd e43d 0e6d 9c3d fda3 773d
00000060: 1886 363d 2b7d 963d 77bc 753d 4014 2f3d
00000070: edc3 003d 1f90 ca3d 48d8 123e 10b5 f33c
00000080: 8a64 7b3d 99d1 e13c b6b4 873e 8969 c53e
00000090: 6b79 803d 2149 863d c37c e13d f162 6b3e
000000a0: 7ac9 033d ca6d 9a3d 0708 c53e b62d 9d3e
000000b0: aaed 653d a8a5 553e b63f 113e c699 063e
000000c0: df6d 3a3d 048c 903d 42d5 623d 4d8e 8b3d
000000d0: 3090 3d3d 7239 b23c 1dcd 253d 4b38 4f3e
000000e0: 50d1 393d e239 963d 1ce3 903d 26cb 4d3e
000000f0: 8169 c03c bdaa bd3c 4a1e b33e f2dc 6f3d
00000100: a662 083d 3aac 8d3d 74c2 ef3c 0535 263e
00000110: d8a9 a13d 48da 943d bffa d03d a8f3 4c3d
00000120: 9058 163e 4ac9 573d efc0 0d3d 70fb 8d3d
00000130: bbe6 1c3e cf71 a43d 4085 a83d b1c6 3a3e
00000140: c1ad 1b3e 8174 113d 8aa2 303e af45 113d
00000150: 5416 c93c 29f5 ae3d 871b 9d3c 4e73 a23e
00000160: c28a f33d e300 1c3e febf fa3d ced3 743d
00000170: ba0a ac3e f0cb f43d 637a 913d 42c1 913d
00000180: d6d2 833d 9470 ed3c 2a8b 633e 07cd 053d
00000190: 8aa9 9e3d 2685 6c3d 1ca1 d43c d9c3 c03c
000001a0: ea32 713d 9c4b c13d 6376 a53d f84a 583e
000001b0: 356c 1f3d 343b a53d d103 de3e 7012 993c
000001c0: 6bc3 043f 407f 3b3d 18f0 083e 83e0 013e
000001d0: f593 3b3d a1cc 4b3d 17b9 b43d 1b84 083d
000001e0: 3209 0e3d 4c9f 9d3d 4a4b a63d 57e8 593e
000001f0: d066 253d 95d5 7e3d 01a7 1f3e 27b7 013d
00000200: e758 c43c f99b 573d 1e03 ab3e 4497 8f3d
00000210: ad71 a63d 5181 413d b997 a33d 0a6a fd3d
00000220: 0296 313d 4a5a 503e 7a99 db3c 11dc 8f3d
00000230: 5541 1f3d 70f9 7b3d 2761 6e3d 1968 cd3d
00000240: f31d ca3d de0e a33d c316 043e 18bb bb3d
00000250: 2be6 333d 39d4 493e cffb 913d e065 2b3e
00000260: 0183 ab3d 3c6f 153e 60b6 113e daa9 693d
00000270: 2c46 ac3d c752 a23d 1c64 243d d275 af3c
00000280: 3669 913d b802 fe3c 983d 533e 519a 7d3d
00000290: 5156 133e 5e28 df3d 3da7 3b3d 3616 8c3d
000002a0: 6e5b a33d 4954 173e efe8 c53c ef03 263e
000002b0: 34f4 483d 077c dc3d 0228 9c3e 401d 2d3e
000002c0: f2ef 183e e94b b53d 7e59 333e 04b3 5c3d
000002d0: 1d2e 1f3e bc16 923d 0d29 143d e86a 943e
000002e0: bfbd 773d 35c5 993e f9d2 4a3d c9a0 353d
000002f0: b186 2d3d 7e8e 763d 2e33 843d 7c2d ad3d
00000300: 3f6a 173e 0cde 773d fe24 b93c 41b0 b33d
00000310: cf50 ba3d c15d 583d 6b53 c23d c71a 123e
00000320: f2ba 523e 3b8f c23c 98b6 3e3d 3296 143e
00000330: d028 fa3d 7150 903d 84d2 4a3d 36c7 723e
00000340: 6cac 873d 1f43 cc3d 98c7 d43e 35e0 303f
00000350: 14ea 293d d484 233d e0a9 bf3d f27c ae3d
00000360: a40a f53c 63db ec3d 7616 e13d f636 763e
00000370: 3127 5e3d 9861 d93d 99f0 0b3e 4f4a cc3c
00000380: 4094 a23d 429c a83e ce81 983d 07cf 9b3d
00000390: ac06 4b3d 9a96 be3d ebea 4f3e 8ae8 383d
000003a0: 4122 b53c 73cd ba3d 3505 283d da0b 223d
000003b0: 82bc 513e 3616 d23d ee25 c43d ed99 373d
000003c0: 973e af3d 0ff4 ac3e 4d66 d63e e2e0 d03d
000003d0: 7948 163d 285e bf3e 085e 553e 86a0 c13d
000003e0: 68ee 3d3d cfcc 073e c548 4d3e 995a f63d
000003f0: 68c4 a23d 6c62 4a3d bc50 1a3e f867 b53d

fc2.weight f4 [128, 256]
0.03827243 0.025263648 -0.0054603796 0.0061862674 0.12020158 -0.04528953 -0.13637361 -0.03490571
0.05335966 -0.10199793 0.026008805 0.014675904 -0.05816814 -0.11552135 -0.03974613 -0.00495615
-0.007221818 -0.02841669 0.10030752 -0.020917932 0.053171866 -0.07354612 -0.08631706 -0.16161667
0.043257773 -0.15707034 -0.105650306 -0.07595502 0.0005960476 -0.120729856 0.051621586 0.0034937004
0.07671377 0.03577417 0.010231983 0.14686269 0.061542593 -0.0509884 -0.028363537 -0.07743962
-0.06320166 -0.019248946 -0.021326467 0.08919035 -0.06469728 0.005076932 -0.053116452 -0.05145309
0.016713182 0.1372263 -0.11664018 -0.12946448 0.015588988 -0.18540026 0.0010175576 0.069058836
-0.070685185 -0.033291593 0.08941675 0.10576746 -0.008401122 0.06394575 -0.0061768475 0.0035103287
-0.15379317 0.06378334 -0.091567226 0.01982499 -0.0029534318 -0.017255986 -0.069410786 -0.045916103
-0.061504398 -0.036081597 0.016769089 -0.08549825 0.03056933 0.018608868 0.012895731 0.0076050786
0.045033414 -0.100479245 0.006262833 0.050808568 -0.03560231 -0.04569825 -0.043056287 0.07324688
-0.074819006 -0.05227078 -0.05879775 -0.039865647 -0.023723936 -0.04490955 0.11634674 0.037986495
-0.01793849 0.11624249 0.02092876 0.12314967 -0.0030396474 0.15788284 0.13335966 0.05357092
-0.060839787 0.08816311 0.04993991 -0.061215796 -0.023327496 -0.02504355 -0.09258976 -0.12660465
-0.028206054 -0.090249196 -0.092741564 0.06676202 0.02891636 0.121068045 0.11028153 0.111904375
0.0797435 0.042007484 -0.014992526 -0.18417156 0.040142007 0.011866158 -0.050416753 -0.105946586
-0.11593821 -0.00955683 -0.011074246 -0.10079609 -0.11076742 -0.16599499 -0.07357405 -0.00019436258
-0.08884465 0.07025259 0.008033428 -0.0021815964 -0.06953153 0.09604197 0.04368801 -0.0066193254
0.08721441 0.05223499 0.06890537 -0.013298931 0.066156104 -0.017289566 0.0038714001 0.11598871
0.048954092 0.022679223 -0.031618606 -0.11999168 -0.0035761818 0.053102415 0.09243963 -0.08069393
0.02979671 -0.0013954499 -0.0018458879 -0.034346387 0.07641935 -0.101486444 0.012578302 -0.062753044
-0.053260796 -0.028871385 -0.003544163 -0.08499658 0.008267985 -0.041865196 -0.06109811 -0.029063366
0.037085827 0.16513798 -0.030848162 -0.067281365 -0.00068243564 0.03909034 0.01854085 -0.01919135
-0.095960684 0.034358546 -0.09930089 0.038992852 -0.021302849 -0.0705166 -0.0020872469 0.039751086
-0.13503456 0.20456667 -0.06672293 -0.03015812 -0.05899656 -0.04165347 -0.08972423 0.13636215
0.06401485 -0.06929541 0.078088805 -0.022008982 0.00677846 -0.020590685 0.017998878 0.015302168
0.08870178 0.015385682 -0.01229669 -0.057589468 0.042244907 -0.010737757 -0.03349008 -0.03449814
-0.010139727 0.12693329 -0.05327894 0.032277115 -0.08645356 0.0721752 -0.08317285 -0.13915652
-0.086856134 0.016601728 0.0053603738 -0.10349828 -0.06614413 0.0658219 -0.07421781 -0.20029268
0.07106619 0.059047643 -0.102008335 0.037081823 -0.0823781 0.045404445 -0.118429445 -0.022826416
-0.013920358 0.017564246 -0.013073781 0.0044211512 0.10709035 0.0899618 -0.092553094 0.01756806
-0.09004664 -0.08672383 -0.0037196872 0.008810329 0.106941834 0.014778447 0.006167844 0.1325607
00000000: 8dc3 1c3d b6f5 ce3c fcec b2bb 2cb6 ca3b
00000010: 3f2c f63d 8481 39bd 86a5 0bbe 4af9 0ebd
00000020: a98f 5a3d 4ae4 d0bd 6b10 d53c 3473 703c
00000030: b741 6ebd 7596 ecbd d7cc 22bd 3367 a2bb
00000040: 00a5 ecbb 1eca e8bc 076e cd3d 155c abbc
00000050: beca 593d 599f 96bd 00c7 b0bd d77e 25be
00000060: 102f 313d 0cd7 20be 305f d8bd 4e8e 9bbd
00000070: 1440 1c3a 3741 f7bd 2871 533d 91f6 643b
00000080: 1c1c 9d3d f087 123d 0ca4 273c 2c63 163e
00000090: 1614 7c3d 36d9 50bd a65a e8bc aa98 9ebd
000000a0: df6f 81bd f7af 9dbc d8b4 aebc 6ea9 b63d
000000b0: 0280 84bd 645c a63b a390 59bd 7ac0 52bd
000000c0: 15ea 883c 0d85 0c3e 0ce1 eebd 5692 04be
000000d0: f468 7f3c 91d9 3dbe 915f 853a b86e 8d3d
000000e0: 65c3 90bd c45c 08bd 2120 b73d 9c9c d83d
000000f0: dca4 09bc fdf5 823d 2767 cabb 8b0d 663b
00000100: f57b 1dbe d7a0 823d 9987 bbbd 0468 a23c
00000110: 5d8e 41bb 6d5c 8dbc 3e27 8ebd 8612 3cbd
00000120: 09ec 7bbd 4cca 13bd 545f 893c b519 afbd
00000130: 886c fa3c a071 983c 9e48 533c 0634 f93b
00000140: f574 383d 10c8 cdbd 7338 cd3b a51c 503d
00000150: bad3 11bd 172e 3bbd ca5b 30bd 7602 963d
00000160: b53a 99bd e319 56bd e9d5 70bd 294a 23bd
00000170: b358 c2bc 14f3 37bd 3347 ee3d ba97 1b3d
00000180: bdf3 92bc 8b10 ee3d ca72 ab3c e535 fc3d
00000190: d234 47bb 0aac 213e 6f8f 083e 2e6d 5b3d
000001a0: 2433 79bd dc8e b43d cb8d 4c3d 6abd 7abd
000001b0: 4e19 bfbc 2228 cdbc b39f bdbd a6a4 01be
000001c0: 6210 e7bc 92d4 b8bd 4aef bdbd 87ba 883d
000001d0: 01e2 ec3c 86f2 f73d 48db e13d 1f2e e53d
000001e0: 8f50 a33d 0a10 2c3d 36a3 75bc 7897 3cbe
000001f0: f26b 243d 466a 423c cc81 4ebd 86fa d8bd
00000200: 0371 edbd 4094 1cbc c170 35bc 2e6e cebd
00000210: 07da e2bd 97fa 29be fead 96bd cfcd 4bb9
00000220: 2ff4 b5bd 97e0 8f3d a49e 033c 1df9 0ebb
00000230: 8c66 8ebd a7b1 c43d 33f2 323d ede6 d8bb
00000240: 789d b23d 5bf4 553d 421e 8d3d c2e3 59bc
00000250: da7c 873d d9a2 8dbc 51b7 7d3b 7d8b ed3d
00000260: 1684 483d c7c9 b93c 8382 01bd 33be f5bd
00000270: 605e 6abb eb81 593d fd50 bd3d dc42 a5bd
00000280: 3b18 f43c 87e7 b6ba b8f1 f1ba ccae 0cbd
00000290: c081 9c3d 20d8 cfbd 3915 4e3c ab84 80bd
000002a0: fe27 5abd af83 ecbc 3045 68bb b012 aebd
000002b0: 7176 073c d77a 2bbd 0342 7abd 4c16 eebc
000002c0: 4fe7 173d ee19 293e 49b5 fcbc d0ca 89bd
000002d0: 7be5 32ba 311d 203d fbe2 973c 2e37 9dbc
000002e0: 0987 c4bd 8cbb 0c3d 445e cbbd f8b6 1f3d
000002f0: 5083 aebc 026b 90bd 31ca 08bb 09d2 223d
00000300: 8046 0abe ed79 513e 08a6 88bd 290e f7bc
00000310: 60a6 71bd d49c 2abd 56c1 b7bd 85a2 0b3e
00000320: 381a 833d c0ea 8dbd 06ed 9f3d 2e4c b4bc
00000330: d81d de3b ccad a8bc 6272 933c f2b5 7a3c
00000340: 47a9 b53d 3a14 7c3c 0e78 49bc efe2 6bbd
00000350: ff08 2d3d 6bed 2fbc e52c 09bd ec4d 0dbd
00000360: 1921 26bc cdfa 013e 053b 5abd 0235 043d
00000370: 900e b1bd 97d0 933d 8756 aabd 0c7f 0ebe
00000380: a1e1 b1bd 5900 883c 13a6 af3b e8f6 d3bd
00000390: 9376 87bd a2cd 863d 82ff 97bd 8619 4dbe
000003a0: 278b 913d f1db 713d bfe9 d0bd 1ce3 173d
000003b0: d9b5 a8bd 03fa 393d 238b f2bd 77fe babc
000003c0: 3712 64bc e5e2 8f3c 6933 56bc 4edf 903b
000003d0: 2f52 db3d e43d b83d 7a8c bdbd e4ea 8f3c
000003e0: 5f6a b8bd 439c b1bd ffc5 73bb 3359 103c
000003f0: 5204 db3d 4d21 723c a01b ca3b febd 073e

fc2.bias f4 [128]
-0.1632041 -0.19773205 -0.0238808 -0.2120929 -0.14807425 0.088848524 0.05073358 0.12471089
-0.03395066 0.08230092 0.008924737 -0.14952536 -0.05508185 -0.10255973 -0.05467052 0.031628203
-0.085866906 -0.08565352 0.004002035 -0.044001173 0.0938886 -0.13356523 -0.21911058 -0.15187703
-0.11936787 -0.10991814 -0.16652623 -0.18127647 0.07879544 -0.14475343 -0.060027003 -0.11403693
-0.10685666 -0.010274358 -0.16654858 -0.26197693 -0.1198201 -0.17613313 -0.09935545 -0.039783984
-0.011426683 -0.16265582 -0.10448173 -0.17215346 -0.09157394 -0.23075947 -0.004974697 -0.3280866
-0.117677175 -0.09154173 -0.2353311 -0.04193873 -0.09976553 -0.021330249 -0.18527733 0.038675554
-0.07294841 -0.1907506 -0.08138858 -0.008593479 -0.07602497 -0.15561141 -0.23732767 -0.18205445
-0.18102393 -0.494896 -0.2427755 -0.09330315 -0.2554271 -0.06796939 -0.17794599 0.011091745
-0.06885355 -0.27540693 -0.06735877 -0.12396625 -0.112284616 -0.1749101 -0.007257816 -0.015275339
-0.09040611 -0.08103728 0.012689478 -0.10753061 -0.25877547 -0.002538758 -0.094744906 -0.14540055
-0.13867672 -0.24699827 -0.162374 -0.1751221 -0.0014804974 -0.012002681 -0.25152656 -0.09784702
-0.07576813 -0.06543832 -0.058416016 -0.051791735 -0.09197605 -0.11004496 0.110535875 -0.12475345
-0.1112589 0.0049942276 -0.26224393 -0.09888078 -0.07805311 -0.12960696 -0.23855302 -0.006667444
-0.07447235 -0.10479116 0.03689221 -0.42570785 -0.066900685 -0.0667917 -0.13725425 -0.08357754
-0.36880288 -0.025353774 0.055123955 -0.15790462 0.052294448 0.046731383 0.020955332 -0.090598226
00000000: fa1e 27be 457a 4abe aba1 c3bc e22e 59be
00000010: c7a0 17be 37f6 b53d 04ce 4f3d 6c68 ff3d
00000020: d90f 0bbd 628d a83d 0f39 123c 2d1d 19be
00000030: 829d 61bd d60a d2bd 32ee 5fbd 938c 013d
00000040: fdda afbd 1d6b afbd 8123 833b 933a 34bd
00000050: ab48 c03d 53c5 08be 865e 60be a785 1bbe
00000060: 2477 f4bd c31c e1bd da85 2abe 8aa0 39be
00000070: 815f a13d 3e3a 14be e0de 75bd 328c e9bd
00000080: aad7 dabd c855 28bc b68b 2abe d721 86be
00000090: 3e64 f5bd 3e5c 34be df7a cbbd 88f4 22bd
000000a0: fb36 3bbc 3f8f 26be 84fa d5bd ff48 30be
000000b0: 1e8b bbbd 364c 6cbe c802 a3bb f8fa a7be
000000c0: bb00 f1bd 3b7a bbbd a3fa 70be f2c7 2bbd
000000d0: df51 ccbd c6bc aebc 57b9 3dbe 426a 1e3d
000000e0: fa65 95bd 2054 43be 0eaf a6bd aacb 0cbc
000000f0: fbb2 9bbd 9958 1fbe 0606 73be 7b6c 3abe
00000100: 565e 39be 0263 fdbe 249a 78be b915 bfbd
00000110: 57c7 82be 8933 8bbd 7937 36be 27ba 353c
00000120: 1703 8dbd 2302 8dbe 65f3 89bd 04e2 fdbd
00000130: 7af5 e5bd a21b 33be f9d2 edbb 6a45 7abc
00000140: d726 b9bd e0f6 a5bd 87e7 4f3c 0239 dcbd
00000150: 387e 84be 4b61 26bb 9e09 c2bd e2e3 14be
00000160: 4501 0ebe 1ded 7cbe 5f45 26be 3553 33be
00000170: 400d c2ba e5a6 44bc 17c8 80be 0564 c8bd
00000180: 522c 9bbd 8704 86bd a245 6fbd 9223 54bd
00000190: f05d bcbd 415f e1bd a260 e23d bd7e ffbd
000001a0: b5db e3bd 9ea6 a33b d644 86be 0282 cabd
000001b0: 4fda 9fbd b0b7 04be 3e47 74be 937a dabb
000001c0: f684 98bd bf9c d6bd 491c 173d 61f6 d9be
000001d0: 3a03 89bd 16ca 88bd 618c 0cbe b42a abbd
000001e0: bbd3 bcbe b8b2 cfbc a8c9 613d c0b1 21be
000001f0: b432 563d 6869 3f3d 84aa ab3c 908b b9bd

bn2.weight f4 [128]
1.047219 1.0428734 0.91531825 1.1066457 1.0624602 1.0537945 0.9998161 0.95960325
1.0871308 0.9734206 0.9969171 0.9839201 0.99052733 0.979157 1.0480338 1.042883
1.0566438 1.0488917 0.9247314 1.0226167 0.9441505 1.0210438 1.0477443 1.0301964
1.0596217 1.0827308 1.0341451 1.0107514 0.988137 1.1062582 1.0028532 1.0606679
0.9778788 1.014053 1.0430098 1.0127211 1.0418135 1.0490874 0.9804512 1.0630893
0.95964605 1.0760702 1.0165035 1.0446098 1.0079448 1.0293365 1.0254676 1.0523638
1.0005674 1.01475 1.0657994 1.0352955 1.075268 1.009715 1.0232998 1.0101995
1.034936 1.0440805 1.0186428 0.9261244 1.006796 1.0497713 1.0369413 1.0725453
1.0494734 1.1490495 1.0229678 1.0011717 1.0452397 1.0370324 1.0767024 1.0037508
0.9892904 1.0482585 1.066188 1.0139191 1.0175279 1.0027919 1.0453972 0.9941194
1.0229619 1.0533587 1.0033079 0.9935131 1.100039 1.0019047 1.0068401 1.0793792
1.0078934 0.98319197 1.0750511 1.0133144 1.0010672 0.9672373 1.0736842 1.0413266
0.9859593 0.9905619 1.0645276 0.9967509 1.0213817 1.0658009 0.97824305 1.0663164
1.0377711 1.0409179 1.0772603 1.103045 0.99357516 1.0270109 1.0928797 0.9952929
0.9333713 0.96683645 0.9930296 1.0926298 1.0112917 0.98519766 1.0428597 0.984814
1.0860931 1.05303 0.9610148 1.045428 1.0013268 1.020136 0.99377227 1.0638306
00000000: 460b 863f e07c 853f 4c52 6a3f 91a6 8d3f
00000010: b2fe 873f bde2 863f f3f3 7f3f 8fa8 753f
00000020: 1a27 8b3f 1832 793f f635 7f3f 30e2 7b3f
00000030: 3393 7d3f 08aa 7a3f f925 863f 317d 853f
00000040: 1b40 873f 1542 863f 32bb 6c3f 1be5 823f
00000050: d9b3 713f 90b1 823f 7c1c 863f 7add 833f
00000060: afa1 873f ec96 8a3f de5e 843f 4d60 813f
00000070: 8cf6 7c3f de99 8d3f 7e5d 803f f7c3 873f
00000080: 4456 7a3f 7dcc 813f 5881 853f d8a0 813f
00000090: 255a 853f 7f48 863f dafe 7a3f 4f13 883f
000000a0: 5dab 753f abbc 893f c91c 823f c6b5 853f
000000b0: 5604 813f 4cc1 833f 8642 833f dbb3 863f
000000c0: 9812 803f 54e3 813f 1d6c 883f 9084 843f
000000d0: 62a2 893f 573e 813f 7dfb 823f 384e 813f
000000e0: c878 843f 6ea4 853f e362 823f 7d16 6d3f
000000f0: b1de 803f e85e 863f 7eba 843f 2a49 893f
00000100: 2555 863f 0e14 933f 9cf0 823f 6526 803f
00000110: 6aca 853f 7abd 843f 62d1 893f e87a 803f
00000120: 2342 7d3f 562d 863f d978 883f 1ac8 813f
00000130: 5b3e 823f 7c5b 803f 93cf 853f 9c7e 7e3f
00000140: 6af0 823f 75d4 863f 656c 803f e056 7e3f
00000150: 14ce 8c3f 6a3e 803f 23e0 803f 1929 8a3f
00000160: a702 813f 78b2 7b3f 469b 893f 49b4 813f
00000170: f822 803f dd9c 773f 7c6e 893f 314a 853f
00000180: d467 7c3f 7795 7d3f 7142 883f 112b 7f3f
00000190: a3bc 823f 2a6c 883f 236e 7a3f 0e7d 883f
000001a0: afd5 843f cc3c 853f aae3 893f 9430 8d3f
000001b0: f15a 7e3f 1875 833f 7be3 8b3f 84cb 7e3f
000001c0: 6cf1 6e3f 9882 773f 3037 7e3f 4bdb 8b3f
000001d0: 0272 813f ea35 7c3f 6d7c 853f c51c 7c3f
000001e0: 1905 8b3f b0c9 863f 1105 763f 96d0 853f
000001f0: 7a2b 803f d193 823f dc67 7e3f 9a2b 883f
