models/save_models/mlp_features_temporales.pth (torch, 200878 bytes, 20 tensors)

fc1.weight f4 [256, 18]
00000000: 5e9f e8bc 0c9e d33a 3ed1 693d e139 0f3d
00000010: cfb6 0bbb 0cb3 823d c7fb 113e f288 00be
00000020: afe1 2a3d c337 8bbc e515 133d 953b 033d
00000030: 42c7 bd3d 9ebb e13d 3fbc 513d ef0a 9cbc
00000040: c9d2 07be 230f a1bd bda4 4b3d 44f7 2f3d
00000050: a15c e43d bdd6 e9bd 6f9d 303d 5d02 cabb
00000060: 81da 8e3c 979d fabd d4e1 59bd 6253 a0be
00000070: 1d1d 67bd c47b e8bd 5fc8 95bc 45b1 b9bd
00000080: a51d c53b bbbf 173d 8c66 38bb d540 343c
00000090: 734f 3fbd 8ff6 95bb cdac 343e 5d8e b33d
000000a0: 3fe9 aa3c 1504 01be 0974 e93d 275c 103e
000000b0: 5f76 3cbe 0026 4ebd 08d0 99bb b8db cbbd
000000c0: eb32 bdbd 7b68 e53d 3658 afbd e44c 1d3d
000000d0: faa1 34bd 273a 49be c238 13bd 80a7 de3d
000000e0: 0dfc a33d 3844 623d b829 b9bc a2a6 c2bd
000000f0: bd80 e3bd fbf9 1f3e 7afb 28bd 08c6 1dbb
00000100: e5e3 223d de82 4a3d 392c 963c 5aff adbd
00000110: 576e 92bd 74cf 543c 8de3 b23d a2a9 943b
00000120: 4fbf c4bd ae96 823a a560 3d3c bf38 1dbd
00000130: 6eba a13c a849 a43b 8cbe 9d3d 1c93 9c3d
00000140: 3e50 ee3b b08e b63b f4d9 b03c 2c03 31bc
00000150: 13bc 41be 6940 ec3d 4cb2 d23d a2f2 15bd
00000160: 0b41 02be 8b6b a33d 6942 aebd 047c 2b3e
00000170: 01a0 5abd 3f24 843c 8de5 373d 5554 60bc
00000180: 5a69 383d 9d39 e03c ff41 273d 39e9 07be
00000190: 5d56 f0bd dfcc debc 98e5 643d 3a45 a23d
000001a0: 83da 8a3d 547e 33bd a4b6 3c3d 6070 7a3c
000001b0: 2ed9 493c 155f c93d 455d 253b 5f81 76bc
000001c0: 619c 223d 7fe5 a4bd 4db7 c4bd 5bcf 1f3e
000001d0: c41c 81bc 29dd 143b aef7 d73d 0c1f a63d
000001e0: 85f9 113d c4ba e83d b09b 2c3c 68d4 243d
000001f0: 23cb a63d de1b 42bd 3aad 6c3d bea0 5b3d
00000200: 13fd 3d3d de99 9c3c 0b15 af3d 0b2d 76bd
00000210: 3772 60bd 1272 9e3b fc40 ad3d 45ee e63d
00000220: e3ac cabd 4e1a c03b cf8f 0d3e 8102 2a3d
00000230: 18d0 aebd 9fb4 d83c 1e5b 28bd f1f7 373d
00000240: 61e1 acbd dda0 9f3c c640 263e f83d b63d
00000250: d6d6 aabc d511 3f3c 5912 1f3d 013f fb3c
00000260: 8f49 8cbd 1fb3 f2bc af17 723d b6a0 5d3d
00000270: fc66 8c3d 962b d1bd 18e7 84bd ade0 793c
00000280: b098 84bd e4e5 38bd ce2c 893d cfc8 a0bd
00000290: 256d 6b3d 1f92 dd3c c430 a83d 4581 063e
000002a0: b796 49bd 5546 90bc b592 ffbd 017d bc3c
000002b0: 7c41 d6bc 5d19 143e 0edb 9d3d 4b26 50be
000002c0: a123 1cbd 1b96 263d fca8 a93d 4c2d 25bc
000002d0: fb8b 233c 608c 9c3d 1d10 6bbd 46ab 31bd
000002e0: 79fd 623d d9fd a83d 8e9a 64bd d48d dc3d
000002f0: eaef b9bd a1a7 a43b f7c3 6d3b 41c5 1e3e
00000300: b2e3 513d 1112 77bd a4bc dc3d d16c c83c
00000310: 660c a13d 8a90 583d 606f 263d fab9 ccbd
00000320: 8d2c 3bbc 6083 fd3c 32be 9cbc 0c57 aa3c
00000330: 3ee9 8c3d 2378 313d 3849 b43d 1faf 30bc
00000340: 7354 36be 45fa 73bc 260a 02be f36d 5f3b
00000350: aab5 6fbb 8221 9fbc 27b9 2ebc 3b09 333d
00000360: 6677 6bbd d6f6 c0bd e60f 033d 1d59 183d
00000370: 8a16 e6bd a223 ee3c 7072 9fbd 2aa0 16bc
00000380: b71b e43d da79 bc3c 2e74 13bd e90c 40be
00000390: 1f76 033d cae3 01be 04a8 393c aa6e 11bd
000003a0: a762 253d 2c3c 04bc e9e2 93bd c66d c4bd
000003b0: 650b 6bbd 8b1c 283e 0dfe 8f3c 5b30 f63d
000003c0: 56ac 793c aff8 2fbe 1869 f73d 7271 86bd
000003d0: d99c 86bd 8eaa be3d d9a9 e6bd 3978 42be
000003e0: cfb0 953d 77de 60bd a465 473d ce25 583b
000003f0: 5520 93bd 80a2 033d 2c20 083d 04e1 7b3d
-0.028396305 0.0016145124 0.057084315 0.034967307 -0.002131868 0.06381807 0.14256202 -0.1255224
0.041719135 -0.016994363 0.035909552 0.032039244 0.09266521 0.11022113 0.051204916 -0.019048182
-0.13264002 -0.07864215 0.049717654 0.04296042 0.1115048 -0.11417911 0.04311889 -0.0061648325
0.017438175 -0.12237089 -0.053193882 -0.31313616 -0.05642425 -0.113517314 -0.018284021 -0.090670146
0.006015497 0.037048083 -0.0028137295 0.011001785 -0.046706628 -0.004576511 0.17644043 0.08767388
0.020863174 -0.12599213 0.11399085 0.14097653 -0.1840453 -0.05032921 -0.0046939887 -0.099540174
-0.092382275 0.11201569 -0.08561747 0.038403407 -0.044099785 -0.1965109 -0.0359428 0.10871792
0.08007059 0.05524084 -0.0226029 -0.09504439 -0.11108539 0.15622704 -0.04125545 -0.0024074335
0.03976812 0.04944121 0.018331634 -0.0849597 -0.07149952 0.012988914 0.08734808 0.0045368234
-0.09606802 0.0009963119 0.011558686 -0.038384195 0.019742217 0.0050136633 0.077023596 0.076452464
0.007272749 0.005571209 0.021588303 -0.010803979 -0.18919401 0.11535723 0.10287914 -0.036608346
-0.12720124 0.079794966 -0.085087605 0.16746527 -0.053375248 0.016130565 0.04489665 -0.013691981
0.045022346 0.027371222 0.040834423 -0.13272561 -0.117352225 -0.0271973 0.05588302 0.0792336
0.06779959 -0.043821648 0.046072617 0.015285581 0.012319846 0.098325886 0.0025232595 -0.015045493
0.039699916 -0.080515854 -0.09605274 0.15606444 -0.015760787 0.002271483 0.10545288 0.081113905
0.03563835 0.11363748 0.010535166 0.04024163 0.08144214 -0.047389857 0.05778239 0.053620093
0.04638393 0.019116338 0.085489355 -0.06010155 -0.054796424 0.0048353756 0.084596604 0.11275915
-0.09896257 0.0058625108 0.1382439 0.041506294 -0.085357845 0.026453314 -0.04110252 0.04491419
-0.08441425 0.019485885 0.16235647 0.08898538 -0.020854395 0.011661966 0.038835857 0.030669691
-0.06849968 -0.029626427 0.059104618 0.054108344 0.0685558 -0.102133915 -0.0648939 0.015251321
-0.06474435 -0.045141116 0.06697999 -0.07850801 0.057477135 0.027047215 0.08212426 0.1313525
-0.049216 -0.017611662 -0.12479154 0.023008825 -0.026154272 0.144628 0.07707797 -0.20327108
-0.038119916 0.040670495 0.08284184 -0.0100816 0.009982104 0.07643962 -0.057388414 -0.04337623
0.05541751 0.082515426 -0.055811457 0.10769239 -0.09078963 0.0050248657 0.0036280134 0.15504934
0.051242538 -0.060319964 0.10778168 0.02446595 0.07863693 0.05287222 0.04063356 -0.0999641
-0.011424196 0.030946434 -0.019133661 0.02079346 0.06880425 0.043327462 0.08803028 -0.01078394
-0.17805652 -0.014891212 -0.12699184 0.0034092634 -0.0036576786 -0.019425157 -0.010664261 0.043709975
-0.057486914 -0.0942208 0.031997584 0.03719436 -0.11234768 0.029069725 -0.07785499 -0.0091934595
0.11138099 0.023007322 -0.03599947 -0.18754925 0.03209507 -0.12684551 0.011331562 -0.035505928
0.040377285 -0.008070987 -0.07221014 -0.0959125 -0.057383914 0.16417138 0.017577196 0.12020942
0.015238842 -0.17184709 0.12080592 -0.06564607 -0.06572885 0.093098745 -0.112628646 -0.18991174
0.07309114 -0.05489966 0.048680916 0.0032981518 -0.07183901 0.032137394 0.033233806 0.06149389

fc1.bias f4 [256]
00000000: 13ed adbb ec5d 6bbd f2f7 c5bc 512a 773c
00000010: dd8e 65bd 2dc7 8dbd 1dff 25bd 8ae8 643d
00000020: b3ed c2bc 3cde bdbd ef7e 33bc 70bd ad3c
00000030: d183 f23d 169f 453d 0465 823a 605d 1fbd
00000040: 9c47 12bd 8976 d33a eda7 783c 204f b03c
00000050: f657 9f3d bb92 39bd 1cd1 ac3d 3543 fa3d
00000060: 7465 9e3c b5ec 213d 84ba d6bc beba ea3b
00000070: c589 233e 5019 403d 85f4 493c 5922 683c
00000080: 8817 18bd 2663 143d 6720 6a3c 7fbb b43d
00000090: 90b6 35bd 5b9c 283c 09dd bf3d d05b 2dbd
000000a0: d559 9dbc 1d19 073d 6218 a33d facf c037
000000b0: 4d6f ea3c 8711 ad3c 97bd c4bc 78d3 c93a
000000c0: db7f 333d 6a5f 82bc ae7f 6ebd f657 85ba
000000d0: 0784 ecbd ecb2 a0bd 4b94 cabc adf9 b03c
000000e0: fdff 473c 028f d8bc 0066 a5bd aec1 3f3c
000000f0: 3b8d a33c 4d91 203d 6f8f 5fbc 6feb 7e3d
00000100: ff5a 1abd f252 cc3b ae3c 493d 16b7 42bd
00000110: ef6a 6dbd 6b0a 8f39 ffab af3c a522 053d
00000120: 7593 7ebd 38eb c53d c0ed 173d 51eb 9ebb
00000130: 1717 1cbd 9b21 a7bb b152 debc 7efd 123e
00000140: 182c 883c 19a1 dc3d 14ff 413b 08aa d43d
00000150: 9e65 173c 4ef7 4cbc 7c95 8a3d 1729 59ba
00000160: d921 c03d 0aeb b4bc c41e 05bd 55e2 ed3d
00000170: b136 5ebc b4ff 4a3d 391e 733d 7689 ca3b
00000180: d6ca d23c 98e5 de3c 1471 b83c 825b 0cbc
00000190: f779 683c 9d16 583c d643 1a3d 6f77 683d
000001a0: 8b4d e43c 8c5d d0ba 8d3e 2abd a3d3 d93c
000001b0: 98ff e83c 5364 893c c0cc 123c f460 de3c
000001c0: a72a 8f3c 22ac 243d 9809 25bd 263b 903d
000001d0: d740 9ebb b3fc 91bd b37f 0abc e724 f33d
000001e0: 2ca9 1f3d 8c63 cbbd a590 84bd ad94 bd3c
000001f0: 51bc 2c3d 88bd 00bd ae2b 80bd 84f1 0e3d
00000200: 8148 1d3c 83bb ba3c 412c 943d 4278 0e3d
00000210: 448b c4bc 419a 56bd 5638 78bd c9b6 c63c
00000220: d9ec 0f3d f2c0 35bc 6e70 5abd 0ea5 cabd
00000230: 6776 aebd 3afd 293b 3ec4 32bc 185d 043d
00000240: fb55 453c 5dc3 9bbc 82c3 e13d 4827 4e3d
00000250: f2b1 6d3c a484 63bd c39c 1abd 6cf1 bb3c
00000260: 5830 a53d d8b9 003d d89d 093d 5434 2f3d
00000270: 4800 3fbb 6826 a5bb a3e1 74bc a993 03bd
00000280: 4b7e 0a3d 704c db3c caf2 f63c 8b6e 8dbd
00000290: 7668 993c 7cbf 853d b1fc 14bd c319 1c3d
000002a0: 2462 19bc 0726 873d 601c af3d e388 813d
000002b0: aaa2 94bc e4c2 47bb 6317 0d3d b8cf 763d
000002c0: d30d b93d 6bee b43c 927e 10bd cf2e 103c
000002d0: a198 fe3b 2f6a 133d da4d a63d f475 2fbd
000002e0: d492 91bb 8bc9 83bc 4bc7 c73d 2023 3abe
000002f0: b260 2c3d 2a58 91bd cfd1 bfbc ad68 7f3d
00000300: dc95 113d 30c0 0dbd 3163 b73d 908e 253d
00000310: 2be1 d23c 76e5 ea3d 351b 52bd b0c6 c2bc
00000320: 8a69 6abc 9d9f 97bd 4d73 f0bc fed1 a03d
00000330: 34c8 953c a8ab b83d 2fec 0f3d f4e3 c13c
00000340: 0998 a23d e342 e8bc cb5e cdbc de9f 8ebc
00000350: 76e0 8f3c 9802 1d3d fab3 d9bc 852b f63a
00000360: 0a3d 96bc 8fe8 92bd 1a86 123c 7ae5 083c
00000370: ed13 89bd 0508 693c 234a d23c f16c 883c
00000380: 819c 8c3d 8408 d3bc a0f6 57bd 89e0 24bd
00000390: 22a9 80bd 94ab 12bb bf37 b7bc 4858 2d3b
000003a0: 571b e83c b3d1 0e3c cc09 b8bc 015a f2ba
000003b0: 83d6 cdbd c82f 08bd 3ffc 65bd a56f 523c
000003c0: 159c 2b3c 5ee7 d1bd 09cc 56bd 3e5c 5dbd
000003d0: d733 74bc ad35 67bd d46b cb3c 544b a7bc
000003e0: d30c 953c a582 053c 459e 8abc d6a9 af3d
000003f0: 791f eabc 9b5d 093c 72d3 893c feba 1b3d
-0.0053078025 -0.057462618 -0.024166081 0.015085773 -0.05604445 -0.069227554 -0.040526498 0.05588583
-0.023794984 -0.092709035 -0.010955556 0.021208495 0.11841548 0.04824742 0.0009948318 -0.03890741
-0.035712823 0.0016133349 0.015176755 0.021522105 0.07780449 -0.04530595 0.08438322 0.1221985
0.019335486 0.039532382 -0.026211984 0.0071633747 0.15970524 0.04689914 0.012326364 0.014168345
-0.037131816 0.036227368 0.014289952 0.088248245 -0.04436356 0.010291184 0.09368331 -0.042323887
-0.019207874 0.032982934 0.07963635 2.298503e-05 0.028617525 0.021126522 -0.024016185 0.0015398106
0.043823104 -0.015914638 -0.058227234 -0.0010173309 -0.1154862 -0.07846627 -0.024728915 0.02160343
0.012207028 -0.026435379 -0.080760956 0.011703892 0.019964805 0.03920107 -0.013645037 0.062236246
-0.037684437 0.006235474 0.049130134 -0.047537886 -0.057963308 0.00027282847 0.021444319 0.032503743
-0.062152345 0.09664005 0.03709197 -0.0048498292 -0.038107958 -0.0051004416 -0.02713904 0.14354512
0.016622588 0.107729144 0.0029601501 0.103839934 0.009240536 -0.012510134 0.06766793 -0.0008284016
0.09381456 -0.022084732 -0.032500044 0.11615435 -0.013562844 0.049560264 0.059354994 0.0061809374
0.025731485 0.027209088 0.022514857 -0.008566739 0.014189235 0.013188985 0.03766235 0.056754526
0.027869007 -0.001589702 -0.04156356 0.026590174 0.02844219 0.016771471 0.008959949 0.02714584
0.017476393 0.04020322 -0.040292352 0.07042532 -0.004829507 -0.07128277 -0.008453297 0.11872273
0.038979694 -0.099310964 -0.06472901 0.023142183 0.04217178 -0.03143075 -0.06258331 0.034898296
0.009599806 0.02279449 0.07235003 0.034782656 -0.023992188 -0.0523932 -0.0606006 0.02425708
0.035137985 -0.011093365 -0.053329878 -0.09894763 -0.08518677 0.0025938288 -0.010911046 0.032315344
0.012044425 -0.019014055 0.11023618 0.05033043 0.0145077575 -0.055546418 -0.037747156 0.022942267
0.080658615 0.031427234 0.033597797 0.042774513 -0.0029144455 -0.005039979 -0.014946374 -0.03212324
0.03381185 0.026769847 0.030145068 -0.0690585 0.018726569 0.06530663 -0.036373798 0.038110506
-0.009361777 0.0659905 0.08550334 0.06324937 -0.01814397 -0.0030481154 0.03444613 0.06025669
0.0903584 0.022086343 -0.035276957 0.008800223 0.0077696596 0.035989936 0.08120318 -0.0428371
-0.004442552 -0.016087314 0.09754809 -0.18177462 0.042084403 -0.07096894 -0.023415474 0.062355686
0.035543308 -0.034607112 0.08954466 0.04041916 0.025742134 0.114695475 -0.051295478 -0.023776382
-0.014307389 -0.07403491 -0.029351855 0.07852553 0.01828394 0.09017116 0.03513735 0.023668267
0.07939155 -0.028352207 -0.025069615 -0.017410215 0.017563086 0.03833255 -0.026575077 0.001878128
-0.018339653 -0.07173263 0.008943105 0.008355493 -0.06693254 0.014223103 0.025670117 0.01665351
0.06865788 -0.025760897 -0.052725434 -0.040253196 -0.062822595 -0.00223801 -0.022365449 0.0026450325
0.02833335 0.008716988 -0.022465609 -0.0018489958 -0.100506805 -0.033248693 -0.056148764 0.012844001
0.010474225 -0.10249208 -0.052440677 -0.054043047 -0.014904938 -0.056447674 0.02483169 -0.020421661
0.018194592 0.008148824 -0.016921172 0.085773155 -0.02857946 0.008384134 0.016824458 0.038020127

bn1.weight f4 [256]
00000000: d062 883f 05f5 853f 9a9b 813f a763 823f
00000010: e2b0 853f 5cac 7c3f d18a 853f 2619 853f
00000020: edc5 7e3f ade5 853f 5f30 7f3f c70b 793f
00000030: d0da 823f 3829 723f 981b 823f d16f 843f
00000040: 8c09 853f 70c4 823f 923c 863f 78cb 773f
00000050: 1d2a 723f c782 913f 7929 803f 92a3 893f
00000060: add0 853f 4474 863f 01b3 703f ce14 773f
00000070: 6fc0 763f c0a4 8c3f 7629 803f 72f8 853f
00000080: 5b42 823f 508d 873f 79dc 873f 19e1 863f
00000090: 4870 853f 0948 793f 2b14 903f 7f94 843f
000000a0: 7083 853f 2ce2 803f 934b 873f 46dc 813f
000000b0: 1a02 723f 9d96 833f 0ad7 823f a75e 8c3f
000000c0: efb6 853f f9b4 853f 0a1f 793f 8757 853f
000000d0: 7815 943f c91c 833f 2de3 753f 2299 863f
000000e0: 2693 833f b8dc 773f 9381 873f d9f1 853f
000000f0: 93ad 7f3f 71a5 713f 267a 883f ef6a 873f
00000100: 45d0 873f 2ccc 843f dc77 853f feb7 8c3f
00000110: be9a 833f c49a 873f 8c2c 813f 8cb1 8c3f
00000120: 2d82 813f ed2c 833f 9c2f 843f 5695 7d3f
00000130: 4e54 833f 4871 7e3f ef26 903f 614d 773f
00000140: 6516 7f3f 9e64 843f ae9c 843f 2307 7e3f
00000150: 555a 8c3f 5507 873f 4b0d 863f 40ba 893f
00000160: 4e71 8a3f cb03 863f 80dc 8b3f 8bb8 8c3f
00000170: e5e3 723f 78ea 813f a399 913f 3504 823f
00000180: cba4 803f 320d 813f a00f 783f 35c4 833f
00000190: 0c2f 793f ebcc 853f 5d5f 7e3f a5ca 7e3f
000001a0: a886 873f 376b 883f 7778 823f 69e3 843f
000001b0: faba 783f 1e07 803f 0078 833f 7837 893f
000001c0: 01aa 833f a826 7a3f 6a5f 8b3f 177f 793f
000001d0: 48a5 833f b69c 853f 7830 853f 543f 843f
000001e0: 7db0 7c3f 7b9d 853f 82f2 843f 972b 823f
000001f0: 70fd 743f d99a 8b3f e770 863f dd4c 893f
00000200: dc32 7e3f 9451 833f 46d2 703f 9f38 833f
00000210: 2dbf 813f 92de 863f 6c26 873f 677f 7b3f
00000220: 9994 873f 11b1 883f b0cc 7e3f 42c0 8e3f
00000230: d1eb 8a3f 0283 7e3f 94f9 7d3f 3ddd 833f
00000240: 651c 823f a53a 813f 6bb2 8c3f 5099 883f
00000250: 4431 7a3f 9e18 803f c32d 833f a43f 883f
00000260: 1edc 843f 7754 823f d357 833f 3925 7e3f
00000270: a0ce 843f 5c07 763f de82 863f 3263 803f
00000280: ac21 7e3f 3c1e 8d3f 6367 833f d3d2 843f
00000290: 40cc 833f 5754 863f 387b 813f c35d 733f
000002a0: 4be2 803f 7a21 7d3f ea76 843f 1819 8a3f
000002b0: 796f 8c3f ca9a 873f 3752 8b3f 42c2 7f3f
000002c0: 6faa 853f f51e 703f 8733 883f ecac 7d3f
000002d0: ea0a 753f 4bb4 7c3f 17bb 7e3f 2cfe 823f
000002e0: f6f3 803f 0b93 813f 6469 893f ceba 793f
000002f0: 6198 7e3f fb48 7e3f 9616 743f 375d 823f
00000300: fa73 823f e3b3 823f 93b3 843f 9b3d 8c3f
00000310: 0e33 843f 91f0 883f 6e5b 893f 4413 813f
00000320: 28a5 823f 363e 803f 58c1 873f 8927 833f
00000330: 5f61 8d3f 1c3a 813f 4a50 7d3f 29c0 883f
00000340: 0c2f 793f 7055 823f b0c9 833f c4dd 903f
00000350: 41eb 7a3f a822 903f 961f 8b3f 1d4a 7d3f
00000360: d993 753f c106 833f 173e 7e3f c41c 873f
00000370: 7ae1 893f 6808 7e3f 78e0 763f b810 873f
00000380: b5fe 823f c62b 833f 87d9 863f 9f74 863f
00000390: 65c6 833f c802 7c3f b103 863f 2c00 843f
000003a0: cd5d 823f d03e 903f 9275 6f3f ea87 883f
000003b0: 55df 7a3f c80c 823f c94f 883f 122e 803f
000003c0: 5313 7f3f a61c 853f 3042 813f b026 833f
000003d0: 019b 783f 2932 893f 00f8 823f 02e2 723f
000003e0: 3c05 833f 1e40 853f d5c8 8d3f 957d 8b3f
000003f0: d589 7c3f d645 843f a872 853f bd25 7e3f
1.0655155 1.0465399 1.0125611 1.0186661 1.0444605 0.987005 1.0432988 1.03983
0.9952076 1.0460716 0.99683183 0.97283596 1.0223026 0.94594145 1.0164671 1.0346624
1.0393538 1.0216198 1.0487235 0.96794844 0.9459551 1.1368035 1.0012656 1.0753043
1.0454308 1.0504231 0.9402314 0.9651612 0.9638738 1.0987778 1.0012653 1.0466444
1.01765 1.059 1.0614158 1.0537444 1.042489 0.9737554 1.1256155 1.0357817
1.0430737 1.0069022 1.0569938 1.0145347 0.94534457 1.0280339 1.0221875 1.0966386
1.0446452 1.0445853 0.97312987 1.0417336 1.1569052 1.024316 0.9604977 1.0515482
1.0279281 0.96821165 1.0586418 1.0464431 0.9987423 0.9439307 1.0662277 1.0579509
1.0610434 1.0374808 1.0427203 1.099365 1.0281599 1.0594106 1.009172 1.0991683
1.0117851 1.0248085 1.0327029 0.99055994 1.0260103 0.99391603 1.1261882 0.96602446
0.99643546 1.0343206 1.0360315 0.9922964 1.0965067 1.0549113 1.0472807 1.0759964
1.0815828 1.0469908 1.0926666 1.0993818 0.9487899 1.0149679 1.1375011 1.0157534
1.0050291 1.0082152 0.9689884 1.0294253 0.9733741 1.0453161 0.9936426 0.9952796
1.0587969 1.0657719 1.0193013 1.03819 0.97160304 1.0002172 1.0270996 1.0720053
1.0286256 0.97715235 1.0888493 0.9745955 1.0284815 1.0438449 1.0405416 1.0331826
0.987068 1.0438684 1.0386508 1.0169553 0.95699215 1.0906631 1.0503205 1.0726582
0.99296355 1.0259271 0.9407085 1.0251654 1.0136467 1.0536673 1.05586 0.98241276
1.0592223 1.0679036 0.9953108 1.1152422 1.0853215 0.9941865 0.9920895 1.0301892
1.0164915 1.0096022 1.0991949 1.0671787 0.97731423 1.0007513 1.024834 1.0644422
1.0379674 1.0182027 1.0261177 0.9927555 1.0375557 0.9610498 1.0508687 1.0030272
0.9927013 1.1024852 1.0265926 1.0376838 1.0296707 1.0494488 1.0115728 0.95064944
1.0069059 0.98879206 1.034879 1.0788908 1.0971519 1.0594113 1.0884465 0.9990579
1.0442637 0.93797237 1.0640725 0.9909198 0.9571978 0.98712605 0.99504226 1.0233817
1.0074451 1.0122999 1.0735288 0.97550666 0.9945126 0.9933011 0.95346963 1.0184697
1.0191643 1.0211147 1.0367302 1.09563 1.0328081 1.0698415 1.0731027 1.0084004
1.0206652 1.0018985 1.0605879 1.024644 1.104534 1.0095859 0.98950636 1.0683643
0.9733741 1.0182323 1.0295925 1.1317677 0.9801522 1.1260576 1.0869014 0.9894121
0.9592872 1.0236436 0.9931349 1.0555654 1.0771935 0.99231577 0.9643626 1.0551977
1.023398 1.0247734 1.0535134 1.050434 1.029492 0.98441744 1.0469877 1.0312552
1.0184876 1.1269169 0.93538773 1.0666478 0.9799703 1.016015 1.0649348 1.001406
0.9963886 1.0399368 1.0098324 1.0246181 0.9711152 1.0718433 1.0231934 0.9487611
1.0235972 1.0410192 1.1076914 1.08977 0.98647815 1.0333812 1.0425615 0.99276334

bn1.bias f4 [256]
00000000: 91a1 15bd e339 88bc 3439 08bd 4c77 883d
00000010: ca19 7cbd f1ed 0f3d 2e36 663e eea7 4c3e
00000020: 52ae 0d3e 041a a73d f42d 713d 228d cf3d
00000030: 2193 edbd 0e91 393d c4f5 043e da94 c3bd
00000040: 13f0 293e 716f 16be 8274 613d 5a32 123d
00000050: 93af 843d a7b6 cabd 6929 1d3d 1940 8dbd
00000060: b06d 77bd a57f 1b3e 6e0c 9d3c fff7 143d
00000070: 15ab 02be f55f 073e ee2f 6a3d ac2f 30be
00000080: 47b3 dfbd 7262 1b3c 080c 33bd a7db b73d
00000090: 184c 12be 7f46 f13d 1372 5d3d 4b36 133d
000000a0: 84de 0e3c 5eac 803d 1dfc 343c 913b 7b3d
000000b0: 9aac 47be 42b0 1dbe 76b5 73be d6fc 963c
000000c0: 3aac 41bd 720b 28bd a906 443e 1db2 86bd
000000d0: 54b9 e1bc 9ba7 ce3d 5981 0abd f6c8 893b
000000e0: bc99 903d 5367 493e 6697 67be 9415 de3d
000000f0: c9d0 0e3e 1363 78bd 5d59 4e3e 4925 bdbc
00000100: 6c32 59be 4319 92bd ebc6 e63c 7dc4 b3bd
00000110: 4edb fa3d fbd3 253e 19a3 37bc d51d d23d
00000120: 0af7 3e3e 7dd8 913d 40a7 4a3d 84b7 a2bd
00000130: 6bd2 7d3e a5b8 e4bc 8378 11bd 20e7 cc3d
00000140: f773 f5bd 605e 083e 8aff d0bd 0ec5 843d
00000150: 099d 59be 4bbd 1f3e e334 e83c 2305 78bd
00000160: d0f3 18bd c7bc a9bd b4ef 403e 8040 a9bc
00000170: 9f1a b7bd f26d 1ebc 2cbc 1fbe a6b2 253c
00000180: 9876 d33d 6d38 47bd 913e 27be 984c 83bd
00000190: 441e 2e3d c70b 4c3e 8313 4c3d 1a21 23bc
000001a0: ef52 8dbc e6a4 92bd bf07 5bbe 72cf c63a
000001b0: b67b 593d 562f 5d3c 3333 cd3c 7530 633d
000001c0: bb27 103e e3c8 28bd d4c8 1cbd bd09 d63d
000001d0: 7ca2 54bd a304 b0bd 3b7e a03d f4af 753b
000001e0: 8e63 613d 2fda b5bd cd8a 0ebe 989c 77bd
000001f0: 490c 06bc 341a 313c d1da 1c3d 2b2d 033e
00000200: 8252 8c3c 182b 20bd 1c6b cabc 10c0 30bd
00000210: d444 b2bd cb56 99bd 7b27 18be 07b6 6abd
00000220: a9be 953d 8b87 c4bd 64a4 8fbd f0d8 673d
00000230: 905f 363d d586 40be 0844 97bc d9af ddbd
00000240: b02f 04be 0729 05be 1218 aebd c6a4 e23c
00000250: 2fbb 4dbd 8e34 123e bd64 cd3d d903 51be
00000260: 0ba5 323e aaac cfbd e380 053c 3b6a 04bd
00000270: 5c00 1fbe 96b2 83bd f67a af3d ec2b 423e
00000280: 122c 103d 9ff9 bcbd 8801 dbbd b582 50be
00000290: dcf3 35be 97cc 4e3e c350 95bd f9cd 86ba
000002a0: 3672 a83d c6c7 8d3d 733b c93d 81d6 913d
000002b0: 6529 dabb d7b8 373e c6f9 173e dc9b 863d
000002c0: 93db 3e3e 586f d83c 1141 b4bd 717d cbbc
000002d0: d3b8 063e 9f62 5abd de18 1e3d 4273 a83d
000002e0: 20a3 3a3d 866f 0ebe 2cfa 75bc 57f5 003e
000002f0: 5df1 0c3e 3c14 f3bc aab0 bdbd ce86 48bc
00000300: a7fe 8bbd b2ac b2bc a204 27be cb69 f13d
00000310: 4b56 2abe 248b ae3d cf1b 6dbe e576 e2bd
00000320: fc9c e5bd 97d9 3d3e 992b c43c a272 4e3e
00000330: f6fa 6dbd 0bac a93d a9e1 25be 3a0b a9bd
00000340: d55b 993c 312b 4f3d 01db aabd bba8 2a3e
00000350: 3f76 d5bd ad5a f2bd 6754 613c 1f09 87bd
00000360: e2ef e23c 12e2 cc3c 3e69 593d bd88 99bd
00000370: d6bf c63c d7d7 8abb 7c9b 1dbd 612e a3bd
00000380: 215f 133e 9392 923d 22a8 2dbd ef3a acbd
00000390: 025f 3ebb a190 393d ec71 0c3e 4932 2dbb
000003a0: 8b55 fc3d 8e42 333e 946d 533c a10a 02bd
000003b0: 8131 233e f01c 9f3d cebb 20be 0986 313d
000003c0: 48c8 013d 936d a2bd 52e6 113d d10b 073c
000003d0: 169d 95bc 9b10 833d dd7f e2bd 4a5f 793c
000003e0: 02fb 563c 1e01 af3d c19e a6bd 549d 93bd
000003f0: 2c5f 71bd 9cc2 173e 65eb 8a3d df30 ceba
-0.036531035 -0.016629165 -0.03325768 0.06663379 -0.061548032 0.035139028 0.22481605 0.19985935
0.13836029 0.08159259 0.058881715 0.10134341 -0.11600328 0.04530435 0.12984377 -0.095498756
0.16595487 -0.14690949 0.05504275 0.03569255 0.064788006 -0.098981194 0.03836957 -0.06896991
-0.06040734 0.15185411 0.019170966 0.03636932 -0.12760575 0.13220198 0.057174616 -0.17205685
-0.10922866 0.00948392 -0.043712646 0.08977442 -0.1428684 0.11781024 0.054063868 0.03594045
0.008720044 0.062828764 0.011046437 0.061336104 -0.19499436 -0.15399268 -0.2379969 0.018431108
-0.04728339 -0.04102654 0.19143166 -0.06576941 -0.027554192 0.10090562 -0.03381476 0.0042048646
0.070605725 0.19668321 -0.22616348 0.108439595 0.13946833 -0.06064136 0.20151277 -0.023089068
-0.2121064 -0.071337245 0.028171023 -0.087777115 0.1224886 0.16194145 -0.011208319 0.10259596
0.18648925 0.0712137 0.04947591 -0.07945159 0.247873 -0.027920077 -0.03551532 0.10005021
-0.11985009 0.13317251 -0.1020499 0.06482898 -0.2125131 0.15599553 0.02834553 -0.060551774
-0.037341893 -0.082879595 0.1884144 -0.020660639 -0.089406244 -0.009669768 -0.15599126 0.010113394
0.10325354 -0.048637796 -0.16332461 -0.064110935 0.042509332 0.19926368 0.049823295 -0.0099566225
-0.01725146 -0.07160358 -0.21389674 0.0015168025 0.053096496 0.013500055 0.025048828 0.055466134
0.14077656 -0.041207206 -0.038277462 0.10451076 -0.05191277 -0.085946344 0.078365766 0.003748891
0.055026583 -0.08879506 -0.13920136 -0.060452074 -0.00818164 0.01080947 0.038294617 0.12810199
0.017129187 -0.039103597 -0.024709277 -0.043151915 -0.08704534 -0.074872576 -0.1485881 -0.0573025
0.07311756 -0.09596165 -0.07013777 0.056603372 0.04452473 -0.18801434 -0.018465057 -0.10824556
-0.12908816 -0.13003932 -0.08500685 0.02766646 -0.05022734 0.1427786 0.1002898 -0.20411624
0.17445771 -0.10140355 0.008148405 -0.03232787 -0.15527481 -0.06430547 0.08568375 0.18962067
0.03519828 -0.09227299 -0.106936514 -0.20362361 -0.17768806 0.20195232 -0.07290795 -0.0010284773
0.08224909 0.069228694 0.09825792 0.071209915 -0.0066577666 0.17941605 0.14841375 0.065726966
0.18638448 0.02642028 -0.08801473 -0.024840089 0.13156442 -0.05331671 0.038597934 0.08225109
0.045565724 -0.1390973 -0.015013259 0.1259359 0.13763948 -0.029672734 -0.092622116 -0.012239171
-0.068356805 -0.021810863 -0.16310361 0.117877565 -0.1663448 0.08522633 -0.2315514 -0.110578336
-0.11211583 0.18540035 0.02394657 0.20160916 -0.058100663 0.08284768 -0.16199364 -0.082540944
0.018720547 0.0505783 -0.08342553 0.16665928 -0.10422944 -0.11833701 0.013753033 -0.065935366
0.027702276 0.025010142 0.053078882 -0.07496784 0.024261396 -0.004237156 -0.03847836 -0.079678304
0.14391758 0.07156863 -0.042396672 -0.08409678 -0.0029048328 0.045303944 0.13715333 -0.0026427677
0.123210035 0.17505857 0.012904543 -0.031748418 0.15936853 0.07769191 -0.15696642 0.043340717
0.031685144 -0.07931056 0.03562004 0.008242563 -0.018263381 0.063996516 -0.11059544 0.015220473
0.013121368 0.08545135 -0.08135749 -0.07207742 -0.058928654 0.14820331 0.06783179 -0.0015731117

bn1.running_mean f4 [256]
00000000: c4d8 92bd 1d78 c9be d087 57bf 1217 ff3d
00000010: 09f3 1c3e 9b2a a33b 2e06 df3e 355a 253d
00000020: 4734 d6bd bc16 d63e b3bc 683f 5863 5bbe
00000030: 79e6 2dbf 3fe3 1a3e af2e 1a3e 9452 8a3e
00000040: a929 343e 90bb 963f e8d3 3a3f ee6f 253c
00000050: 30b6 713e 0350 81be b778 8bbe 9bbc bbbe
00000060: bcb7 d93e afd1 513c 3e1c dcbe 98ba 333c
00000070: 6b5c 21bf 555c a63d 606f 0fbd 0bc9 393d
00000080: 2ad0 19bf 810b c6be bfd7 12bf 9e05 873a
00000090: 8cd8 17bf 86a1 783e f585 f2be 2e07 f93e
000000a0: df1a 4d3f a42c 423e 4f0d 3f3e 9536 c23d
000000b0: b38e 1cbf f8ff 8ebf f696 37bf 88b9 9ebe
000000c0: d7c6 ccbe 7e7e ff39 d6d3 613e dab0 22bf
000000d0: b3c1 91be e170 ecbd 92c4 af3d dad5 343d
000000e0: c6d9 8e3d a035 4e3e d1cd 0bbf 721b 993d
000000f0: 8c66 093e 89b3 003f b1cc 6e3f 1414 73bf
00000100: 54b6 59bf 4017 ecbd 96ef b9bd f24e cfbe
00000110: 5ba3 563e d910 983d 8f23 08bd aecb 2c3f
00000120: 770f 963c c368 4fbe 89fb 573f 467d 0fbe
00000130: c6d0 4c3e 222b 90be 09bc 8a3c 839b 8d3f
00000140: a83c 35bf fc7d 0ebc c40c bbbd a373 20bf
00000150: 9459 1fbf ba69 883d c98a 373e 6574 81be
00000160: bfcb 9b3f 3bbc 7ebf 2f6c bbbc a230 ddbd
00000170: 81b9 82be ee4d 283f 3737 393f 1ec6 08bf
00000180: edfa 79bd 2fa8 f53e 08ed dabe 5e6b 9dbe
00000190: 1140 733e a7f2 7cbb eb93 753e 8ede 8d3f
000001a0: 1735 38bd 9e42 a9bd 913f 83bf fe3e 38bd
000001b0: 5857 593e 33d0 053d 2bae 98bd 2e95 62bd
000001c0: 78ad e7bd 70f0 edbe 0538 61bf 67a7 ac3d
000001d0: 836e ddbe 23b8 0ebf 57af f23d d828 efbe
000001e0: 951f b2be 3f7e 64bf 3a42 0bbf 0c46 043f
000001f0: 1571 a23e 09a9 6ebe 8443 3f3e 7d2f 42bd
00000200: 1585 673e 7fda 3b3e 2dab 9e3e 22ab 483d
00000210: 9cda 0ebf 904e 8fbd 991b 063e 9cf9 c73e
00000220: 77a6 07be f147 6c3e 3a85 46be cabb ea3c
00000230: 7714 303e 73a8 b3be 2e8e 02bf 5306 2ebe
00000240: 3078 4a3d 4e20 c4be d884 93be acb5 aa3d
00000250: 4ef5 4bbf c4ed 073f 65cd 373f ffc7 8bbf
00000260: 66f7 8c3b 7c7e c73e 9382 0e3f 4b44 eabe
00000270: 34e1 9dbe e8ea 9fbe 8ac0 8bbd 3af8 943e
00000280: 28d0 1cbe 2760 b33e 9375 55be fa1f 22bf
00000290: aa85 1abe 47d5 f73c 44fc 34be 9ef2 c03d
000002a0: 3200 2f3e 3089 4a3d f4ab 033d 6c76 09bf
000002b0: 40bd eabd f94b 9c3d 2832 b7be fcb5 83bd
000002c0: 437e 1c3e 02eb 863e 7c2a efbe 1509 debe
000002d0: e6a4 653e 7957 483f ed8c 5ebe 7058 5e3e
000002e0: 7c53 f5bd 5a6d 8bbd f0af f83e 0419 113f
000002f0: 8484 3b3d b369 48be de75 73be 7a3e c43e
00000300: 91d7 ffbe b6cb 29be 170f 2fbf bf77 24bc
00000310: 2022 8abf aa51 8bbe a4e5 11bf fdc4 a3bd
00000320: 4543 9bbe 7297 993d 7bb1 ff3d 9e35 453d
00000330: afaa d53c 8e35 913f b701 4bbf 6e0c dc3e
00000340: 19e9 d5be 683d 0e3d c317 5bbf e86c 3d3d
00000350: 69c7 70bf 94ed 58be fb4d 0cbf c3fb d03d
00000360: 6dd9 0cbd 437c 47bf 996d 84be 19a2 663e
00000370: 0b2e abbd e67e df3e ac35 78bf c787 023f
00000380: 83be 8dbd 376e cbbe ee51 25bf bae2 98be
00000390: e080 2bbf 87c9 0a3e aa05 0a3e 6957 6e3d
000003a0: f5cf 8abe 2abe eb3c 5a52 1dbe a8bf 833d
000003b0: 0834 2d3f 4f18 9a3c d0e4 8bbe 44be 613f
000003c0: 77e9 4a3e 7ac4 1bbf 7ce0 57be 1cba 8fbc
000003d0: b0ad 04bf 2491 35bf 449b cebe dde3 e83d
000003e0: a8ce 8abf ccee 913f 5028 053d 41f3 033f
000003f0: 0233 efbe 78b3 d23c 679d 08be 458e 38bd
-0.07170251 -0.39349452 -0.8419161 0.12455572 0.15327086 0.004979444 0.43559402 0.04036923
-0.1045919 0.4181422 0.9091293 -0.21424615 -0.679298 0.1512575 0.15056871 0.27016127
0.17594017 1.177599 0.72979593 0.010097487 0.23604655 -0.25256357 -0.27240536 -0.36667332
0.4252299 0.01280634 -0.42990297 0.01096978 -0.63031644 0.0812308 -0.035018325 0.045357745
-0.6008326 -0.38680652 -0.5736045 0.0010301357 -0.593148 0.24280366 -0.47367826 0.4863829
0.8011913 0.18962342 0.1865742 0.09483067 -0.6115524 -1.1171865 -0.71714723 -0.31000924
-0.39995453 0.00048731634 0.22053465 -0.63551104 -0.28468093 -0.115449674 0.08582415 0.044149257
0.06975131 0.20137644 -0.54610926 0.07475938 0.13418025 0.5027395 0.93281084 -0.9495251
-0.85043836 -0.11527872 -0.090789005 -0.40489918 0.20960753 0.074250884 -0.033237036 0.6749829
0.018317921 -0.20254807 0.8436819 -0.14012632 0.20001516 -0.28157908 0.016935365 1.1063083
-0.7079568 -0.008697029 -0.09133294 -0.6267645 -0.6224606 0.06660791 0.17924036 -0.25284114
1.2171553 -0.99505967 -0.022878734 -0.108002916 -0.25532153 0.6574391 0.72349876 -0.534273
-0.061030317 0.47979876 -0.42758965 -0.30745977 0.23754908 -0.003859678 0.23982207 1.1083543
-0.044972505 -0.08264659 -1.0253774 -0.04498195 0.21224725 0.032669257 -0.07455095 -0.05531805
-0.113123834 -0.46472502 -0.87976104 0.08430367 -0.43248376 -0.5574972 0.1184985 -0.4671085
-0.3478972 -0.89255136 -0.5439793 0.51669383 0.317269 -0.2330667 0.18678099 -0.04740857
0.2260936 0.18345068 0.30989972 0.04899133 -0.5580232 -0.069974065 0.13096465 0.39057624
-0.13247095 0.23074318 -0.1938676 0.028653998 0.17195307 -0.35089454 -0.509982 -0.169946
0.049431026 -0.38305897 -0.2881229 0.083354324 -0.7967118 0.53097177 0.7179778 -1.0920409
0.004301953 0.38963687 0.5566799 -0.45755228 -0.3083588 -0.31233907 -0.06823833 0.29095632
-0.1531378 0.35034296 -0.20845632 -0.6333004 -0.15090051 0.030253066 -0.17674357 0.094212756
0.17089918 0.04944724 0.03214641 -0.5369632 -0.11461878 0.07631678 -0.35780454 -0.06431195
0.1528254 0.26351172 -0.467121 -0.43366304 0.22426185 0.7825847 -0.21733446 0.21713424
-0.11978814 -0.068079665 0.4857173 0.56678796 0.045780674 -0.19571571 -0.23775432 0.38328916
-0.49969152 -0.16581616 -0.683824 -0.010038315 -1.0791664 -0.27210742 -0.5699103 -0.07996557
-0.3032476 0.07499589 0.124850236 0.048146836 0.026082365 1.1344469 -0.7929949 0.42978233
-0.41779402 0.03472653 -0.8558313 0.04624644 -0.94054276 -0.21184379 -0.5480649 0.1020427
-0.03438704 -0.77923983 -0.25864866 0.22522773 -0.083583914 0.43651503 -0.96956897 0.5098843
-0.06921103 -0.39732525 -0.6457814 -0.2986048 -0.6699352 0.13553439 0.13478723 0.05818883
-0.27111784 0.0287772 -0.15363446 0.0643304 0.6765752 0.01881042 -0.27323008 0.8818095
0.19815622 -0.60846674 -0.21081728 -0.017544799 -0.51827526 -0.7092459 -0.40352833 0.113715865
-1.0844316 1.1401 0.032509148 0.5154305 -0.46718603 0.025720343 -0.13341294 -0.045057554

bn1.running_var f4 [256]
00000000: 9c30 583d 5542 0d3e e401 bc3d 592e 9f3d
00000010: 1d92 b63d bd29 fe3d 3906 283e 6f2d 643e
00000020: 2b78 d83d 4748 9c3d 93ff a13d 50f3 c23d
00000030: dd6d dc3d e150 613e f380 ca3e 4e55 193d
00000040: d494 a33d 8dae 073d 6cc3 283d b1b3 db3e
00000050: 8a30 663e 2a44 bd3c a43e 213e 5930 1c3d
00000060: fa71 e63d b52d 923d eae9 073e 7b34 293e
00000070: f0f5 8d3d c01d 163d dd2d 4a3d fb6b e43c
00000080: 2efc 483d a166 a43d 9bbb 1f3d bd0e 203d
00000090: 27d7 853d 8bdf 9c3e a79c 833d a092 233e
000000a0: bef8 3a3d 884c 443d c767 0a3d 4fd6 783e
000000b0: 7883 283d 2928 383e c58d d03d 27d5 4a3d
000000c0: a547 723d 2fc4 323d a2e9 5f3d f9d5 1f3d
000000d0: 5be9 d13c 832b b33c 128b e43d 2fe2 5f3d
000000e0: 729c 273e 43f9 db3e b614 dc3d 7ea9 0d3d
000000f0: c51c 393e 5b04 4c3d cba3 df3c 9646 2c3d
00000100: 74e5 9b3d 2f4a 263e 7b32 443d 1d9d 313d
00000110: 5c04 103e 7586 6e3e 83cf c33e 2b86 9f3c
00000120: 511a 973d 6a25 053d 614e 4a3d ee36 e83d
00000130: e22e 953d 6040 773d b8fb 5c3d e814 8c3d
00000140: eefa f23d fa63 583d 180d 033d 0cff 573d
00000150: c219 d93c 6e25 dc3c d390 023e 36d9 083e
00000160: 6f7d db3c ae57 113e f4b2 283d 5c3b 783c
00000170: 76b9 fd3d 28e2 d23d 0192 c63c ee31 1a3e
00000180: fd92 d53d 8015 283e b87f 733d 6eb1 593d
00000190: 4995 413d 89ea 723d 6231 a83d acfc bf3d
000001a0: 7daf 8b3d c137 523d c171 d73d 7a8d c73d
000001b0: 00f7 c23e 413d cf3d 5f54 413d fd43 aa3d
000001c0: b996 3d3e 267f 2d3e 2064 7d3d 9e7d 653d
000001d0: 0e6d c43d 3be6 763d d21a 683d f9c0 1c3d
000001e0: bfa9 f33d 9d7d ec3d 3058 e33d 3ae2 f43d
000001f0: fdf1 1d3d c756 253d f953 e73d f944 9b3d
00000200: 24d5 c33d beca b03c 819a 533e 0950 913d
00000210: 4650 0b3e 1d47 fe3d 945f ff3d ef46 3f3d
00000220: a886 903d 9d66 563d 0304 493e 27f0 153d
00000230: 9f37 1c3d f387 843d 87ad 903d cc92 603e
00000240: 95c4 dd3d dabb 033e 3c8b 073d c6a9 433d
00000250: e7af 913d d51b 193e 80b1 bc3c b991 ad3d
00000260: af2b c73e d984 de3c 8863 183e e36a 053e
00000270: 6be9 9f3d 4472 283e ec31 523d 7764 ea3c
00000280: 6592 c53d 422d 5c3c b745 873d b959 483e
00000290: b9ac a13d 3088 e23d a574 203d e1e8 b63e
000002a0: 4c04 4c3d 1fa0 283d 8624 e63d 7b5a 9c3d
000002b0: 523d 803d 155f 553d 5f95 2f3d e8b9 003e
000002c0: 5e8c be3d 4dd3 703e b890 653d d59a 0a3e
000002d0: f19d 2b3e dd5f 473d 348d eb3d 857d bc3d
000002e0: 12af b93d c288 993d 5e38 723c 74fc cd3d
000002f0: 51a1 7f3d 9ed3 113e a7e9 cb3d 895b 833d
00000300: 8891 ed3d c809 993d eddf ab3d b6d3 e73d
00000310: 57a0 083e 09fa b73d 1513 133e 3b56 753d
00000320: 3b78 da3d 11d5 373e 2e1f 483d fc9c 0c3e
00000330: cecd 4e3d b10b 183e e1eb ce3d fe72 053d
00000340: bf71 fd3c fa86 0a3e 2be1 a83d 6655 723d
00000350: ad54 943d 7eda 463d 77ff 323d 46f2 5d3d
00000360: c455 033e 17e2 d13d 5951 d23d 913f 713c
00000370: 9343 133e b240 7f3d bf40 f53d 114f 4b3d
00000380: f398 3d3d e7b4 a13d 50eb 293d e9c4 a03d
00000390: 5b06 3a3e e486 773c 5f29 2c3d d0f8 9d3d
000003a0: 0821 1b3d e6a7 693c 45c5 303e 3db3 123d
000003b0: 0562 1d3e 3027 073d 86d2 1f3d 2dfa 0c3e
000003c0: 454e 963e f780 4f3d b6f9 8d3d 78af 283d
000003d0: c36a bb3d 8fc1 e13c d904 d83d 9bb8 503e
000003e0: 2c63 873e 93af 033d 928a 753d 28eb 743c
000003f0: 5564 b43d 256c 273d 88de a43d 0fd2 313e
0.052780733 0.13794835 0.09180048 0.07772512 0.08914588 0.12410305 0.16408624 0.22282957
0.10569795 0.07630973 0.07910075 0.095190644 0.10763142 0.22003509 0.39551505 0.03743487
0.07987371 0.03312545 0.041201994 0.4291053 0.22479454 0.023103792 0.15746552 0.038132045
0.11252208 0.07137624 0.13272825 0.16523926 0.069316745 0.036649466 0.049360145 0.02788352
0.049068622 0.080273874 0.038997274 0.039076556 0.06535178 0.306393 0.064263634 0.15973902
0.045647375 0.04792455 0.033790376 0.24300502 0.041141003 0.1798407 0.101832904 0.049519684
0.059150357 0.043644127 0.05466617 0.03902242 0.025623968 0.021871334 0.11159338 0.054659065
0.16368273 0.4296361 0.10746138 0.03458547 0.18077381 0.04980884 0.027299782 0.042059503
0.07612124 0.16239236 0.047899704 0.043362726 0.14064163 0.23293479 0.38244256 0.019473156
0.07378066 0.032506384 0.049391154 0.11338602 0.07284333 0.060364127 0.053950995 0.06839925
0.11864267 0.05282972 0.03199491 0.052733466 0.02650154 0.026873317 0.12750559 0.1336411
0.02679321 0.14193603 0.041186288 0.015150871 0.123888895 0.10297042 0.024239542 0.15058109
0.104284264 0.16414452 0.059447974 0.053147726 0.04726151 0.0593057 0.08212544 0.09374365
0.06820581 0.051322702 0.10519744 0.097437814 0.3807907 0.10119105 0.047199603 0.08313749
0.18514527 0.16943035 0.061863065 0.056028 0.09591113 0.06027816 0.056666203 0.03826997
0.11897611 0.11547396 0.11100805 0.11957212 0.038560856 0.04036596 0.112953134 0.07581515
0.09562138 0.02158105 0.20664407 0.070953436 0.1360484 0.124159075 0.12469402 0.046698507
0.07056934 0.052343953 0.19630437 0.03660598 0.038138982 0.06471243 0.07064348 0.21930999
0.10828511 0.12864628 0.03309177 0.04776933 0.07113629 0.14952023 0.023033857 0.0847506
0.38900515 0.027162956 0.14881718 0.13029055 0.07808193 0.16449839 0.05131714 0.028612358
0.09647063 0.013438525 0.06605094 0.19565476 0.07894272 0.11061132 0.03917374 0.35724548
0.049808785 0.04116833 0.11237435 0.07634445 0.06261696 0.05209263 0.04286706 0.12570918
0.09304117 0.23518105 0.056046218 0.13535626 0.16759469 0.048675407 0.11501542 0.092036285
0.09066595 0.074967876 0.014783947 0.10057917 0.062409703 0.14240882 0.09956675 0.06413943
0.116000235 0.07472569 0.0839232 0.113196775 0.13342415 0.08983237 0.14362748 0.05989669
0.106674634 0.17952372 0.04885786 0.1373176 0.05048924 0.1484821 0.10103584 0.03258037
0.030938027 0.13528052 0.082460724 0.059163474 0.07242713 0.048548214 0.04370066 0.054186128
0.12825686 0.10248201 0.10269422 0.014724628 0.14381246 0.062317558 0.1197524 0.04963595
0.046288442 0.078958325 0.041484177 0.07850058 0.18166487 0.015107844 0.042031642 0.07713473
0.037873298 0.0142612215 0.17262752 0.035815466 0.15369423 0.032996356 0.03901913 0.1376731
0.2935659 0.0506601 0.06932394 0.041182965 0.091512226 0.027558116 0.105477996 0.20382921
0.2644285 0.032149862 0.059946604 0.014948644 0.08808199 0.04087462 0.08050257 0.17365287

fc2.weight f4 [128, 256]
00000000: 54c2 e93c 3d94 643d 1c59 1a3e eb1d 78bd
00000010: 900d 7e3c 0548 f73c 5195 af3c 384a 12be
00000020: f1c4 323e 93bb 31bd e214 983c 58e6 26bd
00000030: f7f2 b1bd 12e1 98bc 203e 833c 5aa5 7fbd
00000040: 0e6c 3fbd 85cc 383e 004f 04be 73f9 f33b
00000050: 4f83 13bd 2d88 083e 610b babd 124b 2d3c
00000060: 83f4 073e c073 7bbd a6a7 053d 51d1 fb3a
00000070: 26d9 713c b719 7cbd 35f8 aa3c 8016 30bd
00000080: 2e7a 113c 1280 a23c ea7c 823d e3f8 a33a
00000090: a335 593e 367c 64bc f8ce 3fbe 1c15 c63d
000000a0: 80f7 90bd b2fa 103d ba5c 08bd 7492 abbd
000000b0: 376c 7e3d 4b70 913d db4d 903d 8fc8 03be
000000c0: 3b4f a43c 763e a5bd 0d97 a9bd 683c 283c
000000d0: ca25 90bc 8c6b dabc 3264 7c3b 4d2f 0fbe
000000e0: a523 63bd 28dc 46bc 0d65 f23c 31e3 37bc
000000f0: 2821 453c e88c b7bd ae63 3abe 57f0 73bd
00000100: 50a3 0abd c522 7dbd e390 80bd 8d61 32bd
00000110: 1de2 903c 40bf 0bbe 600d c63d 3fcf 413d
00000120: 4bf1 90bd 4864 0c3d a575 03bd 6a76 66bd
00000130: 031c 42be 8fad 343d a02c a9bd 990a 8c3c
00000140: 2d3d 863c 6e9d 09be 4f5d 873d 9446 64bd
00000150: fc8a 473c 36e8 a8bd 8689 9abb 1120 d63c
00000160: 02f5 81bb a877 4c3b bdd3 5abd ccb8 97bc
00000170: 2fe5 403d f01d 0cbc 2a17 e73c 3b12 133e
00000180: 5558 93bd d9f0 dc3d b9c1 febc fb8f 453c
00000190: ba20 213c eceb 273d 89e3 fbbd 239e cebc
000001a0: fb90 b9bd b544 8e3d c910 0b3c de25 86bd
000001b0: 2d07 613c 5269 27be c58a 0fbd 8055 b9bd
000001c0: 6297 79bd dddf c53d 2617 0d3e 99ee 5d3d
000001d0: 46c4 b7bc d1d4 1ebd 1f29 2fbd 9f9a 303d
000001e0: c351 bebc b291 f6bd 8054 963d d4f4 243d
000001f0: c689 5e3d db99 7b3d c1f9 1bbd 1fa2 1bbd
00000200: e87f 72bd d1cc 233d 793e 15bc 4dde 19be
00000210: 2d4f 01bd 3b06 d63d c826 ce3c ba0a 3d3b
00000220: 3174 71bc 5d06 873d d3de 773c e53c 83bd
00000230: a266 823c 7a84 013c cb3f 7b3d 3384 f33c
00000240: c564 823c c3af 833d 7dae bdbd bb66 0c3e
00000250: 0e19 babd fa53 95bc 860e 0c3d b067 03bd
00000260: 52fb dfbd a1aa 45bd 19ea e93c 5fc8 2a3d
00000270: c419 7c3d 99c1 2ebd 89c8 23bd 2e78 09be
00000280: c5d4 93bd 5e21 0a3c a27a 133d 5edf 343d
00000290: 6cf9 803d 1898 8bbe 8a9c 9cbd 4836 95bd
000002a0: aab4 6f3b 41f1 313b 87d9 57be 530d 89bc
000002b0: 5a53 5c3d b6cd efbd 94c2 32be 590a 66bd
000002c0: 6127 0fbc 86d9 51bc 1300 693e df5d 34bb
000002d0: 0f32 7c3c 085c 4c3e 0e66 2bbd 7b37 babd
000002e0: 9c0d 79bd f4b1 a4bb f49c 503d 83d0 763d
000002f0: e80b e2bc 74bb 283b dc32 893d dbe5 173e
00000300: 2de0 98bb be9e a53d fcef 9bbb d238 e1bd
00000310: 325e ebbb 229e cabc 7897 633e 58d1 1b3e
00000320: d589 303e 4c23 82bc 34aa 1b3d d081 c0bd
00000330: b73d 103c 2ac9 c03d 27df 6a3d 9f9a 773c
00000340: bcbc babd 424d c23d 8262 95bc e9f3 4e3d
00000350: 8410 903d 461f e33d ebfc 653d 83d2 b33d
00000360: 297f 993c 177a e2bd 71e7 b8bc bfd6 e33c
00000370: 9e7b 303d 4b98 883d 4216 b43d bbbd 2c3d
00000380: 25f7 cbbd f376 e4bd 1712 28bc e8fd 293c
00000390: 8535 8ebb 06ab a43d 10ab 863b 7f4d 633d
000003a0: 0640 6e3d efe1 1e3d 6fdf afbc 797f ba3d
000003b0: 605c 95bc 0157 ab39 425e 6a3c b7e1 cc3d
000003c0: dc26 c93c 049e 92bc 8123 d63d 5e98 d53c
000003d0: 0d49 cfbd 1449 763c 0ac1 afbc 9ebd c63b
000003e0: 15a6 f1bc 3a17 9d3d 65be 35bd e400 3a3e
000003f0: e9cc 553c b1ff 80bd 5867 e9bb 7235 c7bd
0.028535046 0.055805434 0.15073055 -0.060575407 0.015506163 0.030185709 0.021433504 -0.14286125
0.1745794 -0.043391775 0.018564645 -0.040747017 -0.0868892 -0.01866201 0.016020834 -0.06241355
-0.04673391 0.18046768 -0.12920761 0.007445508 -0.036013898 0.13333197 -0.090842016 0.01057698
0.13276868 -0.061389685 0.032630585 0.0019212161 0.014761245 -0.06154796 0.020870307 -0.042990208
0.008879228 0.01983646 0.06371482 0.0012510087 0.21211867 -0.01394563 -0.18731296 0.09671995
-0.07078457 0.03539533 -0.033291556 -0.08377543 0.06211492 0.07101496 0.070461 -0.12869476
0.020057311 -0.08068554 -0.08280764 0.010268308 -0.017596144 -0.02666261 0.003851187 -0.13982888
-0.055453915 -0.01213745 0.0295892 -0.0112236 0.012031831 -0.089624226 -0.18202087 -0.059555378
-0.033847153 -0.061800737 -0.06277635 -0.043550063 0.017685944 -0.13647175 0.0967052 0.047316786
-0.07077273 0.034275323 -0.032094616 -0.056265272 -0.18955998 0.04411083 -0.08260465 0.017094897
0.016386593 -0.13438961 0.06609594 -0.05573137 0.012179133 -0.08247416 -0.004716101 0.026138337
-0.003965975 0.003119925 -0.053424586 -0.018520735 0.047093567 -0.0085520595 0.028209288 0.14362423
-0.071945824 0.107881255 -0.031098234 0.012058253 0.009834463 0.040996477 -0.12299258 -0.02522189
-0.09060856 0.069466986 0.008487889 -0.06550191 0.013734621 -0.1634877 -0.03504445 -0.09049511
-0.060935386 0.09661839 0.13778362 0.054182623 -0.022432458 -0.038777176 -0.042763826 0.04311621
-0.023232346 -0.12039508 0.07340336 0.04027255 0.05433061 0.061426025 -0.03807998 -0.037996408
-0.059204012 0.03999025 -0.009109133 -0.15026207 -0.03156965 0.10450407 0.025164977 0.0028845505
-0.014737175 0.065930106 0.015128809 -0.06408099 0.01591808 0.00790512 0.061340135 0.029726123
0.015917191 0.06430008 -0.092617966 0.13711064 -0.0908681 -0.01822852 0.034193538 -0.032081306
-0.109366074 -0.048258428 0.02855401 0.041694995 0.06154801 -0.042665098 -0.039986167 -0.13424751
-0.07218317 0.008430807 0.036005624 0.044158332 0.062975734 -0.27264476 -0.07647045 -0.07285744
0.003657619 0.0027151855 -0.21079074 -0.016729986 0.053790428 -0.11709158 -0.17457038 -0.056162212
-0.008737416 -0.012808209 0.22753935 -0.0027521772 0.015392794 0.19956982 -0.041845374 -0.09092613
-0.060803995 -0.0050260965 0.050930932 0.060257446 -0.027593568 0.0025746496 0.06699154 0.14833777
-0.0046653957 0.08086918 -0.004758833 -0.10997166 -0.00718286 -0.024733607 0.2222575 0.15216577
0.17240079 -0.015885971 0.038004115 -0.0939976 0.008803776 0.09413369 0.05734172 0.015112548
-0.091180295 0.09487392 -0.018235449 0.05052558 0.070344 0.11089949 0.056149404 0.08780386
0.018737393 -0.11058443 -0.022571297 0.02781236 0.04308664 0.066696726 0.08793308 0.04217313
-0.099592485 -0.111555 -0.010258219 0.010375477 -0.004339876 0.08040433 0.0041097477 0.055493828
0.058166526 0.038789686 -0.021468846 0.09106345 -0.018232524 0.00032680485 0.014304699 0.10003989
0.024554662 -0.017897613 0.104559906 0.02607363 -0.10121355 0.015032072 -0.021454353 0.0060650846
-0.02949814 0.07670446 -0.044371027 0.18164402 0.013049343 -0.06298769 -0.0071229152 -0.09726991

fc2.bias f4 [128]
00000000: 9d70 afbe de9a 013d 028d a9bd e61e 23be
00000010: fc24 02be c99f 38be aa5d 11be bb4a afbc
00000020: 361f 183c 5cd7 73bd 3b30 22be 20af b03d
00000030: be37 62bc a3a9 c0bd bcdc 85bd c082 03be
00000040: b815 acbe 69eb 5dbe 66ec e5bd 8cc7 f73d
00000050: 28ca 72be 8def 8fbc a325 6cbe b0e8 ad3c
00000060: 8956 c8bd 23b5 dcbb bf2a bbbd cbca adbc
00000070: bff6 d13c 00d9 aabe 1dec f73c b244 f3bd
00000080: d833 d1be 56c6 c2be 8e92 dcbd 7a71 86be
00000090: d245 87be 2b32 2abe 8a73 b6be b386 9ebe
000000a0: c159 afbd 21a1 abbe a96d 89bd 5162 f1bd
000000b0: 2c59 76be c379 5cbe f709 e0bd 782a b6bd
000000c0: bc6e 14be ac38 8dbd 893a 30be 9dfa b2be
000000d0: 548d 75be 960e 1fbe ab55 ccbd 452a 15bd
000000e0: 0a81 a9be f26c fcbd ffad e8bd 5166 13bd
000000f0: bcfb 06bd 587f 08be 04f5 90be 0e29 b3bd
00000100: 9ead 19bd ddd4 d3bd d3ed 07be 2113 26be
00000110: 07e3 08be b75c e2bd a640 acbe 3695 6abe
00000120: df3f 22be b322 69be 194a 67be a2d4 97be
00000130: 2db5 0dbe 896f 17be 9fff bcbd 5fa5 4bbd
00000140: 0f00 a4be 519b 94bd b66d 75be a6e3 84be
00000150: bcba 20be 3c00 21bd aa6d 0a3b 56af a3bd
00000160: 2692 c3bd f5ac aebd 9c4d fc3c a936 583c
00000170: 786a 7abe 529d 70bb 2c28 433d cc44 1abe
00000180: 8ef8 0cbe b9e3 babb 6853 08be 7295 a3ba
00000190: ffcf a6bc e2da 3dbe 2c56 d53d ec44 6eba
000001a0: 658a 613c dd7e 11be be87 07bd 481c d0bd
000001b0: 2c2c 8fbe 33e6 033e 5c28 0dbe 0aa5 d0bd
000001c0: df99 1abe 9845 a9bd cce2 13bd e32b 7abe
000001d0: e288 9cbe ce90 00bc 6e43 04be c9b6 36bd
000001e0: 43a6 8abe a580 d4bc d130 ffbd 8806 0ebe
000001f0: 1e92 3cbe dba4 22bc b0a2 21be 2a2c 55be
-0.34265605 0.031641833 -0.08278848 -0.15929756 -0.12709421 -0.18029703 -0.14195886 -0.021397939
0.009284785 -0.059531555 -0.15838711 0.086271524 -0.013807235 -0.09407356 -0.06536242 -0.12842846
-0.3361032 -0.21671833 -0.1122673 0.120986074 -0.23709929 -0.017570281 -0.23061232 0.021229118
-0.0978213 -0.0067354604 -0.091390125 -0.021214863 0.025630353 -0.33368683 0.030263955 -0.11878337
-0.40859866 -0.38041943 -0.107701406 -0.2625845 -0.26420456 -0.166207 -0.35635024 -0.30962142
-0.08562041 -0.3352137 -0.06710369 -0.117863305 -0.24057454 -0.21530823 -0.10939401 -0.08894819
-0.14495367 -0.06895575 -0.1720983 -0.34956828 -0.23979694 -0.15532908 -0.09977277 -0.036417264
-0.33106261 -0.12325467 -0.11361312 -0.03598625 -0.032954916 -0.13329828 -0.28311932 -0.08748065
-0.03751909 -0.10343335 -0.13274316 -0.16218235 -0.13367854 -0.1105284 -0.33643073 -0.22908482
-0.15844677 -0.22767143 -0.2258686 -0.29654413 -0.13838644 -0.14788641 -0.09228443 -0.049718257
-0.32031295 -0.07256187 -0.23967633 -0.25954932 -0.15696234 -0.039306864 0.0021122494 -0.07992427
-0.0954936 -0.08529083 0.030798726 0.013196626 -0.24454677 -0.0036714864 0.047645733 -0.15065306
-0.13766691 -0.005703416 -0.13313067 -0.0012480451 -0.020362852 -0.18540528 0.104168266 -0.00090892497
0.013765906 -0.14208551 -0.03308844 -0.10161644 -0.27963388 0.12880783 -0.13784927 -0.10187729
-0.1509776 -0.08265227 -0.036104962 -0.24430804 -0.30573183 -0.007847024 -0.12916347 -0.04460791
-0.27079973 -0.025940249 -0.12460483 -0.13869679 -0.18415114 -0.009927 -0.15784717 -0.20817629

bn2.weight f4 [128]
00000000: 4189 873f 75d6 7e3f 5cb5 7b3f ab7a 813f
00000010: 2fbc 813f d0a0 7e3f 9eb8 863f f7f9 823f
00000020: b245 6d3f 9271 803f 8b93 873f d925 7c3f
00000030: 13e3 7c3f 97d3 823f 6e7a 813f 70a6 843f
00000040: 6919 883f 20eb 833f b623 833f 19a6 7e3f
00000050: 3402 803f 7726 793f 71ab 7e3f 67e8 733f
00000060: 76d4 843f 7be1 843f db15 813f 3662 833f
00000070: ff86 793f 69a5 833f 4214 803f 3cee 783f
00000080: 23c1 8b3f babc 883f 1a2f 863f 9b6b 823f
00000090: f561 8b3f 5187 823f b004 873f 28d9 833f
000000a0: 7619 6e3f bde3 803f feb3 7e3f cc42 7e3f
000000b0: a8f5 803f 7c4d 7a3f 7f2c 813f b24f 813f
000000c0: f1be 7c3f ab52 803f e453 833f 960e 813f
000000d0: 17de 873f 9e6a 873f 6785 843f 6d89 823f
000000e0: b40e 843f 104b 833f a315 843f 577e 7d3f
000000f0: ced3 753f f340 7d3f e2b9 883f 3cfe 823f
00000100: c6ed 773f e78b 713f ffb0 863f c032 873f
00000110: 2fab 893f ca8f 773f acc2 843f f540 803f
00000120: d13a 813f b528 883f f699 863f 86b8 8d3f
00000130: 078e 823f e7e9 823f 6fa8 843f c253 733f
00000140: 513f 823f 6a44 833f 6195 7e3f 3bf6 813f
00000150: 07f2 833f 5bac 743f d8f0 7f3f ce53 843f
00000160: 615f 813f 8b37 7f3f 2326 6f3f abfa 753f
00000170: 4556 823f aaac 813f ff82 793f 76c9 833f
00000180: ff1a 783f e768 813f 1355 873f 7a67 853f
00000190: 04df 7b3f 62ec 863f e55f 7d3f 71b2 763f
000001a0: 832a 813f c33a 7e3f 9337 7c3f ca33 863f
000001b0: 925e 803f e53a 813f 41ef 833f c6e1 863f
000001c0: 90fd 843f db04 813f 941c 893f c22b 843f
000001d0: aa07 883f 63b2 753f 4bc4 7d3f 391f 823f
000001e0: 98b0 833f d936 7a3f fe5f 8f3f 2d81 793f
000001f0: c8ac 913f 3ea8 783f 0c76 893f 2a22 7c3f
1.0588762 0.99545985 0.9832361 1.011556 1.0135554 0.9946413 1.0525091 1.0232533
0.9268447 1.0034659 1.0591902 0.9849525 0.9878399 1.0220822 1.0115488 1.0363293
1.0632755 1.030613 1.0245273 0.99472195 1.0000672 0.9732432 0.9948035 0.9527649
1.0377338 1.0381311 1.0084795 1.0264347 0.9747161 1.0284854 1.0006182 0.97238517
1.0918316 1.0682595 1.0483124 1.0189089 1.0889269 1.0197545 1.0548306 1.0300646
0.930076 1.00695 0.99493396 0.99320674 1.0074968 0.9777448 1.0091704 1.0102446
0.98728853 1.0025228 1.0259976 1.0082576 1.0614651 1.0579412 1.0353211 1.0198189
1.0316987 1.0257282 1.0319103 0.99020904 0.96026313 0.9892723 1.0681727 1.0233836
0.9684719 0.943541 1.0522765 1.0562363 1.0755366 0.9670378 1.0371909 1.0019823
1.0096074 1.0637423 1.0515735 1.1071937 1.0199593 1.0227631 1.0363902 0.9504968
1.0175573 1.0255253 0.99446684 1.0153269 1.0308236 0.95575494 0.99976873 1.0338075
1.0107232 0.99694127 0.93417567 0.96085614 1.0182577 1.0130818 0.9746551 1.0295856
0.9691619 1.0110139 1.0572838 1.0422204 0.9838717 1.0540888 0.9897445 0.9636603
1.0091099 0.99308413 0.985223 1.0484555 1.002886 1.0096098 1.030739 1.053765
1.0389881 1.0079607 1.0711846 1.0325854 1.0627339 0.9597532 0.99127644 1.0165778
1.0288267 0.9773994 1.120117 0.9746273 1.1380854 0.9713172 1.073915 0.9848963
