models/save_models/mlp_features_espectrales.pth (torch, 526364 bytes, 20 tensors)

fc1.weight f4 [256, 336]
000000 82 b1 a7 bb fa d5 48 3d 78 35 6b 3d 3b 51 b7 3c
       -0.005117596 0.04903219 0.05742404 0.0223776
000010 b4 79 cf bd 2f 40 65 3d 40 6d 10 bd 33 ba b3 3d
       -0.10130635 0.055969413 -0.03526044 0.08775749
000020 71 c5 4e be fd e4 9b 3d 6c 92 2b 3d 2b c6 03 3e
       -0.20192505 0.076120354 0.041887686 0.12868564
000030 86 b3 e7 bd 41 b6 80 3d f8 b6 d6 bd 3b 19 a1 3d
       -0.11313538 0.06284762 -0.10484117 0.078661405
000040 72 15 8f be 3d 88 c6 3d c8 80 bb bd 30 64 a1 3d
       -0.2794605 0.09693954 -0.091554224 0.078804374
000050 56 5b 4b be 2e 5c 74 3d 5c a7 b6 3c 42 4c 96 3d
       -0.1985906 0.059658222 0.0222966 0.07338764
000060 b7 e5 b9 bb b9 b5 00 3c 4e 29 50 be 03 90 1a 3e
       -0.005673136 0.007855826 -0.20328256 0.15093999
000070 9d e6 07 be d7 5b 8b 3d 94 60 27 be cb 7a e1 3d
       -0.13271566 0.068046264 -0.16345435 0.11009749
000080 25 74 53 be 17 d4 c6 3c 39 e2 d8 bd 71 b1 22 3e
       -0.20649774 0.024271054 -0.105900235 0.15888001
000090 dc 5d 8b bd b0 cd e7 3d cc e4 ac bd 63 ca 06 3e
       -0.06805012 0.11318529 -0.08442077 0.13163142
0000a0 4d 5f 23 be d7 67 4c 3e 62 fd 3e 3b a2 14 de 3d
       -0.15954323 0.19961487 0.0029142727 0.10843779
0000b0 c7 55 90 bd 30 1d 18 bc fd e9 c5 bd 89 90 a6 3d
       -0.07047611 -0.009284303 -0.0966377 0.08133037
0000c0 b0 82 5d be c6 37 bc 3d 96 ff 48 be 37 90 0b 3e
       -0.21631885 0.091903254 -0.19628748 0.13629232
0000d0 f0 ba 20 be 7e 2e f2 3b 20 8c 32 be 79 9c 1d 3e
       -0.15696311 0.007390796 -0.17436266 0.15391721
0000e0 de 5c a9 3b 22 55 80 bd 97 41 95 bd 77 60 52 bc
       0.0051685413 -0.06266238 -0.07287901 -0.012840382
0000f0 fb c8 b3 bd 57 8c 1e bd a6 db 29 bd ae ef 16 3d
       -0.08778568 -0.038708057 -0.04146924 0.03684967
000100 c2 65 93 3b 7f 4e 13 3d 3b c0 0b bc 93 a9 ca 3d
       0.0044982145 0.03596353 -0.008529718 0.09895625
000110 c3 9e 7c bd 33 e4 a0 3d 2a 80 14 be a5 09 be bb
       -0.061674844 0.078560255 -0.14502016 -0.0057994896
000120 bb 4d 3b 3c ff d0 86 3d 74 de 5e 3d f3 69 ff 3d
       0.011432107 0.065828316 0.054411367 0.1247138
000130 5f 82 35 bc f8 a6 b6 3c 86 a8 9e 3d 39 00 4b 3d
       -0.011078446 0.022296414 0.07746987 0.04956076
000140 86 d1 06 3d 97 d9 81 bd 81 e2 d4 3d ab 4c 09 3d
       0.03291466 -0.0634033 0.10394765 0.033520382
000150 18 55 03 bd 02 ae a0 bc e0 8e c4 bd 99 15 31 3d
       -0.032063574 -0.019614223 -0.09597564 0.043233488
000160 10 4e b5 bc 41 d7 25 3d 83 23 24 3e 83 71 29 3e
       -0.02213195 0.040488485 0.16029172 0.16547208
000170 ef d6 42 3c 42 b1 57 bd a0 6d 90 3d 7c 89 ce bb
       0.0118920645 -0.05265928 0.07052159 -0.0063030105
000180 95 de 08 3d 98 ac ae bd 0c 93 73 bd a8 16 36 3d
       0.033415396 -0.085290134 -0.059466407 0.0444552
000190 b2 d1 7f 3b 80 31 24 3b d7 2e 00 3e a1 c1 ef bd
       0.00390349 0.0025053918 0.12517868 -0.11706854
0001a0 78 f6 82 bd 9b c3 1f 3d 82 50 b4 bb 34 6a a9 ba
       -0.063946664 0.039004903 -0.0055027613 -0.0012925328
0001b0 81 72 91 bd 8d 04 9e 3d 36 56 a0 bd 8f 6b 69 bd
       -0.07101918 0.07715712 -0.078289434 -0.05698734
0001c0 05 50 82 3e a1 7a 9e be a4 ff 41 bd 9d 1e 1a 3e
       0.25451675 -0.30952933 -0.04736294 0.1505074
0001d0 ba 35 ba bd f8 cc fc 3d 58 2d 4a be be 63 08 3d
       -0.09092279 0.12343782 -0.1974386 0.033298247
0001e0 f3 bd c9 be f2 d4 a8 3d 5b a9 61 be 79 35 3d 3e
       -0.39402732 0.08243741 -0.2203726 0.1847743
0001f0 cd 95 cc bc 57 26 91 3d 2b c6 32 be 67 91 4d 3d
       -0.024973774 0.07087391 -0.17458408 0.050187495
000200 46 86 92 be 35 58 b4 3d 6c 00 0d be 6f b4 77 3d
       -0.28618068 0.08805887 -0.13769692 0.06047481
000210 c5 e3 64 be 3e 95 b4 3d a5 ca 3b be 92 23 1f 3e
       -0.22352512 0.08817528 -0.18339022 0.15540913
000220 9d 75 33 be d3 79 0e 3e e8 00 cd bd 49 ad e1 bc
       -0.17525335 0.1391366 -0.100099385 -0.02754845
000230 b4 07 8a bc 3e aa ae 3d 14 ac 2f be 23 6c 8d 3d
       -0.016849376 0.08528565 -0.17155486 0.06905391
000240 09 9d 31 be 6a ab 36 3e 64 d7 a0 bb 62 9a 20 3e
       -0.1734506 0.17838827 -0.004908489 0.15683892
000250 15 37 19 bd ff 0f 64 3e 13 6f 23 be 01 1f 22 3e
       -0.037406046 0.22271727 -0.1596034 0.1583214
000260 82 8f b2 bd 89 8a 31 3e 1b b1 47 bd a5 f0 2e 3d
       -0.08718778 0.17338003 -0.048752885 0.042709965
000270 48 a3 3e be c3 88 6a 3e a5 4b 27 be df 7d b5 3d
       -0.18616974 0.22903733 -0.1633745 0.08861899
000280 62 aa cd bd 46 30 4e 3e 01 2a 18 be 31 8e 1b 3e
       -0.100422636 0.20135602 -0.14859773 0.1519096
000290 42 30 b9 bd 84 8c bb 3d 16 dd 18 be fd 1c 3d 3e
       -0.090424076 0.091576606 -0.14928088 0.1846809
0002a0 c6 72 e6 3c 98 7d 28 3d 08 1b 4b 3d eb 76 7f 3c
       0.0281309 0.0411354 0.049586326 0.015592317
0002b0 7c 54 c6 3c 9c 5b 34 bb 3c 60 5c 3d 6a 09 b8 3c
       0.024210207 -0.0027520424 0.053802714 0.022465426
0002c0 ff 4f bf 3d 0f f2 3d 3e 05 cf 4b 3c 46 78 25 3e
       0.0934143 0.1854937 0.012439494 0.16159162
0002d0 28 3e 06 3e 8c dd 28 3e 77 d7 35 3e 70 5f f3 bd
       0.13109648 0.16490763 0.17757975 -0.11883438
0002e0 bc fb 01 be c4 64 62 3d dd 5f 79 3d f0 01 4f 3e
       -0.12693685 0.05527188 0.060882438 0.20215583
0002f0 00 61 8e 3c de a0 b7 3c 4d a7 a5 3d 1b 08 88 3d
       0.017380238 0.022415575 0.08088551 0.06642171
000300 f0 39 db 3b 83 28 39 3c 26 fd 5a bc e1 5c aa bb
       0.0066902563 0.011301163 -0.013366019 -0.0051990603
000310 ca c6 77 bc 5f 56 60 bd b1 17 67 bd 54 16 96 bb
       -0.015123079 -0.05476987 -0.05641908 -0.0045802984
000320 f1 6d 3e 3d 1b e6 67 be ca b1 01 3e 97 1d 18 bd
       0.046491567 -0.22646372 0.12665477 -0.037137594
000330 f4 0a 38 3d 06 b6 b3 bc 44 7c 9c 3d e5 9b 85 bd
       0.04493232 -0.021937381 0.07640889 -0.06523875
000340 da 78 10 3d 5a b0 b6 bd e1 e9 87 bc 7d 19 18 bd
       0.035271503 -0.08920355 -0.016591014 -0.037133683
000350 7f c1 bf bc ac 16 af 3d ce e4 05 3c cd 75 1b bd
       -0.023407696 0.08549246 0.008172227 -0.03795414
000360 6a 76 c3 3d 5b 9a 9a 3c a6 5f 00 bd e1 0a b3 3d
       0.0954407 0.01887243 -0.031341217 0.08742309
000370 3b 2d 81 bb 90 8b 21 3d f6 70 69 bc 55 1f 1d 3d
       -0.0039421595 0.039439738 -0.014248123 0.03835996
000380 9e 35 06 3e cd 90 b8 bd b5 bc cf 3c 62 34 88 bd
       0.13106391 -0.090119936 0.025358537 -0.06650616
000390 ed 0f 1c be ce 7b 81 bd 48 7d 9a bd 62 04 bc bd
       -0.1524045 -0.06322442 -0.07543427 -0.091805235
0003a0 ee 63 30 be e7 80 9d 3d eb 99 d7 bd bf 08 3f bd
       -0.1722562 0.07690602 -0.105274044 -0.0466392
0003b0 0d bf d9 bd e5 ad 79 3d 07 23 e5 bd c0 1b 0c 3d
       -0.10632143 0.060956854 -0.111883216 0.034206152
0003c0 4c 35 67 be 7c a5 ce 3d e2 93 da bc 64 95 38 3d
       -0.22578925 0.100901574 -0.026681844 0.045064345
0003d0 c2 df ff bd 4a 21 ca 3d fc 14 9e 3d cd dc 50 3e
       -0.1249385 0.09869631 0.07718846 0.20396729
0003e0 44 3f 28 bd 16 67 26 3d ce 10 46 be ef 8a e9 3c
       -0.04107596 0.040625654 -0.19342348 0.028508632
0003f0 4f dc 9c bd 17 fe 01 bd ea 53 a6 bd 6d e6 c9 3d
       -0.07659208 -0.03173646 -0.08121474 0.09858403

fc1.bias f4 [256]
000000 ed ae 20 3e d2 d2 23 3c d2 d2 23 3c 90 47 b6 3d
       0.15691729 0.009998994 0.009998994 0.08900368
000010 5b 9a 88 3e 70 6f 45 3e 0e e4 09 3e 93 b8 a6 bc
       0.26680264 0.19280791 0.13465902 -0.020351684
000020 ab 29 d7 3b 39 d8 a6 bc c3 47 79 3d d5 e5 0e 3d
       0.0065662465 -0.020366775 0.060859453 0.034887154
000030 9f a1 8b 3d 31 d3 99 3e d2 d2 23 3c 2a 8d 01 3d
       0.06817936 0.3004394 0.009998994 0.031628765
000040 d2 d2 23 3c fd 41 e6 3d e9 0e 91 3d d2 d2 23 3c
       0.009998994 0.11243055 0.07082922 0.009998994
000050 ad c6 cd 3d c6 dc 0a 3d 6a 2d 80 bd 9f 27 97 3d
       0.1004766 0.033901952 -0.06258662 0.07380604
000060 d2 d2 23 3c e6 32 1e 3c e5 78 36 bc 0b f1 e9 bd
       0.009998994 0.00965569 -0.011137222 -0.114229284
000070 34 d1 23 3c 84 69 8d 3d 6d 42 19 3e d2 d2 23 3c
       0.009998608 0.06904891 0.14966746 0.009998994
000080 ed fd 7c 3d 13 03 f3 3d 7d 15 8f ba 0e 7e 74 3d
       0.0617656 0.11865821 -0.0010916438 0.059690528
000090 3f 65 91 3d ba d1 c1 3d d2 d2 23 3c 79 f0 04 3d
       0.07099389 0.0946383 0.009998994 0.032455895
0000a0 e8 7d 9d 3b d2 d2 23 3c 56 6c 55 3e ba dc f1 3d
       0.004806269 0.009998994 0.20842108 0.118096784
0000b0 89 52 c7 bd 91 7c 3b 3e 63 fd 3c 3e 03 13 17 3d
       -0.09732539 0.18309237 0.18456034 0.036883365
0000c0 19 55 8f bc e2 da 6d 3e 51 20 ac 3d fc ea b2 3e
       -0.017496632 0.23228028 0.08404601 0.34944904
0000d0 38 ba 49 3d 90 f7 da 3b a2 f0 84 3a a9 9d 9c 3c
       0.049249858 0.006682344 0.0010142515 0.019118147
0000e0 34 5a d2 bc d2 d2 23 3c f7 91 60 3e 63 c3 4c bc
       -0.025677778 0.009998994 0.21930681 -0.012497756
0000f0 18 52 23 3e 91 f2 02 3e 10 21 fa 3e 1d b1 b3 3c
       0.15949285 0.12787844 0.4885335 0.02193504
000100 8b 2c da bc 38 d6 01 bc b0 5e d0 3d 83 5e 59 3e
       -0.026632568 -0.007924609 0.1017431 0.2122746
000110 f8 31 56 3d f0 49 ee 3d 0d 95 9c 3c 01 77 4e 3c
       0.052293748 0.11635196 0.019114042 0.012601615
000120 8f 78 24 3e d6 b1 18 bd 90 80 30 3e 97 34 f6 3d
       0.16061614 -0.037278973 0.17236543 0.120217495
000130 ea 35 88 bc 7a 3c 5a 3c 76 48 0b 3b e0 a3 95 3d
       -0.01662727 0.013320083 0.0021252907 0.07306647
000140 d2 d2 23 3c 96 91 bb 3e 0e ac 0b 3e ee 82 59 3e
       0.009998994 0.3663451 0.13639852 0.21241352
000150 83 86 26 3e d0 3c 0f bd 6a 7c f4 bc fb e1 4e 3d
       0.1626225 -0.034970105 -0.029844481 0.05050848
000160 32 3c 25 bd 02 62 b0 3e d5 e1 75 3b 80 1e 2c 3e
       -0.04034061 0.34449774 0.003751864 0.1680851
000170 5d 6f 06 3d 04 1e 18 3d c6 80 fa 3d 9e c8 87 3c
       0.032821048 0.037138 0.12231593 0.016575154
000180 1f 88 bc bb d2 d2 23 3c 68 7b fe bd 1f d4 70 3c
       -0.0057535316 0.009998994 -0.124258816 0.014699011
000190 8c 0f 46 3d 30 2a 6c bc d2 d2 23 3c ab 2a ae 3c
       0.04835467 -0.014414355 0.009998994 0.02126058
0001a0 46 ea e2 3d a3 4e a5 3d ea 49 24 be 9d 4e 21 3d
       0.1107984 0.080716394 -0.16043821 0.039381612
0001b0 83 7a a5 3e 62 d7 5a bd d2 d2 23 3c 0e 50 26 bc
       0.32320032 -0.05342806 0.009998994 -0.010150922
0001c0 d2 d2 23 3c 79 a8 8c 3d 50 a8 45 3d fb 73 e1 bb
       0.009998994 0.06868071 0.04825622 -0.006880281
0001d0 80 a2 87 3d ab f1 a5 3d 44 49 4a 3e a9 18 30 3c
       0.06622791 0.08102735 0.19754511 0.010748067
0001e0 ae ee 3e 3e d2 d2 23 3c 63 7b 41 3d 48 da b9 3e
       0.18645737 0.009998994 0.04723681 0.36299348
0001f0 d2 d2 23 3c 6a d2 89 bd 8e ae ce bd bf fd bc 3b
       0.009998994 -0.067295864 -0.100918874 0.0057675536
000200 15 88 6c 3e 5e 87 3f 3d 28 d5 05 3d d6 b0 85 3c
       0.23098786 0.046759956 0.032673985 0.016319674
000210 61 b5 30 bd 10 90 2f 3e d2 d2 23 3c 4f fd 93 3d
       -0.043141726 0.17144799 0.009998994 0.07226049
000220 5f c0 aa 3d cd 6d 47 3d d2 d2 23 3c 3c a6 16 3d
       0.08337473 0.0486887 0.009998994 0.036779627
000230 e5 6c 3c 3d d9 b1 14 3e 4f 9c 8e bb 2b 58 bf 3c
       0.046002287 0.14520968 -0.0043521295 0.023357471
000240 6e fe db 3d 5c 8d 2d bc de f0 bd 3c d2 d2 23 3c
       0.10741888 -0.010592785 0.023186143 0.009998994
000250 b6 72 a9 3d 9c 94 26 bd d2 d2 23 3c d6 09 02 3d
       0.082738325 -0.04066907 0.009998994 0.03174766
000260 14 cd 33 3e 9e f0 78 3a d2 d2 23 3c 19 11 a1 bc
       0.175587 0.0009496304 0.009998994 -0.019661473
000270 9e b4 56 3d fb ac 5e 3d 77 28 31 3d 63 24 81 3e
       0.052418344 0.054364186 0.04325148 0.25223073
000280 4d ee 50 3d bc 25 9c 3c 5c e3 cb 3d f3 a4 4f 3e
       0.05100851 0.019060962 0.09955475 0.20277767
000290 7d c1 97 3d 63 7a 1d 3d 7e ad 61 bd 37 e7 e4 3d
       0.07409952 0.038446795 -0.055097096 0.11176913
0002a0 f0 6c b3 3b fa 22 a2 bd 46 d9 82 3e 6a 01 5a 3b
       0.005475633 -0.079168275 0.2555639 0.0033265003
0002b0 7f 55 54 3d b5 be 0a 3d b5 23 31 bc d2 d2 23 3c
       0.051839348 0.03387328 -0.010811736 0.009998994
0002c0 0e 44 10 3e 63 bd 61 3e dc ac 0b 3e cf 5e a8 3b
       0.14088461 0.22044902 0.1364016 0.005138255
0002d0 e3 2f d8 3a 00 e6 d5 3c 9b 47 8c 3d 73 49 96 bd
       0.0016493764 0.02611065 0.06849595 -0.07338228
0002e0 27 a6 c9 3d 23 01 ef 3d d2 d2 23 3c d2 d2 23 3c
       0.09846144 0.11670139 0.009998994 0.009998994
0002f0 50 e7 5a 3d 44 dc 23 3c b5 e8 6f bc 8b 4c 9c 3d
       0.053443253 0.010001246 -0.014642884 0.07631787
000300 ef 3f 4c 3e f9 b5 23 3c 1d 19 7e bc 96 cf 23 3c
       0.19946264 0.009992116 -0.015508917 0.009998223
000310 8a 9d 2d 3e 67 ef 30 3d 66 98 85 bc 4a 7c c9 bd
       0.16954628 0.043197062 -0.01630802 -0.098381594
000320 50 67 68 3c ba 87 d8 3c 77 38 ca 3b d2 d2 23 3c
       0.014184788 0.026431907 0.006171282 0.009998994
000330 27 ab 84 3e 7a 38 be 3d dc 70 d4 bb 72 b8 44 3d
       0.2591183 0.09288116 -0.0064831804 0.048027463
000340 78 0a 67 3d 60 89 7f 3d 76 44 47 bd 07 99 ce 3d
       0.05640647 0.06238687 -0.048649274 0.100877814
000350 c3 aa cc 3c 20 a8 ae 3e dd 1a 81 3c d2 d2 23 3c
       0.02498377 0.34112644 0.01575988 0.009998994
000360 eb 7c b9 3d 54 a8 8e 3c 4f 7c c7 3c 1a d3 0a be
       0.09057029 0.01741425 0.024351267 -0.13557091
000370 d5 79 f1 bb 68 22 86 3d d9 9d b2 bb d2 d2 23 3c
       -0.00736926 0.06549531 -0.005450946 0.009998994
000380 d2 f1 30 3e ce e0 3b 3e d5 2a 74 bd 95 0d 94 bd
       0.17279747 0.18347475 -0.05961116 -0.07229153
000390 66 05 8f 3d f9 20 ec 3d c2 7b 3e bd 72 1a 3a 3e
       0.069834515 0.115297265 -0.046504743 0.1817415
0003a0 90 7f 44 3d 7c a5 37 3d b0 28 92 bd 4a 61 aa 3c
       0.047973216 0.044835553 -0.07136667 0.020798344
0003b0 01 da e1 bc b2 be 02 3e 42 cc 70 3d 0b ea ad 3c
       -0.027569773 0.12768057 0.058788545 0.021229764
0003c0 2f d0 3e 3d ad 8e 09 3d 9d 82 c6 bd d2 d2 23 3c
       0.046585258 0.03358333 -0.09692881 0.009998994
0003d0 53 9d 93 bc a7 24 78 bd 05 d0 23 3c 7e 01 af 3c
       -0.018019354 -0.06058183 0.009998326 0.021363016
0003e0 a4 9c 95 3d 8b 91 73 bd 2d b6 f7 bb d0 da ad 3d
       0.073052675 -0.059464972 -0.007559559 0.08489001
0003f0 bf 34 23 3c 92 d5 77 bc 46 5d 3c 3d 5f 43 36 3d
       0.009961306 -0.015126603 0.04598739 0.044497844

bn1.weight f4 [256]
000000 e8 50 7c 3f 8d 76 83 3f b9 16 83 3f 2f 24 82 3f
       0.98560953 1.0270554 1.024131 1.0167292
000010 e2 79 81 3f 07 16 83 3f 78 81 6e 3f 5a ed 6e 3f
       1.0115321 1.0241097 0.93166304 0.9333092
000020 12 be 7b 3f 48 f5 79 3f 04 d3 80 3f fe f0 60 3f
       0.983369 0.97639894 1.0064397 0.87867725
000030 cd 77 78 3f 83 e4 a5 3f 57 fe 85 3f 98 31 70 3f
       0.970578 1.2960361 1.0468243 0.93825674
000040 ee 2a 82 3f 29 d2 83 3f 87 7a 70 3f c4 e9 85 3f
       1.0169351 1.0298511 0.9393696 1.0461965
000050 fe b1 82 3f 8f 60 73 3f 04 a0 75 3f 15 e8 6f 3f
       1.0210569 0.9506921 0.9594729 0.93713504
000060 4f d1 7c 3f 42 99 6d 3f 23 5c 7b 3f ab bd 7d 3f
       0.9875688 0.9281198 0.98187464 0.99117535
000070 73 4e 70 3f a0 fc 73 3f b8 23 79 3f 83 5b 83 3f
       0.93869704 0.9530735 0.9732013 1.0262302
000080 dd 00 7e 3f 3f 57 8b 3f 35 65 83 3f af ba 80 3f
       0.9922007 1.0886 1.0265261 1.0056971
000090 4a ae 7a 3f 22 44 66 3f 0d 44 81 3f cc f0 79 3f
       0.97922194 0.8994771 1.0098892 0.9763305
0000a0 cb af 7e 3f eb 6a 7f 3f a7 fd 7a 3f 6e ed 8b 3f
       0.9948699 0.9977252 0.9804329 1.0931833
0000b0 fc 53 70 3f 2b 66 82 3f 8f dc 7b 3f ae d6 7a 3f
       0.9387815 1.0187429 0.9838342 0.97983825
0000c0 11 95 80 3f 44 b2 90 3f 60 08 89 3f 52 44 87 3f
       1.0045491 1.1304402 1.0705681 1.0567725
0000d0 34 a4 87 3f 42 91 7d 3f 54 b0 81 3f 92 d8 8b 3f
       1.0596986 0.9904977 1.0131936 1.0925467
0000e0 96 87 79 3f 29 1f 7c 3f 8a dd 6b 3f 30 9a 80 3f
       0.9747251 0.98485047 0.92134917 1.0047054
0000f0 cb 7e a1 3f 5a d1 87 3f 48 a2 92 3f 6a 8f 72 3f
       1.2616819 1.0610764 1.1455774 0.9475008
000100 b2 e5 7f 3f d0 19 72 3f 00 67 90 3f 9d b5 90 3f
       0.9995986 0.94570637 1.1281433 1.1305424
000110 ef 01 7d 3f 8c 80 87 3f 90 5b 78 3f d1 d8 74 3f
       0.98831075 1.0586104 0.97014713 0.95643336
000120 46 89 76 3f 45 57 75 3f be 89 67 3f dc 28 94 3f
       0.9630321 0.9583629 0.9044455 1.1574969
000130 4a a5 7e 3f 98 ad 82 3f 13 22 7f 3f 80 04 85 3f
       0.9947096 1.0209227 0.9966137 1.0391998
000140 10 d9 80 3f da ac 98 3f 0c c8 86 3f 32 d4 80 3f
       1.0066242 1.192775 1.05298 1.0064757
000150 a1 d8 7a 3f 9a 7e 7a 3f cc 4a 67 3f 32 5c 78 3f
       0.979868 0.9784943 0.90348506 0.9701568
000160 42 03 78 3f c4 2f 7d 3f 54 cd 7e 3f 13 80 76 3f
       0.9687997 0.9890101 0.99532056 0.96289176
000170 f7 0d 79 3f 21 ca 6d 3f 14 b5 6e 3f a0 2c 72 3f
       0.97286934 0.9288655 0.93245053 0.9459934
000180 c7 63 99 3f 06 b7 7d 3f 5c 6d 68 3f a7 18 7c 3f
       1.1983575 0.99107397 0.9079187 0.98475116
000190 9e 1d 83 3f c5 55 83 3f be 4e 80 3f 91 13 73 3f
       1.0243413 1.026055 1.002403 0.9495173
0001a0 0b 18 7f 3f d8 c4 64 3f 24 e8 6b 3f 38 65 79 3f
       0.9964606 0.8936286 0.92151093 0.9742007
0001b0 2d c9 85 3f ce bc 72 3f 37 9a 81 3f 25 c7 7d 3f
       1.0452019 0.94819343 1.0125188 0.99131995
0001c0 98 8b 85 3f ba c3 6c 3f 6f 1e 7f 3f 5d 00 7c 3f
       1.0433226 0.92486155 0.9965581 0.98438054
0001d0 09 dc 77 3f 19 59 7c 3f 58 4a 83 3f 32 81 7e 3f
       0.9682012 0.9857345 1.0257063 0.99415886
0001e0 36 6d 85 3f 35 98 7c 3f 2f 75 80 3f 8d 0d 8a 3f
       1.0423954 0.9866975 1.0035762 1.0785385
0001f0 84 68 80 3f e8 12 6b 3f 3b 54 81 3f 07 01 6a 3f
       1.0031896 0.91825724 1.010383 0.9140782
000200 84 28 84 3f 7c 5c 82 3f 85 eb 75 3f 7b a7 81 3f
       1.0324864 1.0184474 0.960625 1.0129236
000210 7b 62 7c 3f b0 8d 78 3f c7 5b 7e 3f 22 4e 81 3f
       0.9858777 0.970912 0.9935879 1.0101969
000220 b2 e2 71 3f 0e 9b 88 3f 26 51 80 3f 56 06 70 3f
       0.94486535 1.0672319 1.0024765 0.9375967
000230 33 c2 6a 3f 83 e6 98 3f 0d b1 7a 3f 54 1e 7e 3f
       0.91702574 1.1945347 0.9792641 0.9926503
000240 b0 dc 76 3f e4 db 72 3f d7 a1 72 3f b3 5e 82 3f
       0.9643049 0.94866776 0.947782 1.018515
000250 22 1e 72 3f 3c 79 72 3f be 3e 7b 3f 1b b7 6e 3f
       0.9457723 0.9471624 0.9814261 0.93248147
000260 02 30 93 3f 1f 5b 7d 3f ea 1c 82 3f 18 b4 7b 3f
       1.1499026 0.98967165 1.0165074 0.98321676
000270 fe 80 74 3f 29 90 7d 3f a0 96 78 3f 7e 06 7a 3f
       0.95509326 0.99048096 0.97104836 0.97666156
000280 4b 73 85 3f c3 42 77 3f b0 83 7a 3f ac f8 6e 3f
       1.042581 0.96586245 0.9785719 0.93348193
000290 6c 4f 80 3f 91 9f 69 3f 46 91 80 3f 2b 5d 88 3f
       1.0024238 0.91259104 1.0044334 1.0653433
0002a0 a7 ce 7e 3f 9a ec 84 3f fb 0a 81 3f 8b 43 7f 3f
       0.99534076 1.0384705 1.0081476 0.9971244
0002b0 e9 ba 7f 3f 90 c9 7c 3f 93 5e 7e 3f 1b f3 79 3f
       0.9989458 0.9874506 0.9936306 0.97636575
0002c0 3f be 89 3f 72 04 87 3f 6b 29 84 3f b8 8a 7f 3f
       1.0761184 1.0548232 1.032514 0.99821043
0002d0 84 12 83 3f 7c 81 7e 3f 47 98 83 3f 1f dc 77 3f
       1.0240026 0.9941633 1.0280846 0.96820253
0002e0 75 1f 73 3f 8f a4 65 3f 28 f3 80 3f 49 72 82 3f
       0.94969875 0.8970422 1.0074205 1.0191127
0002f0 62 41 78 3f 28 78 77 3f fb 07 7f 3f 7b 05 76 3f
       0.96974766 0.9666772 0.9962155 0.9610211
000300 5e 98 79 3f 2e 44 80 3f 18 2a 80 3f 53 d7 74 3f
       0.9749812 1.0020807 1.0012846 0.9564106
000310 69 a3 82 3f 86 a3 84 3f c5 f2 82 3f 2c 82 6a 3f
       1.0206119 1.0362403 1.0230337 0.91604877
000320 94 db 7c 3f bb f4 74 3f 93 7b 7d 3f a2 bc 81 3f
       0.9877255 0.9568593 0.99016684 1.0135691
000330 10 5e 8c 3f 3e 05 75 3f ec 5a 7c 3f 0c 3a 7c 3f
       1.0966206 0.95711124 0.98576236 0.9852607
000340 6a c3 7c 3f f0 ad 75 3f 58 88 7d 3f 55 71 87 3f
       0.9873568 0.9596853 0.9903617 1.0581461
000350 60 a6 67 3f 22 b7 7f 3f e1 58 80 3f ee d7 7c 3f
       0.90488243 0.99888813 1.0027124 0.9876698
000360 ab 51 6f 3f 93 e3 6d 3f 68 4f 73 3f 56 84 73 3f
       0.9348399 0.92925376 0.9504304 0.95123804
000370 0d d7 79 3f 0c 40 82 3f 64 bc 7c 3f a2 37 82 3f
       0.97593766 1.0175796 0.9872496 1.0173228
000380 4e 88 86 3f c7 da 84 3f 58 55 6a 3f 6f 36 6e 3f
       1.0510347 1.0379266 0.91536474 0.9305181
000390 51 11 9e 3f b0 78 95 3f 60 62 7b 3f d0 35 81 3f
       1.2349035 1.1677456 0.98196983 1.0094547
0003a0 69 b9 7d 3f 87 87 83 3f 9e b6 84 3f ba e4 80 3f
       0.9911104 1.0275735 1.036823 1.0069802
0003b0 4b c1 64 3f 90 7f 7f 3f 39 6d 83 3f 69 5b 78 3f
       0.8935744 0.9980402 1.0267707 0.9701448
0003c0 d1 a3 8b 3f 4c a8 7b 3f 5f 83 80 3f 39 9f 85 3f
       1.0909368 0.98303676 1.0040091 1.0439216
0003d0 26 0c 7a 3f a0 df 61 3f 8f d1 67 3f c1 c8 79 3f
       0.9767479 0.8823185 0.90554136 0.9757195
0003e0 d4 35 84 3f e6 45 7d 3f b5 d1 7b 3f 38 d5 7c 3f
       1.0328927 0.9893478 0.9836686 0.98762846
0003f0 08 b7 78 3f cd 4c 7d 3f e5 b7 77 3f 38 39 7a 3f
       0.97154284 0.98945314 0.96764976 0.9774356

bn1.bias f4 [256]
000000 f0 e8 c3 bc 17 a3 88 bd 58 34 a0 bd 89 de 6f 3c
       -0.023914784 -0.06671732 -0.07822484 0.014640459
000010 b5 d8 8f 3d a5 ef 20 3e 20 3a 80 3d ac 02 98 3d
       0.070237555 0.15716417 0.062610865 0.074223846
000020 28 a2 95 3c 80 cc b7 3d cf af 42 3c 3a a5 d0 3d
       0.018265799 0.08974552 0.011882736 0.101877645
000030 1e 31 9b 3c 90 f1 9b 3e 0c 11 c0 3d 3b e1 96 3d
       0.01894432 0.30457735 0.093782514 0.07367178
000040 bc 01 0d bd 54 1a 96 3d a7 e3 93 3d 6e fe 57 bd
       -0.034425482 0.073292404 0.072211556 -0.052732877
000050 cf 45 08 3c 62 a7 cf 3d 26 bb cd 3c 1e dc aa 3d
       0.008317425 0.101393476 0.025113653 0.08342765
000060 4a 10 77 3d 30 66 31 3d 68 f8 25 3e 7b 9f f2 3d
       0.06031827 0.043310344 0.1620804 0.11846825
000070 28 87 0f 3e a3 26 7e 3d b4 bc 2e 3e 26 c1 c9 3d
       0.14016402 0.062048566 0.17064172 0.09851293
000080 71 cb 9a 3d e8 94 4e 3d 25 29 4e 3d 4d fc 41 3d
       0.075583346 0.050434977 0.050332207 0.047359753
000090 80 4f 11 3e 56 bf a8 3d 88 84 5c 3c a5 bb 53 3d
       0.14190483 0.082396194 0.013459332 0.051692624
0000a0 ed ad d8 bd 9f a6 9e 3d 61 da ea 3c fe 41 f6 3d
       -0.10580049 0.07746624 0.028668584 0.12024306
0000b0 3b 33 00 3e 7f ec 66 3d 7b 69 28 3e 6d 65 91 3d
       0.12519543 0.056377884 0.16446488 0.070994236
0000c0 97 a5 ef 3c 8c 1b 4d 3e 80 bf 80 3d 94 70 55 3d
       0.029253764 0.2003004 0.06286526 0.052109316
0000d0 5d 88 a9 bc 34 f3 0c 3d 7d f9 51 3c 60 5f b6 3d
       -0.020694906 0.034411624 0.01281583 0.0890491
0000e0 0d 63 94 3d 09 8e d2 bd 50 47 45 3d 99 0a 67 bd
       0.07245455 -0.10280997 0.048163712 -0.05640659
0000f0 1c 0a 3f 3e 95 88 68 3d e9 2b 69 bd 59 9d 69 3b
       0.186562 0.05677088 -0.05692664 0.0035646765
000100 f4 84 77 3c 74 f6 7e 3c 58 47 40 3d 58 85 4d 3e
       0.015107382 0.015561689 0.04694304 0.20070398
000110 f7 a5 87 3d 34 14 0b 3e bc 83 15 3e ba be 21 3d
       0.06623452 0.13581926 0.14601034 0.03948853
000120 a1 30 93 3d bb 46 d5 3d 8d 98 96 3d 78 e1 1b 3d
       0.071870096 0.104138814 0.073533155 0.03805682
000130 a6 ef bf 3d d8 f8 23 3d f4 0f 6d bd a4 aa 66 3d
       0.09371881 0.040032238 -0.057876542 0.05631508
000140 ef c0 de 3d 5c db 09 3e 7f b8 be 3d e9 85 1a 3e
       0.10876643 0.13462585 0.093125336 0.15090145
000150 6e 81 5e 3d fa cc 95 3d 22 53 90 3d 4a af 1b 3e
       0.054322653 0.07314487 0.07047106 0.15203586
000160 af 58 53 3d 65 23 34 3c b8 61 fd 3d 20 49 2c 3d
       0.051598247 0.010994767 0.12372154 0.042061925
000170 e4 a8 be 3c c5 3b 03 3d 39 e6 91 3c 9b d4 a9 3d
       0.023273893 0.032039423 0.017809974 0.082925044
000180 8d 0d 0c bc 31 fe 85 bd d1 f7 97 3d ec e2 81 3d
       -0.008548153 -0.06542624 0.07420314 0.0634211
000190 89 42 ca 3d 18 37 31 3c 16 cb 60 bd 6a 72 bc 3d
       0.09875972 0.010816358 -0.054881178 0.0920151
0001a0 ee e1 7b 3d 20 56 ca 3d c6 50 d9 3d d0 0a 92 3b
       0.06149476 0.09879708 0.106111094 0.0044568554
0001b0 16 80 fa 3c da cb 83 3c 79 6c ca bd c8 ac b3 3d
       0.030578654 0.016088415 -0.09883971 0.0877319
0001c0 a5 6f c8 bd 00 fd 9d 3d 7b f3 21 3d cc ed 08 b9
       -0.097869195 0.077142715 0.03953884 -0.00013058557
0001d0 df ef d7 3b 0e 63 6c 3d bd 44 25 3d c6 4f 8b 3d
       0.006589874 0.057711653 0.040348757 0.06802325
0001e0 66 55 e6 3d e2 a4 8f 3d b0 2e 81 3d 36 d5 db 3c
       0.11246757 0.07013871 0.06307733 0.026835065
0001f0 d6 7b 89 ba a9 2d 8b bc 2f 06 ce 3d ab 65 eb 3d
       -0.0010489176 -0.016989546 0.10059773 0.11494001
000200 cb f2 18 3e d1 72 ec 3d ba 38 75 3d 5c ef 1c bd
       0.14936368 0.11545337 0.05986855 -0.03831421
000210 5d 68 b7 3d 10 6b 6a 3c 17 d7 e9 3d 94 06 d7 3b
       0.089554526 0.014307752 0.11417978 0.0065620635
000220 1b 17 7f 3d a2 a9 a1 3c fa 5b 2e bd 15 55 a9 3d
       0.062277894 0.019734208 -0.042568184 0.08268181
000230 8f 3b 98 3c 4c 2b 97 3d 41 15 81 3d 48 30 0b ba
       0.018583087 0.07381305 0.06302882 -0.00053096237
000240 33 2d f8 3d 85 7b ea 3d 6c a0 01 3e 77 c5 e6 bd
       0.12117996 0.11449341 0.12658852 -0.11268132
000250 36 ae 44 3d a1 98 82 bd 54 69 bf bd e8 7e c5 3d
       0.048017703 -0.06376768 -0.093462616 0.09643346
000260 49 41 21 3e 90 73 5a 3d c2 9e ad bd 0c 38 f8 3d
       0.1574756 0.053332865 -0.08477546 0.12120065
000270 11 f9 a0 3d d6 a3 e0 3c b9 9c a2 3d 2f 27 aa 3d
       0.07860006 0.027421873 0.07940049 0.08308255
000280 46 f3 84 3d 38 96 60 3c 59 5a 2e 3e cb be 19 3c
       0.06491713 0.01370769 0.17026652 0.0093838675
000290 02 8b a1 3d c2 fa 08 3e a1 42 90 3d dd 6f 44 3d
       0.07887842 0.13376907 0.070439585 0.047958244
0002a0 c6 08 a1 bd 62 b6 4f 3d 50 98 f9 3d 20 f5 9b bd
       -0.078630015 0.050711043 0.121872544 -0.07615113
0002b0 00 44 b7 3d 28 f0 e4 3d 73 93 ee bb 05 b6 ab 3d
       0.08948517 0.11178619 -0.007280761 0.08384327
0002c0 19 3a 9f bc 19 43 b5 3d 59 3d f8 3d 1c 76 bb 3d
       -0.019436883 0.088506885 0.12121076 0.09153387
0002d0 1d 92 0e 3d bd 5f 0c 3c 87 8d 6c 3d ff b2 fb 3c
       0.034807313 0.008567748 0.05775216 0.030725
0002e0 74 a7 2e 3e a0 ea e8 3d 3e a5 54 3d 5d 36 01 3e
       0.17056066 0.11372876 0.0519154 0.12618394
0002f0 1e 26 0a 3e 01 e1 06 3e de 69 05 3d 2f 51 e8 3d
       0.13491103 0.1317177 0.032571666 0.113436095
000300 06 d0 0e 3e f8 70 7b bd 18 61 b8 3d e6 d2 39 3e
       0.13946542 -0.061387032 0.09002894 0.18146858
000310 96 96 ae 3d cd b9 4d 3d 30 89 e9 3c 84 9b ae 3d
       0.08524816 0.05022602 0.028507799 0.08525756
000320 39 89 e9 3c 67 cd 99 3d f6 0a 9b 3c 4b 92 c1 bd
       0.028507816 0.075098805 0.018926125 -0.09451731
000330 17 87 cf 3d 4f de 82 3d a6 ab 04 3e 92 38 22 3d
       0.10133188 0.06390058 0.12956104 0.03960473
000340 5a 42 3b 3e b0 b8 87 3d 37 1d b6 3c 0d 79 79 3d
       0.1828703 0.06627023 0.022230728 0.06090646
000350 e6 c6 cd 3d de c6 5a 3d f3 89 14 3d cc cd 95 bd
       0.100477025 0.05341231 0.03626437 -0.07314643
000360 f0 c8 83 3d c8 e2 c7 3c 40 f5 6f 3d 1d 36 c1 3d
       0.0643481 0.02440013 0.058583498 0.094341494
000370 1c f6 23 3e e2 2f 8f 3d 85 e0 bd 3d 34 47 14 bd
       0.16011852 0.06991555 0.09271339 -0.036200717
000380 64 fd aa 3d 27 77 15 3d 1f bf d4 3c 2b 8d 3d 3d
       0.08349112 0.036490586 0.02597004 0.046277206
000390 83 87 28 3c 1a 7c 97 3d e4 72 1a 3d 4b 4e 00 3e
       0.010286215 0.07396717 0.037707224 0.12529866
0003a0 cf f4 7d 3c 1d ed 45 3d 73 fc bc 3c 4e 44 54 3d
       0.015500261 0.048321832 0.023069596 0.051822953
0003b0 a0 a5 dc 3d 44 be b2 3d 64 ee f6 3d 6d ba 97 bc
       0.10773778 0.087276965 0.12057188 -0.018521512
0003c0 ea eb f6 ba 7a d3 09 3e 1a 1c 36 3d 70 bf 9e bd
       -0.0018838618 0.13459578 0.044460393 -0.077513576
0003d0 d8 5d 86 bd ba 47 08 bc fc 32 4b 3d b7 2c e5 bc
       -0.06560868 -0.008317882 0.04960917 -0.027975423
0003e0 d2 2e 92 3b 87 3f 91 3d 25 de 1a 3c 9e d0 00 3d
       0.004461148 0.07092195 0.009452377 0.031448953
0003f0 e2 32 c9 bd aa 8f f8 3d 14 10 9a 3d 77 bb 4f 3d
       -0.09824158 0.12136777 0.07522598 0.05071589

bn1.running_mean f4 [256]
000000 30 6e ab 41 62 09 e1 bf 62 09 e1 bf c5 12 72 42
       21.428802 -1.7580988 -1.7580988 60.51833
000010 1e 20 55 43 93 9f 6d 42 0c 1d 42 44 09 98 f8 44
       213.12546 59.405834 776.45386 1988.7511
000020 62 09 e1 bf 4b 02 a0 43 62 09 e1 bf 9c d2 8b 44
       -1.7580988 320.0179 -1.7580988 1118.5815
000030 dd ba 46 42 a6 11 0d 42 62 09 e1 bf 31 f1 d2 3e
       49.682484 35.267235 -1.7580988 0.4119964
000040 62 09 e1 bf 62 09 e1 bf fd 5b 4a 43 62 09 e1 bf
       -1.7580988 -1.7580988 202.35933 -1.7580988
000050 b6 6b 66 bf 51 e8 d5 44 30 05 40 42 62 09 e1 bf
       -0.90008104 1711.2599 48.005066 -1.7580988
000060 62 09 e1 bf 3a 44 b4 41 aa 30 a9 43 6e 12 b1 44
       -1.7580988 22.533314 338.3802 1416.5759
000070 20 73 45 44 bc 2a d6 44 43 e9 8b 43 62 09 e1 bf
       789.7988 1713.3354 279.82236 -1.7580988
000080 62 09 e1 bf d8 f7 f2 40 62 09 e1 bf f7 d8 01 42
       -1.7580988 7.5927544 -1.7580988 32.46188
000090 b0 e6 29 44 db 1f cb 44 62 09 e1 bf 39 7a 7a 41
       679.6045 1624.9955 -1.7580988 15.6548395
0000a0 62 09 e1 bf 62 09 e1 bf 33 cf 89 41 05 47 02 43
       -1.7580988 -1.7580988 17.226171 130.27742
0000b0 9a 1b 8d 43 1d f0 43 3d ce fe 87 43 62 c8 66 42
       282.21564 0.04783641 271.99066 57.695686
0000c0 22 b2 aa 41 93 92 1b 43 1e b3 3a 41 98 00 3e 42
       21.336979 155.57256 11.66873 47.50058
0000d0 62 09 e1 bf 62 09 e1 bf 62 09 e1 bf 14 ba 30 41
       -1.7580988 -1.7580988 -1.7580988 11.045429
0000e0 fd 73 6e 42 62 09 e1 bf 09 70 08 43 62 09 e1 bf
       59.61327 -1.7580988 136.43764 -1.7580988
0000f0 d3 1c 04 42 62 09 e1 bf 35 8f 87 bf ff 89 83 41
       33.02815 -1.7580988 -1.0590578 16.44238
000100 81 71 9a 41 1f 8a ac 41 06 83 f3 41 e1 04 e1 bf
       19.305422 21.567442 30.438976 -1.7579614
000110 62 09 e1 bf 62 09 e1 bf 14 c1 9f 44 89 8e cc bf
       -1.7580988 -1.7580988 1278.0337 -1.5980998
000120 79 8e d4 44 97 fc 9b 43 7b 7f 26 44 62 09 e1 bf
       1700.4523 311.97336 665.9919 -1.7580988
000130 9f 2f 63 43 62 09 e1 bf 62 09 e1 bf 62 09 e1 bf
       227.18602 -1.7580988 -1.7580988 -1.7580988
000140 62 09 e1 bf ef 6c ca 42 0c bb 8d 42 71 07 e1 bf
       -1.7580988 101.21276 70.865326 -1.7580396
000150 06 cc d4 42 16 41 a7 43 63 43 07 44 86 af 7d 44
       106.39848 334.50848 541.0529 1014.74255
000160 6c 16 02 42 6f 8e 0f 41 62 09 e1 bf 10 f8 74 43
       32.521896 8.972274 -1.7580988 244.969
000170 a3 9a a9 41 7a 3e b2 44 5c ca 34 43 68 7e 26 45
       21.200506 1425.9524 180.79047 2663.9004
000180 62 09 e1 bf 62 09 e1 bf 29 c4 5a 43 5a 99 5f 44
       -1.7580988 -1.7580988 218.76625 894.3961
000190 0f fa a0 be 62 09 e1 bf 62 09 e1 bf 25 73 f5 43
       -0.3144078 -1.7580988 -1.7580988 490.89957
0001a0 62 09 e1 bf 1b f6 b8 43 a7 75 31 44 5d b1 54 3f
       -1.7580988 369.9227 709.8383 0.83083135
0001b0 62 09 e1 bf f5 60 77 43 62 09 e1 bf fa 2b 6f 44
       -1.7580988 247.37874 -1.7580988 956.68713
0001c0 62 09 e1 bf eb d0 93 43 53 83 58 43 62 09 e1 bf
       -1.7580988 295.63217 216.51299 -1.7580988
0001d0 36 a2 ed 42 39 4c b0 42 67 e2 93 42 2f 09 e1 bf
       118.81682 88.14887 73.94219 -1.7580928
0001e0 cb e1 26 41 62 09 e1 bf 62 09 e1 bf e0 42 3c 43
       10.430125 -1.7580988 -1.7580988 188.26123
0001f0 62 09 e1 bf 1d b1 3b 43 6a f9 8a 43 07 af 03 44
       -1.7580988 187.69185 277.94855 526.7348
000200 a6 63 0a 42 62 09 e1 bf c7 41 18 42 62 09 e1 bf
       34.597313 -1.7580988 38.064236 -1.7580988
000210 c3 17 07 42 1c 3d df 41 62 09 e1 bf e9 0e 86 41
       33.773205 27.904839 -1.7580988 16.75728
000220 3d 56 d6 42 62 09 e1 bf 62 09 e1 bf ef 77 2a 43
       107.168434 -1.7580988 -1.7580988 170.46849
000230 53 46 53 43 62 09 e1 bf 62 09 e1 bf d2 14 c5 42
       211.2747 -1.7580988 -1.7580988 98.540665
000240 00 f9 7f 3e 37 bb c0 44 9b c0 ff 44 62 09 e1 bf
       0.2499733 1541.8505 2046.0189 -1.7580988
000250 ea ab 41 43 62 09 e1 bf 62 09 e1 bf 4e c5 04 44
       193.67154 -1.7580988 -1.7580988 531.0829
000260 75 39 2c 41 48 96 d0 41 62 09 e1 bf e5 a5 ab 41
       10.764028 26.07338 -1.7580988 21.456003
000270 23 91 de 43 82 e5 8b 40 8e 87 19 42 62 09 e1 bf
       445.13388 4.371766 38.382378 -1.7580988
000280 62 09 e1 bf 9d 19 9f 41 93 f1 7e 42 b7 a8 fc 42
       -1.7580988 19.887506 63.735912 126.32952
000290 62 09 e1 bf de fd de 43 62 09 e1 bf bb bd 07 42
       -1.7580988 445.98334 -1.7580988 33.935284
0002a0 62 09 e1 bf b7 d1 2a 43 0d 22 19 44 62 09 e1 bf
       -1.7580988 170.8192 612.53204 -1.7580988
0002b0 62 09 e1 bf 62 09 e1 bf 62 09 e1 bf 62 09 e1 bf
       -1.7580988 -1.7580988 -1.7580988 -1.7580988
0002c0 a1 ba 9c bd 17 39 5c 43 a1 21 ab 41 32 6f 07 42
       -0.07652784 220.223 21.39142 33.85859
0002d0 bd f4 2d 42 62 09 e1 bf 34 d1 2e 41 5c 59 8a 40
       43.489002 -1.7580988 10.926075 4.323408
0002e0 b3 89 b4 43 53 76 1f 44 62 09 e1 bf 62 09 e1 bf
       361.07578 637.8488 -1.7580988 -1.7580988
0002f0 67 07 82 44 c8 97 b2 44 62 09 e1 bf 54 e8 a2 42
       1040.2313 1428.7432 -1.7580988 81.453766
000300 b3 6f 18 44 62 09 e1 bf 5f df 10 43 b4 a0 d7 44
       609.7453 -1.7580988 144.87254 1725.022
000310 a4 1c f6 42 62 09 e1 bf 62 09 e1 bf a1 5d 1e 44
       123.05594 -1.7580988 -1.7580988 633.46295
000320 d9 61 34 41 62 09 e1 bf 62 09 e1 bf 62 09 e1 bf
       11.273889 -1.7580988 -1.7580988 -1.7580988
000330 62 09 e1 bf 00 02 47 44 63 48 13 43 1c 45 e1 42
       -1.7580988 796.03125 147.28276 112.63498
000340 33 67 1c 44 95 59 b4 41 d7 b4 45 43 62 09 e1 bf
       625.6125 22.543741 197.7064 -1.7580988
000350 6d 67 5d 44 97 b2 95 3e 47 f1 25 42 62 09 e1 bf
       885.616 0.29237816 41.485622 -1.7580988
000360 81 7c 11 44 62 09 e1 bf fa 43 bd 43 b2 29 e3 43
       581.9454 -1.7580988 378.53107 454.32574
000370 d2 0e 41 43 62 09 e1 bf 62 09 e1 bf 62 09 e1 bf
       193.05789 -1.7580988 -1.7580988 -1.7580988
000380 96 d3 83 42 a0 63 08 40 dc f1 22 42 1b bd f7 42
       65.91325 2.1310806 40.73619 123.86935
000390 6e e6 a2 41 62 09 e1 bf a4 fa 17 43 06 0e a7 43
       20.362514 -1.7580988 151.97906 334.10956
0003a0 f0 06 e1 bf 8e 5d 34 42 62 09 e1 bf 62 09 e1 bf
       -1.7580242 45.091362 -1.7580988 -1.7580988
0003b0 41 c2 7e 44 3f 3c 73 41 62 09 e1 bf 7b 73 25 42
       1019.0352 15.2022085 -1.7580988 41.362774
0003c0 e8 be e0 bf b6 1a 96 43 9e 54 42 42 62 09 e1 bf
       -1.755826 300.20868 48.582634 -1.7580988
0003d0 62 09 e1 bf 6f ee 0f 43 6a 32 e7 44 62 09 e1 bf
       -1.7580988 143.93138 1849.5754 -1.7580988
0003e0 62 09 e1 bf a2 48 41 43 62 09 e1 bf 62 09 e1 bf
       -1.7580988 193.28372 -1.7580988 -1.7580988
0003f0 62 09 e1 bf 62 09 e1 bf 09 ea 92 42 62 09 e1 bf
       -1.7580988 -1.7580988 73.4571 -1.7580988

bn1.running_var f4 [256]
000000 f8 53 d6 46 04 00 00 00 04 00 00 00 e0 d0 19 47
       27433.984 6e-45 6e-45 39376.875
000010 4c bd 26 49 16 87 4b 46 ab ad fb 48 29 7a 74 4a
       682964.75 13025.771 515437.34 4.0055142e+06
000020 1e 34 95 17 c2 2f d1 48 16 55 b6 10 57 63 9e 49
       9.642056e-25 428414.06 7.191744e-29 1.2975149e+06
000030 c2 4f 9d 47 cc 0e 8a 44 04 00 00 00 42 16 e2 43
       80543.516 1104.4624 6e-45 452.1739
000040 04 00 00 00 f0 53 36 1f 61 9b 4d 48 04 00 00 00
       6e-45 3.860943e-20 210541.52 6e-45
000050 c8 da 66 42 25 8c df 49 5a 75 aa 47 5b 96 86 27
       57.713654 1.8313006e+06 87274.7 3.7355487e-15
000060 04 00 00 00 9d 45 20 47 ba d8 a6 48 83 7f 19 4a
       6e-45 41029.613 341701.8 2.5149128e+06
000070 3e e5 01 49 be 20 4a 4a 93 cf 59 48 04 00 00 00
       532051.9 3.3116635e+06 223038.3 6e-45
000080 a5 28 42 17 a1 39 24 44 b4 95 da 16 86 e7 ae 47
       6.273608e-25 656.90045 3.5314275e-25 89551.05
000090 c3 6a 0a 49 66 5a f3 49 04 00 00 00 89 93 9d 45
       566956.2 1.9935488e+06 6e-45 5042.442
0000a0 04 00 00 00 04 00 00 00 a1 fe cf 46 8e 98 89 46
       6e-45 6e-45 26623.314 17612.277
0000b0 42 9b 06 48 94 76 b6 43 d4 bc f7 46 56 01 15 47
       137837.03 364.9264 31710.414 38145.336
0000c0 2d 70 e2 46 f2 b6 41 46 a3 99 7a 45 17 72 f7 47
       28984.088 12397.736 4009.6023 126692.18
0000d0 34 77 1b 22 3a 30 48 1d 16 0e 56 11 07 32 ec 44
       2.1069523e-18 2.6494712e-21 1.6885964e-28 1889.5634
0000e0 a8 62 2e 48 04 00 00 00 3f 10 ac 47 56 a4 f7 17
       178570.62 6e-45 88096.49 1.6003485e-24
0000f0 0b 0e 6d 44 3f 87 2a 17 1d 6b 55 41 2f a9 8a 45
       948.2194 5.5100667e-25 13.338651 4437.148
000100 2f a3 65 46 c9 b2 d2 45 1d 9d 82 44 45 6e 21 3c
       14696.796 6742.348 1044.9098 0.00985295
000110 99 67 f6 32 5c 1e 3f 38 68 5f ae 49 a4 46 70 40
       2.868528e-08 4.5566223e-05 1.428461e+06 3.7543116
000120 14 f2 3c 4a ac 96 ec 47 f2 7b 8d 48 f2 b9 30 25
       3.095685e+06 121133.34 289759.56 1.5328567e-16
000130 93 81 31 49 32 15 e4 23 04 00 00 00 c1 7f 58 1d
       727065.2 2.4728786e-17 6e-45 2.865341e-21
000140 04 00 00 00 e9 40 5b 45 90 a3 f7 45 dd 43 3d 3c
       6e-45 3508.057 7924.4453 0.011551824
000150 f0 f0 69 48 17 f2 78 49 11 52 b6 48 b7 3d 8c 49
       239555.75 1.01968144e+06 373392.53 1.1488549e+06
000160 88 00 95 47 b8 02 86 44 04 00 00 00 44 8e 79 48
       76289.06 1072.085 6e-45 255545.06
000170 a7 26 12 46 38 4b c4 49 a0 45 8f 48 cb 8a ae 4a
       9353.663 1.608039e+06 293421.0 5.7193975e+06
000180 4c f9 7b 26 04 00 00 00 89 93 15 48 7f 58 39 49
       8.742098e-16 6e-45 153166.14 759175.94
000190 56 3c 83 43 b4 96 cc 05 04 00 00 00 99 74 50 49
       262.47137 1.9239427e-35 6e-45 853833.56
0001a0 40 5c e6 1f ef 41 d2 47 74 e7 94 49 5c 49 51 44
       9.7561404e-20 107651.87 1.2198225e+06 837.14624
0001b0 d8 35 1d 33 7e d4 96 48 04 00 00 00 29 53 6b 49
       3.660338e-08 308899.94 6e-45 963890.56
0001c0 04 00 00 00 8c e4 6b 48 ff a3 99 48 25 1e 5e 03
       6e-45 241554.19 314655.97 6.527454e-37
0001d0 8b 53 c9 47 bb c6 0c 48 57 e3 96 46 4e 95 80 3a
       103079.086 144154.92 19313.67 0.0009810121
0001e0 ca 08 28 46 04 00 00 00 c9 a3 f6 07 1c 60 05 47
       10754.197 6e-45 3.711023e-34 34144.11
0001f0 04 00 00 00 c0 d3 04 48 e2 d6 a0 48 e7 4e 2a 49
       6e-45 136015.0 329399.06 697582.44
000200 d4 77 3e 45 8f ea 5e 33 ba 8e 63 47 e2 25 2e 25
       3047.4893 5.1901733e-08 58254.727 1.510493e-16
000210 8c ec 19 46 88 bf b8 45 04 00 00 00 85 47 c5 45
       9851.137 5911.9414 6e-45 6312.94
000220 94 08 25 46 42 16 bb 1c 04 00 00 00 75 97 22 48
       10562.145 1.2380375e-21 6e-45 166493.83
000230 8f 7f a4 47 88 24 88 35 7a 48 a4 25 44 f0 5d 48
       84223.12 1.0143422e-06 2.8498577e-16 227265.06
000240 81 47 6f 43 65 e7 c3 49 df da 81 4a 04 00 00 00
       239.27931 1.6048446e+06 4.2550875e+06 6e-45
000250 57 a2 e7 47 9b 14 01 23 04 00 00 00 28 19 6b 48
       118596.68 6.997467e-18 6e-45 240740.62
000260 a8 72 be 43 d6 61 c1 46 04 00 00 00 63 df 13 47
       380.89575 24752.918 6e-45 37855.387
000270 f1 99 e2 47 63 a4 61 45 8f 12 06 47 93 a8 bc 22
       116019.88 3610.2742 34322.56 5.1135987e-18
000280 88 92 b1 12 e8 48 0b 46 12 af 96 45 3a 2b a7 47
       1.1206393e-27 8914.227 4821.884 85590.45
000290 11 a4 f3 18 02 10 85 49 94 a1 d1 28 5a c6 a1 47
       6.2979693e-24 1.0900482e+06 2.3273735e-14 82828.7
0002a0 04 00 00 00 9f f2 cd 48 ce 9b 6f 48 04 00 00 00
       6e-45 421780.97 245359.22 6e-45
0002b0 5a 82 2e 0b 0b 47 04 23 28 0a c8 02 04 00 00 00
       3.3609247e-32 7.170778e-18 2.9393188e-37 6e-45
0002c0 5c f1 e0 43 e2 55 92 46 69 5c 05 47 aa 64 ae 47
       449.88562 18730.941 34140.41 89289.33
0002d0 63 d1 38 47 b0 5e f9 27 5c 9e f4 45 1c 86 77 45
       47313.387 6.9214044e-15 7827.795 3960.3818
0002e0 5c e1 4c 48 84 12 93 48 04 00 00 00 04 00 00 00
       209797.44 301204.12 6e-45 6e-45
0002f0 d6 c2 c0 49 95 0c a4 49 44 ca 23 0a a1 d9 0a 48
       1.5790988e+06 1.3438906e+06 7.8862065e-33 142182.52
000300 be c5 3d 49 04 00 00 00 ee 40 53 48 cd 03 17 4a
       777307.9 6e-45 216323.72 2.4742272e+06
000310 20 46 e2 48 59 62 3a 06 b5 78 8e 27 9e 9a 26 49
       463409.0 3.5054966e-35 3.954379e-15 682409.9
000320 26 72 3f 46 5e 67 be 1a 04 00 00 00 04 00 00 00
       12252.537 7.874916e-23 6e-45 6e-45
000330 bf 52 89 31 1d 82 dd 48 8f 0d 29 48 a4 92 81 48
       3.996632e-09 453648.9 173110.23 265365.12
000340 f3 a4 60 49 73 4a 20 46 35 5e b0 48 25 28 63 20
       920143.2 10258.612 361201.66 1.924093e-19
000350 99 92 41 49 bf 70 81 44 87 12 41 47 04 00 00 00
       792873.56 1035.5233 49426.527 6e-45
000360 a6 8c 9f 48 6c 7e 9d 2f 64 98 1d 49 f3 69 02 49
       326757.2 2.8647962e-10 645510.25 534175.2
000370 7d 4c 9f 47 dc 19 d1 16 29 c2 05 35 04 00 00 00
       81560.98 3.378209e-25 4.98289e-07 6e-45
000380 d6 56 4d 48 33 94 df 44 41 96 8a 46 14 93 fd 47
       210267.34 1788.6312 17739.127 129830.16
000390 e6 e3 26 44 bc 30 55 23 1d b9 a7 48 27 94 9d 47
       667.5609 1.1557073e-17 343496.9 80680.305
0003a0 07 33 3e 3d 22 f4 f6 46 72 56 90 1a d3 a9 8b 2b
       0.046435382 31610.066 5.9696664e-23 9.92368e-13
0003b0 e4 32 3f 49 34 74 43 46 7f 40 c7 11 79 54 bb 46
       783150.25 12509.051 3.1436413e-28 23978.236
0003c0 27 72 0a 3e cb 39 6d 48 0e 24 a1 47 04 00 00 00
       0.13520108 242919.17 82504.11 6e-45
0003d0 40 a2 c6 1a ed ca e9 47 ac b7 05 4a ca 18 bb 10
       8.215301e-23 119701.85 2.190827e+06 7.379669e-29
0003e0 ab fe 96 02 e0 47 1f 48 ea a2 4e 2f 47 71 2e 25
       2.2186691e-37 163103.5 1.879347e-10 1.5130474e-16
0003f0 04 00 00 00 a2 7f 2f 17 f0 84 e7 44 9e 2f 84 22
       6e-45 5.6706645e-25 1852.1543 3.582909e-18

fc2.weight f4 [128, 256]
000000 1d ea 29 be 8f f2 f5 bd c4 59 3d bd 7e d7 33 3d
       -0.16593213 -0.12009155 -0.046228185 0.04390668
000010 68 14 e4 3c 38 a3 9c 3c 1b 9e a4 bc c6 31 b0 bb
       0.027841762 0.019120798 -0.020094922 -0.005377027
000020 bf 31 33 bc 41 2a 8b bc ce 81 86 bd c3 ac be bc
       -0.010937153 -0.016987922 -0.06567727 -0.023275739
000030 fe 59 8b bd 65 04 32 3e b7 d0 44 bd e7 ab 8f 3d
       -0.06804274 0.17384489 -0.04805061 0.0701521
000040 2f d3 25 3d 98 75 92 bd 0f 72 81 3c dc 37 4b 3d
       0.040484603 -0.071513355 0.015801458 0.04961382
000050 b7 23 ae bc 1a 22 d8 3b e6 ce 39 be 44 c8 53 3c
       -0.021257265 0.006595862 -0.18145332 0.012926165
000060 2f 1c f7 bc b4 e2 6d bd 10 12 f4 3c 38 6f 1a bd
       -0.030164806 -0.05807753 0.02979377 -0.037703723
000070 2c 67 7b 3d dd 72 c1 3c d3 cd 22 bd 0a a1 b2 3c
       0.06137769 0.023614341 -0.03974707 0.021805305
000080 16 dc e8 bc f6 ca 54 3d 52 b4 6a 3c 84 5d ce bd
       -0.028425258 0.05195137 0.014325218 -0.100764304
000090 18 22 87 bd fb ca 34 bc 04 4a 0a 3b 47 57 91 3a
       -0.065983 -0.011034722 0.0021101246 0.0011088633
0000a0 08 ec 80 bd 71 06 b5 3d fe 03 72 bd 7b ab 9d 3d
       -0.062950194 0.08839119 -0.05908584 0.07698723
0000b0 93 35 0b bc 06 09 f1 bd 9c 89 a0 bd f2 63 4a bb
       -0.00849666 -0.11769299 -0.07838747 -0.0030882326
0000c0 c7 ff 19 3d da 52 13 3e a5 4c 92 3d fb 9e d5 bd
       0.037597444 0.14387074 0.07143525 -0.10430714
0000d0 1b 5c 38 3d 25 b9 81 bc 0b 1e bd bd d5 01 7f 3d
       0.045009714 -0.015835354 -0.09234246 0.062257607
0000e0 af c7 87 3d cd 93 1f bd 58 a3 26 bc 86 bb 78 bd
       0.066298835 -0.038959313 -0.01017078 -0.06072571
0000f0 b8 a6 10 3e 7f dd 61 3b 94 9c bc 3c a2 48 65 3d
       0.14126098 0.0034464297 0.023023881 0.05597747
000100 a7 69 d3 bd c5 70 ad 3d b4 fa b3 bd dc 15 e2 bd
       -0.10322886 0.08468775 -0.08788052 -0.110393256
000110 6c 38 c6 bc f4 98 6c bc 9f 2a 04 bc 12 b1 f6 3c
       -0.024196826 -0.014440764 -0.008066802 0.03011373
000120 ac 07 2c bd bc e2 c4 bd b9 f2 4e bd b0 c2 3e 3d
       -0.041999504 -0.09613559 -0.050524447 0.046572387
000130 48 bf 88 bc 08 b3 e6 3d fb 57 57 3d df 98 99 3d
       -0.016692773 0.11264616 0.05257414 0.07499861
000140 a1 64 fa 3c 42 c4 02 3e 59 88 2d 3d 05 b8 a3 bd
       0.030565562 0.12770179 0.04236636 -0.07994083
000150 d2 ba 82 3d cf 65 f5 3d f8 96 36 3d 71 be f3 ba
       0.063832894 0.11982309 0.04457757 -0.0018596185
000160 b5 4a 06 be eb 1b ce bd 5b 6e 94 bd 46 0d a7 bd
       -0.13114436 -0.10063919 -0.07247611 -0.081568286
000170 39 d7 25 bc 23 00 35 bd 80 32 37 3d 15 ea a0 bc
       -0.010122114 -0.044189584 0.044725895 -0.019642869
000180 fb 91 f5 bb 71 6b 67 bd 3f 8f aa 3c a5 59 7d 3d
       -0.007494209 -0.05649895 0.020820258 0.06185307
000190 07 25 4f bd c5 f7 48 3d a1 6b 14 be 4e 13 4c 3d
       -0.05057242 0.049064416 -0.14494182 0.049823098
0001a0 7e 43 74 bb 7e 03 3f 3d 34 d9 9d 3d fc 29 fb 3d
       -0.0037271674 0.04663419 0.07707444 0.12263867
0001b0 06 db 75 bd c6 b6 e4 bc 7c a4 d5 bd 44 f6 50 bc
       -0.06002333 -0.027919184 -0.104317635 -0.012754027
0001c0 b7 57 33 bb fb 68 95 bd fa a2 0d 3d 21 41 03 3d
       -0.0027365515 -0.07295414 0.034579255 0.032044534
0001d0 b7 87 05 3e 6b e4 84 bd b8 9d 05 3d 67 73 5e 3c
       0.13040052 -0.0648888 0.032621115 0.013577319
0001e0 e8 09 1a 3d b3 ba 03 3e 64 72 ff bc 6d 20 a6 bd
       0.037607104 0.12864189 -0.031182475 -0.081116535
0001f0 64 06 65 bd 22 3c 4b 3d 47 f0 19 39 2d 1e a9 bd
       -0.055914298 0.049617894 0.00014680727 -0.08257709
000200 39 a3 19 3c 15 2e 6e 3d a1 44 0b be 2b 56 f2 bc
       0.009377294 0.058149416 -0.13600399 -0.029582104
000210 7c 1f 08 3d 9b 09 e2 bd 94 88 61 3d 22 c0 3f bd
       0.03323315 -0.11036988 0.05506189 -0.04681409
000220 16 87 2b 3d 73 49 9d 3d 21 fd d1 bc b8 ef fd bc
       0.041876875 0.07680025 -0.025633397 -0.030998096
000230 a8 14 20 bb 45 42 de 3c 91 2f 44 3d 21 5f bd 3c
       -0.0024426375 0.02713121 0.047896925 0.02311665
000240 62 9e b2 3d fe 40 e9 3d 99 14 38 bd 6e c2 32 bd
       0.087216154 0.113893494 -0.04494152 -0.043642454
000250 e4 08 9d 3c 83 02 17 3c f8 93 42 be cd 5e 70 3d
       0.019169278 0.009216907 -0.19001758 0.05868416
000260 05 20 21 bd f0 55 d1 3b 0c 1e fc bb f1 72 32 3b
       -0.039337177 0.0063884184 -0.0076940116 0.0027229155
000270 f7 13 90 bd ff 37 09 be ec be 0c bd 26 d0 09 3e
       -0.07035058 -0.13400267 -0.034361765 0.13458309
000280 3e 12 5b bd 3b 13 03 bd 9a bf 04 bd 05 7e b8 3c
       -0.053484194 -0.03200076 -0.032409288 0.022521028
000290 f3 20 e4 3c e5 cc ef 3d 57 c9 c3 bc af fa 25 bd
       0.027847743 0.117090024 -0.023899717 -0.040522274
0002a0 13 b8 68 bb bc 76 a4 3c 96 1f 88 bd c3 15 0f 3c
       -0.0035510107 0.020076148 -0.066466495 0.008733216
0002b0 02 1b 27 be f2 17 ab 3d 06 49 7d bc a3 cc b6 3c
       -0.16318896 0.083541766 -0.015459305 0.022314375
0002c0 3c e3 37 be a4 94 5f 3d 54 11 bc 3c 65 68 ba 3d
       -0.17957777 0.054585114 0.022957481 0.09101943
0002d0 a3 46 b6 3d 45 72 fd bc 7c 7b 8d bd 7d 7a 70 bd
       0.08900192 -0.030938277 -0.069083184 -0.058710564
0002e0 1d a5 b7 3d fc 3a 2d 3d 8b a5 b8 bc 55 1b 18 3e
       0.0896704 0.04229258 -0.022539875 0.14854176
0002f0 c7 28 6a 3c 00 91 d3 3c ff fd dc 3d 5e 7b 22 bb
       0.014291949 0.025825977 0.107906334 -0.002479277
000300 77 3b bd 3d 0a cb f6 ba d0 eb 65 bd 90 d1 47 3d
       0.09239858 -0.0018828821 -0.05613309 0.04878384
000310 73 42 ac 3c 88 f1 b5 3d ba 72 b5 3b 90 1e dd bb
       0.02102778 0.08883959 0.005537358 -0.006748028
000320 d6 b6 89 bd 0f 52 0d 3d 3b 37 5a bd ed b1 02 be
       -0.06724326 0.034502085 -0.053275328 -0.12763186
000330 df 25 8e 3d 5d 41 86 bb 3d e2 8d 3d 1f bb 13 3e
       0.06940817 -0.0040971474 0.06927917 0.1442685
000340 99 d7 83 bc 0d b1 3e 3d 24 ca 87 bc de a0 4d be
       -0.016094016 0.046555568 -0.01657588 -0.20080897
000350 68 02 b2 3d 8d 9b 56 bd e9 ba b8 3d 34 f7 48 bc
       0.08691865 -0.05239444 0.09020025 -0.012265969
000360 63 fe fc bc 87 0b 3c 3c c7 f1 98 bd 2b 0a 10 bd
       -0.03088302 0.011477358 -0.0746799 -0.035165947
000370 7a d2 78 3d 96 40 1e 3c c2 78 d8 bd f3 1a 18 be
       0.0607476 0.009658953 -0.10569908 -0.1485403
000380 23 d9 c6 3a eb 6a a7 3c 8f 99 0c 3d 78 3d 44 3c
       0.0015170913 0.020436725 0.034326132 0.011977546
000390 b2 ba cc bd 12 82 85 3b f2 1a bd 3c 69 43 d9 bd
       -0.09996547 0.0040743435 0.023084138 -0.106085606
0003a0 a8 97 af bd 3e e1 1b 3d 3c a6 eb 3b e5 dc 38 3d
       -0.08573848 0.038056605 0.0071914475 0.045132536
0003b0 74 52 b1 bd 79 2e 2d bd bf 23 94 bc a9 c9 80 3d
       -0.08658305 -0.042280648 -0.018083451 0.062884636
0003c0 e7 ac 4c bd 05 21 22 3d 80 7d 43 bc 08 a4 86 bd
       -0.04996958 0.03958227 -0.011931777 -0.06574255
0003d0 e7 3c f6 bd 69 a6 a1 bc 33 9c 59 bd 48 9b 01 bd
       -0.12023335 -0.01973267 -0.05312748 -0.03164223
0003e0 6a 35 5a ba 41 19 7a bd 6d b8 0f bd 7a 8d 1f 3d
       -0.00083239994 -0.06105924 -0.03508799 0.038953282
0003f0 95 36 92 3c 7e 77 e3 bc b0 01 54 bd 7d 97 c6 bd
       0.017848292 -0.02776694 -0.05175942 -0.09696863
