models/save_models/mlp_features_espectrales.pth (torch, 526539 bytes, 20 tensors)

fc1.weight f4 [256, 336]
000000 ac a0 85 3e f8 f9 64 be bf 58 3e 3e b7 43 66 bd
       0.26099145 -0.2236098 0.18588541 -0.05621692
000010 8f 4a 5b 3e 82 70 c6 bd 97 ea 18 3c 7a 9d 37 3d
       0.2141516 -0.09689428 0.009333274 0.044827916
000020 f8 7a 31 3e 07 65 82 bc 04 ac d6 3d 71 03 1b bc
       0.17332065 -0.015917314 0.10482028 -0.00946127
000030 e7 1a 33 be 4c e4 c3 bd 94 0b 59 be 99 a1 2d be
       -0.17490731 -0.095650285 -0.21195823 -0.16956176
000040 ef f7 ce bc e8 a0 f3 3b 74 25 98 bd 5f 7e aa bd
       -0.025264708 0.007434953 -0.074290186 -0.083248846
000050 a4 16 54 bc d2 05 4f bd f3 32 dd bc 89 96 89 bd
       -0.012944851 -0.05054266 -0.027001834 -0.067181654
000060 dc a4 d1 bd 30 cd 44 bd 55 08 03 3d d5 d6 17 be
       -0.102365226 -0.048047245 0.031990368 -0.14828046
000070 76 f1 01 3e 23 62 69 3d 3a 0a c3 3b 3b e8 c8 bd
       0.12689766 0.056978356 0.005952147 -0.098099194
000080 eb 80 2c 3c b9 f3 73 bd 50 69 2a 3c b2 27 86 bc
       0.010528783 -0.059558604 0.010401085 -0.01637635
000090 46 1a bd bd 39 8f 91 bc 16 67 28 be 73 88 71 bd
       -0.09233527 -0.01776849 -0.16445574 -0.05896802
0000a0 3e 0e a6 bc 52 33 64 bc b4 c7 40 be fe da 43 bc
       -0.020270463 -0.013928251 -0.1882618 -0.011954067
0000b0 5c 86 33 be 92 a0 cc bc de 0a be bd c4 a7 c9 3d
       -0.17531723 -0.02497891 -0.092794165 0.09846452
0000c0 25 07 3d be 84 0b e7 3d 16 a0 3b be 5b ce c7 3d
       -0.18459757 0.11281493 -0.18322787 0.09756156
0000d0 48 09 a7 bd 85 26 ec 3d 67 66 c1 bd ff 8f c4 3d
       -0.08156067 0.115307845 -0.0944336 0.095977776
0000e0 a2 5f 04 bc ff 20 31 3e 5e 09 ce 3c 50 9f 8b 3c
       -0.008079441 0.17297743 0.025150951 0.01704374
0000f0 21 c7 c8 bd b8 d8 98 bd 75 62 1d bd a8 07 01 bd
       -0.09803606 -0.07463211 -0.038423974 -0.031501442
000100 29 ed c2 bd d3 9f 1b 3c f6 2f 93 bd e9 e4 9d bd
       -0.09517891 0.009498554 -0.07186882 -0.07709677
000110 04 43 1a bd 57 16 8b 3b 78 ec 73 bd 80 0e 3e 3d
       -0.037661567 0.0042446065 -0.059551686 0.046400547
000120 3a fd 60 bd 0e b6 f6 3d 4f 47 54 bd 72 63 8e 3d
       -0.054928996 0.12046443 -0.051825818 0.069525614
000130 f7 45 c1 3c f9 54 fe 3c 26 90 70 3d 59 84 93 bd
       0.023592932 0.031046377 0.05873122 -0.07202978
000140 22 0f d6 bc 83 e6 80 bd 01 13 95 3c 07 0e 68 3e
       -0.026130263 -0.062939666 0.018197538 0.22661601
000150 1d 2a 40 3d c5 ed a6 3d bd 62 35 3c 46 63 98 3d
       0.046915162 0.0815082 0.011070904 0.0744081
000160 76 93 be 3c f7 f9 e9 bb 72 c1 37 3e c5 1d a4 3d
       0.023263674 -0.007140394 0.17944887 0.080134906
000170 56 8f b7 bd ed 9a 85 3d aa 08 12 bc 6b e5 fe bc
       -0.08962886 0.065236904 -0.0089131985 -0.031115254
000180 96 01 fc bc 44 e2 89 bd ef 26 3f 3d 31 4e 6e 3d
       -0.030762475 -0.0673261 0.04666799 0.058180038
000190 f7 fc a9 3c d9 59 48 bd 26 86 e6 3c 45 e3 80 3c
       0.020750506 -0.04891381 0.028140139 0.01573337
0001a0 8a b2 10 bd e7 bb 7f 3c 76 dc 07 bd a8 47 59 bc
       -0.035326518 0.015608764 -0.033169232 -0.013261713
0001b0 61 99 2d 3d b2 d7 50 3d 15 43 cc 3d c8 33 f9 bd
       0.0423826 0.050986953 0.099737324 -0.121680796
0001c0 a5 12 89 3e 20 27 87 3d 1c 03 41 bd 09 9e f8 3d
       0.26772037 0.065992594 -0.047122106 0.12139518
0001d0 e5 bb 45 3c d0 d9 00 3e ae 83 cd 3d 2a 32 6d 3d
       0.012068723 0.12583089 0.100348815 0.05790917
0001e0 94 9b 86 3e 0e 90 9c bd 36 da b9 3e 5c 93 a5 bd
       0.26290572 -0.07644664 0.36299294 -0.08084747
0001f0 99 de 9f bd 70 46 0b bd 45 1c 88 be 82 8d aa 3c
       -0.07806129 -0.03400272 -0.26584068 0.02081943
000200 04 4e 80 bd 35 a9 a0 3b 01 d2 0d 3e e0 28 2f 3d
       -0.0626488 0.0049029835 0.13849641 0.04276359
000210 ef c0 13 3e f3 a1 2f bd e9 26 cd bd 03 fd a3 3d
       0.14429067 -0.042879056 -0.10017187 0.080072425
000220 cc 2a 84 be c4 f0 56 3d 29 86 de bd d5 09 c8 3d
       -0.258139 0.052475706 -0.10865433 0.097675
000230 05 69 00 be 41 de e2 bd e0 f1 90 bd b7 14 e9 3d
       -0.12540062 -0.11077548 -0.07077384 0.11380904
000240 b2 b9 5b 3c 74 fc ae bc 81 10 0b be d0 1f 67 bd
       0.013410972 -0.021360613 -0.13580514 -0.056426823
000250 8a ca f4 bd cf 8e ce 3d 90 1d 0a be e4 fb e2 3d
       -0.11952694 0.10085832 -0.1348784 0.110832006
000260 fc 77 29 be 7b 88 d6 3d 46 45 2d be 71 b3 b5 3c
       -0.16549677 0.1047525 -0.16920957 0.02218029
000270 28 9c f3 bd 7e 8b 87 3d 70 b4 69 3d d1 cc 2c 3d
       -0.11895019 0.06618403 0.057056844 0.042187516
000280 31 af 38 bd da e4 73 3d d2 4f 9b bd d1 36 f2 3d
       -0.04508895 0.05954442 -0.07583584 0.11826862
000290 18 45 f2 bd 92 46 c5 3c d7 48 a9 3b cb af 70 3d
       -0.11829585 0.024081502 0.005166154 0.0587614
0002a0 2b a6 a7 bc 47 53 e0 bd 2a 61 aa bc 79 b0 b4 bd
       -0.020464977 -0.10953384 -0.020798285 -0.08822722
0002b0 4c 13 4a be 56 72 8c bd 80 a9 72 be 12 ea 2a 3b
       -0.19733924 -0.06857745 -0.23697472 0.0026079458
0002c0 b6 5d 0e be 16 45 d5 bd 12 2a de bd 51 92 77 be
       -0.13902935 -0.10413568 -0.10847868 -0.24176909
0002d0 4d e0 22 be c7 04 8f 3b 0d 69 c3 bc d9 52 48 3d
       -0.15905876 0.004364583 -0.023853803 0.048907135
0002e0 11 6c ae 3d 1a ca 2f 3d a7 5c 6a bd c0 8e 09 3d
       0.08516706 0.04291735 -0.057217266 0.033583403
0002f0 30 59 a7 3d d0 08 85 3d b7 3f cd 3d 24 93 2a bd
       0.08171308 0.064958215 0.10021918 -0.04164423
000300 4a d0 60 3d 95 0b 15 3e 79 dc 8d bd 3b 18 0a bd
       0.05488614 0.145552 -0.069268174 -0.033714514
000310 67 24 f6 3d 54 3e 6d bd 38 59 a0 b9 a1 bd fb 3d
       0.12018662 -0.05792077 -0.0003058405 0.12292028
000320 d2 96 dd 3c 30 be ff bb d8 66 1d 3e 8c 02 88 bc
       0.027049456 -0.0078046545 0.15371263 -0.016602777
000330 62 0b 64 3d c3 69 a1 3d c2 80 39 3c 1a 9a 0f be
       0.055674918 0.078815006 0.011322202 -0.14023629
000340 2c 0f 2c 3d d2 a4 ff 3d 76 b1 dc bc 06 b7 4f 3d
       0.042006657 0.12482609 -0.026940089 0.050711654
000350 31 2f ec bc dd 49 7a 3d 3e 41 95 3d fe bd 10 bd
       -0.028831096 0.061105598 0.072878346 -0.03533744
000360 2f d9 fb 3d 2d 91 23 be 8f f2 82 bd 9d 75 e0 3d
       0.12297284 -0.15973349 -0.06393921 0.10959933
000370 13 80 8c bc b1 59 f7 bd ba 32 3a 3e d1 20 e2 bd
       -0.017150914 -0.12077654 0.18183413 -0.110414155
000380 9c 42 b6 3e 0a 9b 6f be fc 47 dd 3d 82 07 e1 bb
       0.35597694 -0.23398986 0.108047456 -0.00686735
000390 57 94 32 3d 7b 07 1a bd 06 6e d0 bb 93 d1 de 3c
       0.0435985 -0.03760479 -0.006360772 0.027199542
0003a0 39 fd 8b 3d 40 2a b6 ba 1b 7d 1f 3e 92 04 06 bd
       0.06835408 -0.001389809 0.15575068 -0.032719202
0003b0 00 34 a5 be 12 92 45 bd 13 e4 f8 bb 31 fc 89 bd
       -0.32266235 -0.048235007 -0.007595548 -0.06737555
0003c0 9b 52 8e bd 7d 94 27 be cb ec 40 3d 68 5c 2d be
       -0.069493495 -0.16365238 0.047100823 -0.16929781
0003d0 09 5e 4e bc b1 d3 54 3d 59 41 34 be 04 29 d9 bc
       -0.012595662 0.051959697 -0.17603053 -0.026508816
0003e0 6a 3c a0 be 7d d8 79 3d db 51 8b be 75 ab 51 bd
       -0.31296092 0.060997475 -0.27210888 -0.051188905
0003f0 ff f5 31 be 75 5a a2 3d 16 d0 66 be f6 88 ac 3d
       -0.17378996 0.079274096 -0.22540316 0.08424561

fc1.bias f4 [256]
000000 f7 66 2c 3e 48 7f dc 3c 01 03 6a 3d 38 50 3a bd
       0.16836153 0.026916161 0.05713177 -0.04548666
000010 7d 5c c3 3c 9d 9f 33 3e fd 58 f6 3c 7c 2f e1 3c
       0.023847813 0.17541356 0.03007173 0.027488463
000020 89 95 9c 3d d2 d2 23 3c 87 c4 5c 3b f6 bb 1e 3d
       0.07645709 0.009998994 0.0033686475 0.038753472
000030 c5 fe ed bc 0c 11 80 bd 0a de cb bc 9e 0a b1 3d
       -0.029052148 -0.062532514 -0.02488615 0.08644603
000040 dc ed 1c bd 92 4c 64 bd ea f3 0d 3c d2 70 0f 3e
       -0.038312778 -0.055737086 0.008664111 0.14007881
000050 7f 5b 12 3c 2b 1f 5d 3e d7 6d 5f 3e cb 71 3f 3c
       0.008932947 0.21593921 0.21819244 0.011684845
000060 05 32 bc 3d f1 d3 23 3c e2 0a 92 3c 4e 49 1c be
       0.09189228 0.009999261 0.017827455 -0.15262339
000070 3c 8e b5 3e 9a 79 87 3e 57 82 22 bd 09 4f be bd
       0.3546008 0.26459962 -0.039675083 -0.092924185
000080 59 48 a9 3d 42 77 43 3e 8d 3e 09 3d 1d 76 7b 3c
       0.08265752 0.19088462 0.03350692 0.015347985
000090 e1 f3 ba 3d 00 6a 65 3e d2 d2 23 3c 9f c8 23 3c
       0.091285475 0.22403717 0.009998994 0.009996562
0000a0 53 81 d4 3b 80 29 0d 3e 16 93 97 3d 19 0f 32 3c
       0.006485143 0.13785362 0.07401101 0.010867857
0000b0 0f ce 8e bd f0 69 e6 3c 56 2a a2 3d 23 c5 d2 3c
       -0.06972896 0.028126687 0.07918231 0.025728768
0000c0 99 15 78 3d 81 3f ba 3d b4 1a c4 3c f6 6d 82 3e
       0.060567472 0.09094144 0.023938514 0.2547452
0000d0 f5 0b 27 3d b3 f6 77 3e ff b4 9b 3c 51 e7 fe bb
       0.040782887 0.24215202 0.019007204 -0.00777904
0000e0 bb 48 b6 3c 3f cb 68 3d d2 d2 23 3c 1d 8e cc 3c
       0.022251477 0.056834456 0.009998994 0.024970109
0000f0 da c5 62 3d 19 c9 17 3e 05 00 0f 3d 34 77 86 3d
       0.055364467 0.14822806 0.034912128 0.06565705
000100 ba 86 46 3b bb c9 c6 3b b7 0a 52 3c cd 07 9a 3d
       0.0030292706 0.0060665286 0.012819937 0.07521019
000110 38 6f 53 bc 1f b7 26 3d 7b f3 9d 3d d2 d2 23 3c
       -0.012904935 0.04070198 0.07712456 0.009998994
000120 ba 67 76 3d af 0d 10 3b 12 94 b6 3d 22 2d 97 3d
       0.060157515 0.0021980812 0.08914961 0.07381655
000130 50 d2 85 3e 5b 2e 0d bd be db 23 3c 11 08 61 3d
       0.26137018 -0.034468036 0.010001121 0.054939333
000140 e4 81 2f 3e 42 5e 06 bc 6e ae 32 3d f4 d9 23 3c
       0.17139393 -0.008201184 0.04362338 0.010000695
000150 2a 6c 40 be 13 2a df bd d2 d2 23 3c d2 d2 23 3c
       -0.18791261 -0.10896697 0.009998994 0.009998994
000160 da 48 f1 3c eb 5d be 3d 11 40 0e 3e ff 90 11 be
       0.029453684 0.09295257 0.13891627 -0.14215468
000170 d2 d2 23 3c 3a dc 23 3c ea 42 1d 3d bc 0a 25 3d
       0.009998994 0.010001237 0.038393892 0.04029344
000180 d2 d2 23 3c 4e 6a 49 bd 34 e4 80 3c 45 00 09 3d
       0.009998994 -0.049173646 0.015733816 0.033447523
000190 2d e4 9f 3c d2 d2 23 3c 0a ab 17 3d f6 e1 78 3c
       0.019517982 0.009998994 0.03702835 0.015190592
0001a0 55 dc af 3e af 46 aa 3d 91 d7 de 3c 6a b7 d2 3d
       0.34347787 0.08314263 0.0272024 0.1028889
0001b0 29 10 9f 3d da 21 17 3d 69 04 55 3b 45 e1 85 bc
       0.07766754 0.036897518 0.003250385 -0.016342768
0001c0 eb e9 49 3d 69 48 31 3d 24 17 3c 3d b9 00 34 3d
       0.049295347 0.043281946 0.045920506 0.043946
0001d0 fd b3 60 3d fe 3e 64 3e 77 18 1d 3e 2e ad 40 bd
       0.05485915 0.22289655 0.15341364 -0.047040157
0001e0 8a de 54 3d 5b d0 b7 bb c6 9c b5 3d 26 6f c6 3d
       0.051970042 -0.0056095547 0.08867793 0.09689169
0001f0 27 ef 39 bc 26 c3 93 3d 30 4a 8b 3b f9 6c 1d be
       -0.011348522 0.07214956 0.004250787 -0.15373601
000200 34 fa 2a 3e d2 d2 23 3c c8 5f e7 3d b2 a2 ee 3d
       0.16697007 0.009998994 0.11297566 0.116521254
000210 d2 d2 23 3c 88 5d 83 3b d2 d2 23 3c 5c b3 94 3d
       0.009998994 0.0040089525 0.009998994 0.072607726
000220 b7 bc 4b 3d d0 1e b4 3a 4e 99 1f 3e e0 88 bf 3c
       0.04974052 0.0013742093 0.15585825 0.023380697
000230 71 f8 0c 3d 62 48 6f 3d 78 40 98 3c fa 5f 86 bc
       0.03441662 0.05841864 0.018585429 -0.016403187
000240 d2 d2 23 3c 19 95 83 3d b1 c2 8f 3e 07 fc 1c 3c
       0.009998994 0.064249225 0.28078225 0.009581572
000250 83 1a b2 3b c7 c3 0c 3e a2 17 a8 3e 20 fb 4a be
       0.0054352893 0.13746558 0.3283053 -0.19822359
000260 a2 96 49 3c 02 44 1d 3d 84 b4 f2 3d eb d9 da bc
       0.01230398 0.038394935 0.11850837 -0.02671524
000270 d2 d2 23 3c ff f4 df 3d d2 d2 23 3c 0f 37 c7 3d
       0.009998994 0.10935401 0.009998994 0.097272985
000280 c9 c2 72 bc d2 d2 23 3c 48 88 0a 3e 53 82 8a bd
       -0.014816948 0.009998994 0.1352855 -0.067631386
000290 14 14 99 3d c8 f3 af 3d a5 7e c2 3e 93 ec c2 3d
       0.07474533 0.085914195 0.37987247 0.09517779
0002a0 24 9e 8f 3c a4 bd cd 3b 6a 12 a3 3d 6e 1d 9c 3e
       0.017531462 0.0062787104 0.079624966 0.30491203
0002b0 cb 01 0a 3e d2 d2 23 3c 01 28 ac 3d 24 53 90 3b
       0.13477246 0.009998994 0.08406068 0.0044044424
0002c0 b0 88 75 3c d2 d2 23 3c 37 d3 23 3c 1b 2c a3 3d
       0.014986202 0.009998994 0.009999088 0.07967397
0002d0 42 da d7 3c ad b3 a0 3b c2 b2 3e 3c b2 23 99 3b
       0.02634919 0.0049042315 0.011639299 0.0046734447
0002e0 bf d1 23 3c d2 d2 23 3c d2 d2 23 3c 91 94 87 3c
       0.009998738 0.009998994 0.009998994 0.016550334
0002f0 61 db 79 3d 84 85 1c 3d b6 e1 98 3c d2 d2 23 3c
       0.06100023 0.038213268 0.018662315 0.009998994
000300 8c ea 62 3c ce 18 d7 3e 7f cc c7 3e 20 cb cb 3b
       0.013849866 0.42011112 0.39023206 0.0062192827
000310 44 36 02 bd de 37 ce 3e fd 65 30 3d aa b6 25 bd
       -0.031790033 0.40276998 0.043066014 -0.040457405
000320 d2 d2 23 3c d2 d2 23 3c b3 f2 44 bb d2 3e fc 3c
       0.009998994 0.009998994 -0.0030051887 0.030791674
000330 a2 2c 05 3c b8 3f 8c 3d cd 6d 38 3c c0 f3 1a bc
       0.008128317 0.06848091 0.011256647 -0.009457529
000340 5d 3d 7f 3b 5d 18 e7 3c ff 09 93 3e d6 6c 14 3c
       0.0038946487 0.02820986 0.28718564 0.009059152
000350 0d 63 14 3b da c0 23 3c 35 14 07 be e8 82 2d be
       0.0022642047 0.00999471 -0.13191302 -0.16944468
000360 ef 60 d1 3c d9 06 ed bd 82 77 f0 3d 1b d3 9c 3b
       0.025558917 -0.11573572 0.11741544 0.004785908
000370 0d f8 ad b9 0c c1 70 bc 2a b5 59 bc 0b cc 69 3d
       -0.00033181944 -0.014694463 -0.013287822 0.057079356
000380 9c 1d df 3c c4 2c 0b 3d 67 f4 12 3e f1 26 dc 3b
       0.027235799 0.03397824 0.14351045 0.0067185094
000390 7d d1 23 3c d2 d2 23 3c c6 9b 8d bc dc 5d bc 3b
       0.009998676 0.009998994 -0.017286193 0.0057484936
0003a0 8c f3 5d 3e cb e0 6a 3e 82 13 a9 3e c6 c4 13 3d
       0.21674937 0.22937314 0.33022696 0.03607633
0003b0 31 cd 37 3e d2 d2 23 3c dd 28 83 3d c3 89 9f 3c
       0.17949368 0.009998994 0.064042784 0.01947487
0003c0 41 f8 be 3d 99 cd f3 3b e6 65 c5 3d 9a 5a 33 3e
       0.093246944 0.0074402806 0.09638576 0.1751503
0003d0 d2 d2 23 3c 43 f0 a7 3d c3 b7 3f 3d d2 d2 23 3c
       0.009998994 0.08200123 0.04680611 0.009998994
0003e0 5a d1 a8 3d c4 97 a6 bd 3f c2 ab bd ca 80 88 3e
       0.08243056 -0.08134416 -0.08386659 0.26660758
0003f0 d2 d2 23 3c c4 dc 9c 3b 4f 79 0a 3d 42 ef 9a 3d
       0.009998994 0.0047870595 0.033807095 0.07565166

bn1.weight f4 [256]
000000 16 7d 88 3f 19 a1 70 3f c2 d4 81 3f 8c cc 63 3f
       1.0663173 0.93995816 1.0143054 0.8898399
000010 09 40 6d 3f a3 87 91 3f 55 e1 82 3f 10 b9 76 3f
       0.92675835 1.1369518 1.0225016 0.9637613
000020 c1 bc 87 3f 39 4f 6c 3f 09 d8 7f 3f a3 8e 82 3f
       1.0604478 0.92308384 0.9993902 1.0199779
000030 13 7a 69 3f 58 7a 80 3f 24 32 7f 3f 59 0d 7c 3f
       0.91201895 1.0037336 0.99685884 0.98457867
000040 17 6c 6b 3f fd 0b 7d 3f 2e 7a 7a 3f 13 ad 7e 3f
       0.91961807 0.9884642 0.9784268 0.9948284
000050 c0 fc 67 3f a5 07 89 3f fa 53 72 3f 2d f5 72 3f
       0.9062004 1.0705458 0.9465939 0.9490536
000060 43 ae 88 3f b3 e3 70 3f 4a 48 6f 3f 74 34 70 3f
       1.067818 0.9409744 0.9346968 0.9383004
000070 cf fc 86 3f 5f dc 75 3f a8 fd 71 3f a8 cb 7d 3f
       1.0545901 0.96039385 0.94527674 0.9913888
000080 2b a3 7a 3f e5 52 9f 3f 15 26 89 3f a2 49 84 3f
       0.97905225 1.2447172 1.0714747 1.0334971
000090 68 1b 74 3f 96 34 81 3f 9b 99 8a 3f 60 30 6b 3f
       0.9535432 1.0094173 1.0828127 0.9187069
0000a0 5a fd 77 3f 23 5b 70 3f 6a c4 76 3f 5d f6 80 3f
       0.9687096 0.93889064 0.96393454 1.0075184
0000b0 86 89 69 3f c8 cb 85 3f ce 14 80 3f 1e 11 86 3f
       0.9122547 1.0452814 1.0006349 1.0473974
0000c0 e1 c1 7c 3f 2d 73 84 3f c2 0f 82 3f 14 0f 88 3f
       0.98733336 1.0347649 1.0161059 1.0629601
0000d0 c1 f1 79 3f 9a 0d 89 3f 07 a2 6d 3f 47 c4 7d 3f
       0.9763451 1.0707276 0.9282536 0.9912762
0000e0 73 10 84 3f dd be 63 3f 43 d0 87 3f 79 a2 81 3f
       1.031752 0.8896311 1.0610431 1.0127708
0000f0 b8 ce 84 3f eb d6 78 3f 89 7d 66 3f 2e e4 77 3f
       1.0375586 0.9720294 0.900353 0.9683255
000100 ab 40 7c 3f ac 3d 7c 3f 73 88 82 3f bb 67 81 3f
       0.98536175 0.98531604 1.0197891 1.0109781
000110 89 1e 73 3f 68 fe 79 3f 99 39 79 3f d3 21 86 3f
       0.9496847 0.9765382 0.9735351 1.0479072
000120 6e bf 83 3f 5d 53 77 3f ca ab 77 3f 28 94 a0 3f
       1.0292795 0.9661158 0.96746504 1.2545214
000130 60 19 a3 3f 58 9a 76 3f 5c d5 74 3f cf 6f 62 3f
       1.2742119 0.9632926 0.9563806 0.88451856
000140 d5 b4 9f 3f b6 2d 67 3f 01 5f 74 3f b8 86 6b 3f
       1.247706 0.90304124 0.95457464 0.9200244
000150 87 e3 73 3f f5 f3 74 3f 22 60 80 3f 75 8c 8c 3f
       0.95269054 0.9568475 1.0029337 1.0980364
000160 5a 9c 72 3f 1b d8 7f 3f de e3 84 3f 70 ae 61 3f
       0.94769824 0.99939126 1.038204 0.88156796
000170 f3 92 88 3f 38 dc 78 3f 2b f4 7a 3f 4c 9d 74 3f
       1.0669845 0.9721103 0.9802882 0.95552516
000180 e1 48 77 3f ab 47 83 3f 9d fd 7d 3f 24 bd 83 3f
       0.9659558 1.0256246 0.9921511 1.0292096
000190 c2 f6 79 3f b9 b1 6c 3f 19 70 74 3f 15 6f 6d 3f
       0.9764215 0.92458683 0.9548355 0.9274762
0001a0 b8 39 9d 3f 9e dc 81 3f a4 79 6f 3f e6 5b 7b 3f
       1.2283239 1.0145452 0.93544984 0.981871
0001b0 09 1b 80 3f 3c 60 79 3f fa 94 7f 3f a9 29 76 3f
       1.000825 0.97412467 0.99836695 0.9615732
0001c0 c4 15 87 3f 9b 52 80 3f 68 44 6a 3f 81 17 77 3f
       1.0553517 1.0025209 0.9151063 0.9652024
0001d0 e3 61 82 3f 02 90 84 3f f9 69 83 3f 67 84 81 3f
       1.0186123 1.0356448 1.0266715 1.0118531
0001e0 18 29 81 3f 4e 28 82 3f f6 83 69 3f 47 ac 85 3f
       1.0090666 1.016855 0.9121698 1.04432
0001f0 da 61 82 3f 0d 03 88 3f 57 ea 6b 3f 4a c2 67 3f
       1.0186112 1.0625931 0.9215445 0.90530837
000200 f9 23 91 3f 41 a9 86 3f 7e 1c 75 3f 72 65 76 3f
       1.1339103 1.0520402 0.957466 0.96248543
000210 65 39 6f 3f 6c 1f 72 3f 8b e8 7c 3f f8 3f 88 3f
       0.9344695 0.94579196 0.9879233 1.0644522
000220 7b ec 77 3f 36 30 74 3f b1 6b 74 3f 5e e7 6d 3f
       0.96845216 0.95386064 0.95476824 0.92931163
000230 36 3a 7f 3f 1b ba 88 3f af fe 80 3f cb 9d 63 3f
       0.996982 1.0681795 1.0077723 0.8891265
000240 22 94 72 3f d0 29 96 3f d1 56 76 3f d0 d4 8c 3f
       0.9475728 1.173151 0.9622622 1.1002445
000250 9f 43 7a 3f 3d af 87 3f 15 21 87 3f 89 a7 7a 3f
       0.9775943 1.0600353 1.0556971 0.9791189
000260 ca 45 81 3f a3 93 80 3f 55 2c 89 3f fd 93 7e 3f
       1.0099423 1.0045055 1.0716654 0.9944456
000270 85 84 89 3f bc e4 71 3f 5b 4a 77 3f c7 f8 6c 3f
       1.0743567 0.94489646 0.9659783 0.92567104
000280 2b ed 7d 3f 89 de 6b 3f ad a9 70 3f 7e 72 7a 3f
       0.99190015 0.92136437 0.94008905 0.9783095
000290 e2 9f 77 3f 4b fd 6c 3f 7c c9 8b 3f d8 89 75 3f
       0.96728337 0.92573994 1.0920863 0.9591346
0002a0 56 12 81 3f 6b 7e 7c 3f 35 f9 79 3f 51 11 a4 3f
       1.0083721 0.986304 0.97645885 1.2817785
0002b0 be 4a 7d 3f 1c 30 8d 3f ca 05 77 3f cf d8 7f 3f
       0.9894217 1.1030307 0.9649321 0.999402
0002c0 fe 90 86 3f a1 c0 6b 3f b5 11 6f 3f 99 23 8f 3f
       1.0512998 0.92090803 0.93386394 1.1182739
0002d0 18 cc 7b 3f 0a 91 80 3f 76 c4 83 3f bc a5 7f 3f
       0.983583 1.0044262 1.029433 0.99862266
0002e0 4c 17 6f 3f 6c ac 72 3f e1 88 63 3f 0c 71 7e 3f
       0.93394923 0.94794345 0.88880736 0.99391246
0002f0 57 37 78 3f 6a f9 85 3f b0 aa 81 3f 53 ee 86 3f
       0.9695944 1.046674 1.0130215 1.0541481
000300 af b2 7f 3f a7 5c 8b 3f 80 ca 77 3f a7 d1 7b 3f
       0.99882025 1.088765 0.96793365 0.9836678
000310 ab bc 82 3f 67 3a 9a 3f 75 ce 80 3f 09 b2 83 3f
       1.0213827 1.2049073 1.0063006 1.0288707
000320 8f 31 6f 3f 5f 05 68 3f 48 43 82 3f b9 b1 88 3f
       0.93434995 0.90633196 1.0176783 1.0679237
000330 e7 de 87 3f dd 98 81 3f 5b d0 68 3f de 71 78 3f
       1.0614899 1.0124775 0.90942925 0.9704875
000340 4c c7 7b 3f 07 1f 7a 3f 83 92 78 3f 84 bc 75 3f
       0.9835098 0.97703594 0.9709856 0.95990777
000350 27 04 6d 3f 2c 0f 65 3f b2 6f 6a 3f 06 88 67 3f
       0.9258446 0.89476275 0.91576684 0.9044193
000360 fd e8 69 3f 22 c2 6a 3f 85 54 83 3f e5 5c 7e 3f
       0.91371137 0.91702473 1.0260168 0.99360496
000370 1e dc 71 3f 2e 4a 86 3f 10 44 78 3f 7f dc 6c 3f
       0.944765 1.0491388 0.96978855 0.9252395
000380 52 07 80 3f a5 70 79 3f a4 85 87 3f 3a 71 70 3f
       1.0002234 0.97437507 1.0587659 0.9392277
000390 e7 ed 74 3f a8 3c 65 3f df bc 66 3f 8a 0d 84 3f
       0.9567551 0.8954568 0.90131944 1.0316632
0003a0 53 f0 7c 3f c1 0d 87 3f d7 ab 81 3f a9 ed 86 3f
       0.98804206 1.0551072 1.0130566 1.0541278
0003b0 7f 43 78 3f 65 a3 8b 3f 8f f9 7f 3f 3e 04 71 3f
       0.9697799 1.0909239 0.9999017 0.941471
0003c0 75 4c 70 3f 6d d9 69 3f 67 38 7a 3f 16 eb 7f 3f
       0.93866664 0.9134739 0.97742313 0.9996809
0003d0 47 2b 70 3f 3f 58 83 3f 4d 92 85 3f e3 9e 89 3f
       0.93816036 1.0261306 1.0435272 1.0751613
0003e0 a6 83 83 3f 51 f0 63 3f c8 2d 80 3f 69 b3 82 3f
       1.0274551 0.8903857 1.0013971 1.0211002
0003f0 cb a1 6a 3f 6d a5 6b 3f 3f d3 71 3f 06 25 7c 3f
       0.91653126 0.92049295 0.9446296 0.98493993

bn1.bias f4 [256]
000000 5e fe 7f 3d 62 79 b5 3c 9d da 1c bd 05 74 f8 3d
       0.062498443 0.022152606 -0.038294423 0.12131504
000010 32 11 a9 3d 28 6b c2 3d cb e3 46 3d 15 12 c4 3c
       0.08255233 0.09493095 0.048557084 0.023934403
000020 0f 8d ac 3c 87 3e a8 3d ba 63 88 3d 26 29 94 3d
       0.021063356 0.08215051 0.06659646 0.07234411
000030 a7 33 30 3d 3e 96 a5 3d e8 4f a4 3d ee f3 90 3d
       0.04301801 0.08085297 0.080230534 0.07077776
000040 17 ac ad 3d 07 57 29 3d 7b 15 b5 3d 3f 83 8e 3d
       0.08480089 0.04134276 0.08841988 0.06958627
000050 50 5f c9 3d 7d 79 68 3d d7 be f6 3c 1e 4b 06 3e
       0.098326325 0.056756485 0.030120296 0.13114592
000060 c3 0d 81 3d 0e 43 28 3e a8 21 a8 bc ce dc a3 3d
       0.06301453 0.1643183 -0.020523861 0.080010995
000070 20 f6 67 3c 66 e1 5a bc d8 8f c7 3d 28 9f 9c 3d
       0.014157802 -0.013359403 0.09744233 0.07647544
000080 f9 8f cc 3d 5c 52 90 3e 58 5f 8e 3d df 9c 92 3d
       0.09988398 0.28187835 0.06951779 0.07158827
000090 01 2d 00 3e 9c b4 aa 3d c8 21 a7 bd 4b a6 a4 3d
       0.12517168 0.0833523 -0.0816074 0.0803953
0000a0 e2 d2 79 3d f3 f5 d4 3d d7 3d 10 3e a6 34 d7 ba
       0.06099213 0.103984736 0.1408609 -0.0016418889
0000b0 cd 50 ad 3d a1 5a af 3d ee e9 fa ba ab 4c 1b 3b
       0.08462677 0.08562208 -0.0019143203 0.002369682
0000c0 32 77 b4 bc 57 56 8b 3d 0a 48 17 bd 74 22 03 3d
       -0.022029493 0.068035774 -0.036933936 0.03201528
0000d0 2e 6b 8b 3d e8 1a ee 3d 98 c7 f7 3c a3 e6 c4 3d
       0.06807552 0.11626226 0.03024654 0.09614303
0000e0 15 77 0e bd 84 b0 0a 3e 2f f1 73 bd 16 4a 8e 3d
       -0.034781534 0.13543898 -0.059556182 0.069477245
0000f0 ba 0b 5a 3d 46 48 3a 3d b8 3a ac 3d e9 6d 38 3d
       0.05323384 0.04547908 0.08409637 0.045026693
000100 f2 3a 0b 3e 24 ff 63 3d 6a 46 37 3d f4 1e 97 3c
       0.13596705 0.055663243 0.044744886 0.018447377
000110 03 af 9b 3d be b5 59 3d e8 a8 e0 bc a7 12 5c bd
       0.0760174 0.05315184 -0.02742429 -0.053728726
000120 4d bb 87 3d 7c 07 ae 3c 9c 7a 8c 3c de d1 70 3d
       0.06627522 0.021243803 0.017148308 0.058793895
000130 25 18 13 3e 26 e9 d0 3d 04 35 ae 3d c9 46 21 3d
       0.14364679 0.102007195 0.08506206 0.039374147
000140 79 6c 62 3e 97 e5 a8 3d 5b 8c c5 3d fa bd 0f 3d
       0.22111692 0.08246916 0.09645911 0.035093285
000150 f0 3a c3 3d b1 3e a3 bc af 7d 21 bb ae e0 cb bd
       0.09532726 -0.019927355 -0.0024641564 -0.099549636
000160 91 d4 80 bc 2d 7b da 3c dc 7f 80 3d af b4 c3 3d
       -0.01572636 0.026670063 0.06274387 0.09555947
000170 ee b1 90 bd 37 3b 08 3e 8b ed 17 3d 0b b6 d7 3d
       -0.070651874 0.13303839 0.037091773 0.10532769
000180 66 6c 23 3d 6c bc 6d 3d a4 68 58 3d 1f e4 34 bd
       0.0398983 0.05804102 0.052834168 -0.044162866
000190 94 ba 97 3d 80 f9 a9 3d 77 86 84 3c b2 23 6e 3d
       0.07408634 0.082995415 0.0161774 0.05813951
0001a0 31 bf 5b 3d f3 7d 70 3d 76 4b 74 3c c0 21 1e 3d
       0.05364913 0.058713865 0.014910569 0.038606405
0001b0 14 7e cc 3c c2 d7 de 3d 61 37 94 ba 9b ad 9a 3c
       0.024962462 0.10880996 -0.0011308008 0.01888161
0001c0 58 91 3c 3d e3 9b 9d 3d a5 95 98 3d 79 84 33 3c
       0.046037048 0.07695749 0.074504174 0.010956877
0001d0 07 2c bb 3d f6 78 c8 3c 72 b6 94 3d ee 1d 0e 3d
       0.09139257 0.024471741 0.07261361 0.034696512
0001e0 02 9b 9f 3d 7b cc 49 3d 20 70 a0 3d 8e 0f 38 3d
       0.07793237 0.049267273 0.07833886 0.04493671
0001f0 6d a1 a2 3d 41 2c c0 3d 4d 7a a4 3d 6a ac d9 3d
       0.07940946 0.09383441 0.080311395 0.106285885
000200 22 2a cf b9 fa 63 44 bd c7 a9 82 3d 52 4b 13 3e
       -0.00039513508 -0.047946908 0.06380039 0.14384201
000210 5b ed 85 3d de 39 b9 3d 68 2b a8 3c 01 67 d6 3d
       0.065394126 0.090442404 0.02052851 0.10468865
000220 70 a3 2d 3e 70 ef b4 3d 2c a6 d3 3d 4f ba 4c 3d
       0.16956878 0.088347316 0.10334429 0.049982365
000230 0b e3 f5 3a ea d4 86 bd ca c8 0c 3e a1 bc d3 3d
       0.0018759681 -0.06583579 0.1374847 0.103387125
000240 9e 68 11 3d a0 28 27 3e 7e 1f da 3d ba 67 dd bd
       0.03550016 0.16324091 0.10650538 -0.108108
000250 57 3e 15 bd ff 07 b3 3d c9 2f 3c 3d be bb 33 3d
       -0.036436405 0.087417595 0.04594401 0.043880217
000260 8f 58 31 bd bb e2 a5 3d 23 0b da 3d 84 ee 86 bc
       -0.043297347 0.08099886 0.106466554 -0.016471155
000270 ba 9e ac bd 0f 7f 7f bb ff 2d 31 3d cf f9 c6 3d
       -0.08428712 -0.0038985645 0.043256756 0.09715616
000280 9a 02 e2 3d 2b 4a 92 3d 44 ee 4f 3e f2 70 10 3e
       0.110356525 0.07143053 0.20305735 0.14105585
000290 ae 6b 55 3d 01 c2 39 3c c9 69 c8 3d 2e f9 ae 3d
       0.052104644 0.011337758 0.09785802 0.08543621
0002a0 60 b1 ce 3b a3 d2 15 3d a9 d5 91 3d ff 17 2b 3c
       0.006307766 0.036577832 0.071208306 0.010442733
0002b0 43 e1 e9 3d 4e bb e8 bd bd cf 0c 3e 91 03 83 3c
       0.114199184 -0.113638505 0.13751121 0.015992912
0002c0 f2 1b e6 bc 7d f9 a1 3d b3 62 3a 3d cc bd fa 3d
       -0.028089497 0.07908914 0.045504283 0.12243232
0002d0 2a 9a 9a bd da c8 be bc 89 2c d4 3c c9 65 a6 bd
       -0.07548936 -0.023289133 0.025900142 -0.08124883
0002e0 db 17 fa 3d 8c 42 7a 3d 34 f8 df 3d 35 2d 62 3d
       0.12211581 0.06109862 0.10936013 0.055218894
0002f0 f3 a9 e7 3d c4 f1 46 3d 56 9d cd 3d e9 41 70 bd
       0.11311712 0.04857041 0.10039775 -0.058656607
000300 35 85 8e 3c df a1 37 3e d5 42 9c 3d 4e 58 9a 3d
       0.017397502 0.17932843 0.07629935 0.07536374
000310 fe bd b8 3c fc c4 f8 bd a5 b2 f9 3d e9 cd a2 3c
       0.022551533 -0.12146947 0.12192277 0.019873576
000320 62 88 96 3d b4 d9 c5 3d 22 2e 1a bd 4e ab da 3d
       0.07350232 0.09660664 -0.037641652 0.10677205
000330 8c 80 96 bd a8 86 51 3d f5 4c ec 3d d5 14 05 3e
       -0.07348737 0.05115381 0.11538116 0.12996228
000340 22 e5 33 bc dd af ac 3d e2 8a 42 3e c7 3c d2 3d
       -0.0109799225 0.08431981 0.18998292 0.102654986
000350 4d bf f2 3c fd 5b dd 3d 7f aa 56 3d f2 6c 10 3e
       0.029632235 0.10808561 0.05240869 0.1410406
000360 0c 25 b3 3d 06 59 8b 3d 61 a3 53 3d 9a 86 f4 bc
       0.087473005 0.06804089 0.051669482 -0.02984934
000370 16 3d c7 3b 9d 19 9d 3d b2 6f 27 3e 5e 6f 37 3d
       0.00608028 0.07670901 0.16351202 0.044783942
000380 fc 8a 1e 3e a1 ad 9e 3d ae 88 aa 3c 2e eb 6a 3d
       0.15482706 0.07747961 0.020817127 0.05735319
000390 ce b9 29 3e af 89 c3 3d a2 e3 21 3c ff 72 92 3d
       0.16574785 0.095477454 0.009880932 0.0715084
0003a0 a8 5d 29 3d 0b 9a 50 3d af 12 c4 3d fb fa 9f 3d
       0.041349083 0.050928157 0.09573876 0.078115426
0003b0 e8 6d 1b 3d 1c a5 b4 bd 02 8c 74 3d 9f da 72 3d
       0.03794661 -0.088205546 0.059703834 0.059290525
0003c0 b2 c4 8b 3b d2 08 af 3d c8 b3 b5 3c bc fa ba 3c
       0.0042653913 0.08546604 0.022180453 0.022824638
0003d0 35 b0 76 3d d0 df 1c 3d 3c 0d b4 3b ce c2 98 bd
       0.060226638 0.03829938 0.0054947417 -0.07459031
0003e0 97 de 36 bd 33 54 26 3d 9b 1e c0 3d 52 df b4 3b
       -0.044645872 0.040607642 0.093808375 0.005519786
0003f0 6f e4 ac 3d 30 b1 b4 3d e6 f6 2a 3d ee 5e 45 3d
       0.08442008 0.08822858 0.041739367 0.048186235

bn1.running_mean f4 [256]
000000 6c fe cb 41 ce 75 19 44 5e 09 e1 bf 2f da 94 43
       25.49923 613.8407 -1.7580984 297.70456
000010 a3 6d b4 41 5a 09 e1 bf 1a 74 95 42 f7 5c 5c 42
       22.553534 -1.7580979 74.72676 55.090786
000020 bb fe 74 bf 61 09 e1 bf 2e 84 22 42 5f 09 e1 bf
       -0.9570119 -1.7580987 40.62908 -1.7580985
000030 6c 30 30 43 eb f3 6d 43 5c 09 e1 bf e7 5c 4c 42
       176.18915 237.9528 -1.7580981 51.090725
000040 27 62 0e 43 34 8b 21 43 33 7d c3 44 61 19 59 44
       142.3834 161.54376 1563.9125 868.39655
000050 b0 d3 ce 44 5b 09 e1 bf 96 d7 2e 42 ee 20 c0 44
       1654.6152 -1.758098 43.710533 1537.029
000060 f6 32 14 42 9b e5 d3 44 0f 6e 77 41 17 ff 06 44
       37.049767 1695.1752 15.46437 539.9858
000070 61 22 d9 bf 25 06 b8 42 fb c2 e4 43 59 09 e1 bf
       -1.6963617 92.012 457.5233 -1.7580978
000080 78 10 f1 43 ff bf 3e 42 24 9f 82 42 b9 50 f2 41
       482.12866 47.687496 65.31082 30.289415
000090 64 41 00 42 59 09 e1 bf 61 09 e1 bf 61 09 e1 bf
       32.063858 -1.7580978 -1.7580987 -1.7580987
0000a0 5c 09 e1 bf da 44 17 44 d6 00 33 43 61 09 e1 bf
       -1.7580981 605.0758 179.00327 -1.7580987
0000b0 c1 cd ae 43 5c 09 e1 bf 91 08 e1 bf ac 62 bc 41
       349.60745 -1.7580981 -1.7580739 23.54818
0000c0 5f 09 e1 bf 9c b5 5e 41 5b 09 e1 bf 2c 29 ce bf
       -1.7580985 13.919338 -1.758098 -1.6106315
0000d0 45 07 c6 43 27 37 9b 42 b4 51 a9 44 96 ae 1c 42
       396.0568 77.60772 1354.5532 39.170494
0000e0 5b 09 e1 bf e6 3d f8 44 61 09 e1 bf 59 09 e1 bf
       -1.758098 1985.9343 -1.7580987 -1.7580978
0000f0 cd 6e 2b 41 5a 09 e1 bf 3c 97 42 44 5a 09 e1 bf
       10.714551 -1.7580979 778.36304 -1.7580979
000100 ee af af 44 61 09 e1 bf 5a 09 e1 bf 5a 09 e1 bf
       1405.4978 -1.7580987 -1.7580979 -1.7580979
000110 22 5b 29 43 c9 2e 81 3f b3 bf 9c 41 61 09 e1 bf
       169.35599 1.0092403 19.593603 -1.7580987
000120 d9 e4 f2 42 e6 cc 26 42 5d 09 e1 bf 20 7e 12 41
       121.44697 41.700096 -1.7580982 9.155792
000130 19 c4 e0 bf 59 cb 0c 44 03 93 aa 44 04 28 16 45
       -1.7559844 563.1773 1364.5941 2402.501
000140 8f 36 6a 42 6a 80 8e 43 83 44 bc 44 7c 20 a2 44
       58.55328 285.00323 1506.141 1297.0151
000150 34 8c 82 43 38 c4 35 43 61 09 e1 bf 61 09 e1 bf
       261.09534 181.76648 -1.7580987 -1.7580987
000160 0a 59 a7 43 47 1e 1e 41 01 f8 36 42 6e 87 08 44
       334.69562 9.882392 45.74219 546.1161
000170 61 09 e1 bf 6d 61 b1 44 16 e7 0a 44 4c 4f f7 42
       -1.7580987 1419.0446 555.6107 123.65488
000180 61 09 e1 bf df 23 09 42 5e 09 e1 bf 5e 09 e1 bf
       -1.7580987 34.28503 -1.7580984 -1.7580984
000190 d6 10 3d 44 61 09 e1 bf 59 09 e1 bf ba c6 83 43
       756.26306 -1.7580987 -1.7580978 263.55255
0001a0 52 54 61 41 5b 09 e1 bf e2 60 67 41 4b b9 d6 42
       14.083086 -1.758098 14.461153 107.3619
0001b0 5b 09 e1 bf 66 b9 06 44 5e 09 e1 bf 7a 8d 1d 44
       -1.758098 538.89685 -1.7580984 630.2106
0001c0 b9 fe dc bf 7e 2d 2d 42 18 be 9c 44 bb eb b6 42
       -1.7265235 43.294426 1253.9404 91.46041
0001d0 79 21 39 43 01 f5 ff 42 5b 09 e1 bf b5 d3 4a 43
       185.13075 127.97852 -1.758098 202.82698
0001e0 b5 18 1c 43 5a 09 e1 bf 90 0a 00 44 44 1a f8 42
       156.09651 -1.7580979 512.16504 124.0513
0001f0 34 18 1c 41 5b 09 e1 bf 61 09 e1 bf ae d2 e0 43
       9.755909 -1.758098 -1.7580987 449.64594
000200 5c 09 e1 bf 61 09 e1 bf ba a3 8f 43 56 0d 0c 44
       -1.7580981 -1.7580987 287.2791 560.2084
000210 61 09 e1 bf 61 09 e1 bf 61 09 e1 bf 59 09 e1 bf
       -1.7580987 -1.7580987 -1.7580987 -1.7580978
000220 7d 09 08 44 1a bf e2 43 a4 22 34 44 f9 e4 30 43
       544.14825 453.49298 720.54126 176.89442
000230 5f 09 e1 bf 07 43 10 3e ab 30 79 41 56 bb 26 44
       -1.7580985 0.14088069 15.574382 666.9271
000240 61 09 e1 bf d6 1c f0 41 59 09 e1 bf 61 09 e1 bf
       -1.7580987 30.01408 -1.7580978 -1.7580987
000250 2e ba e0 bf 5c 09 e1 bf 86 1b dc 41 d5 61 9f 43
       -1.7556818 -1.7580981 27.51344 318.7643
000260 5b 09 e1 bf 4f af 9c 40 d9 c5 e0 bf 5e 09 e1 bf
       -1.758098 4.8964 -1.7560378 -1.7580984
000270 61 09 e1 bf 85 e9 66 40 61 09 e1 bf 61 8b c6 43
       -1.7580987 3.608003 -1.7580987 397.0889
000280 24 79 d2 42 61 09 e1 bf 58 71 42 44 2e 7d a8 44
       105.2366 -1.7580987 777.771 1347.9119
000290 84 c0 4d 43 3a 8f f8 44 b7 e5 9e 41 4d 1f 61 44
       205.75201 1988.4758 19.862165 900.4891
0002a0 5f 09 e1 bf 61 09 e1 bf 41 34 e4 43 fe c2 6c 42
       -1.7580985 -1.7580987 456.40823 59.190422
0002b0 51 42 28 44 61 09 e1 bf 67 69 83 43 61 09 e1 bf
       673.0362 -1.7580987 262.82346 -1.7580987
0002c0 28 a6 b8 41 61 09 e1 bf 4c 16 0d 45 e2 af ec be
       23.081131 -1.7580987 2257.3936 -0.46227938
0002d0 5f 09 e1 bf 61 09 e1 bf 3a 87 cb bf 61 09 e1 bf
       -1.7580985 -1.7580987 -1.5900643 -1.7580987
0002e0 0b 0f 23 45 61 09 e1 bf 61 09 e1 bf c2 b6 da 41
       2608.9402 -1.7580987 -1.7580987 27.339237
0002f0 b3 29 39 44 5e 09 e1 bf 88 90 f2 42 61 09 e1 bf
       740.65155 -1.7580984 121.28229 -1.7580987
000300 5e 09 e1 bf 3d 6d 24 43 59 09 e1 bf 61 09 e1 bf
       -1.7580984 164.42671 -1.7580978 -1.7580987
000310 a8 bf 8e be e9 b6 bd be 72 d7 ae 43 5e 09 e1 bf
       -0.27880597 -0.37053612 349.68317 -1.7580984
000320 61 09 e1 bf 61 09 e1 bf 61 09 e1 bf 34 10 84 41
       -1.7580987 -1.7580987 -1.7580987 16.507912
000330 61 09 e1 bf 5d 09 e1 bf ae 7b 63 44 25 0a 48 45
       -1.7580987 -1.7580982 909.9325 3200.634
000340 61 09 e1 bf 35 b8 fb 42 5e ca 3b 42 ad 6d 22 42
       -1.7580987 125.85978 46.947624 40.607105
000350 0f 35 60 43 61 09 e1 bf 3e 5f 00 44 00 3e f8 43
       224.20726 -1.7580987 513.48816 496.48438
000360 c4 64 c9 44 6e 72 b8 43 0c 65 be 42 61 09 e1 bf
       1611.1489 368.89398 95.19736 -1.7580987
000370 e6 ef e9 42 5e 09 e1 bf 3c 6c c2 44 c7 55 02 42
       116.96855 -1.7580984 1555.3823 32.583767
000380 6c 39 a4 44 6e 7c 8e 42 57 05 2b 40 61 09 e1 bf
       1313.7944 71.24303 2.672201 -1.7580987
000390 9a cf a9 44 61 09 e1 bf a4 75 0a 42 5f 09 e1 bf
       1358.4875 -1.7580987 34.614883 -1.7580985
0003a0 5a 09 e1 bf 59 09 e1 bf 05 82 27 43 59 09 e1 bf
       -1.7580979 -1.7580978 167.50789 -1.7580978
0003b0 5c 09 e1 bf 61 09 e1 bf 58 ad 84 40 87 7f a9 42
       -1.7580981 -1.7580987 4.14616 84.74908
0003c0 59 09 e1 bf 61 09 e1 bf b7 34 b1 41 5a 09 e1 bf
       -1.7580978 -1.7580987 22.15074 -1.7580979
0003d0 61 09 e1 bf 7f f5 bb 41 5f 09 e1 bf 61 09 e1 bf
       -1.7580987 23.494871 -1.7580985 -1.7580987
0003e0 5f 09 e1 bf 5f ff 27 44 2e 8b 43 43 d7 e1 df bf
       -1.7580985 671.9902 195.54367 -1.7490796
0003f0 61 09 e1 bf 61 09 e1 bf ef 8c ac 44 5b 09 e1 bf
       -1.7580987 -1.7580987 1380.4042 -1.758098

bn1.running_var f4 [256]
000000 10 52 78 46 78 ea 68 49 bb 9e 02 2a 2a 5b eb 48
       15892.516 954023.5 1.160139e-13 482009.3
000010 a2 8f de 46 ec de 45 2a fa 5f 5c 48 97 9f a0 47
       28487.816 1.7574456e-13 225663.9 82239.18
000020 2a 76 cf 42 c7 9e 02 2a fc 34 73 47 c7 9e 02 2a
       103.73079 1.1601406e-13 62260.984 1.1601406e-13
000030 42 b8 cb 48 54 42 a4 48 c7 9e 02 2a f9 e0 d9 47
       417218.06 336402.62 1.1601406e-13 111553.945
000040 cd 23 9c 47 c3 5e bf 48 c1 cf 03 4a d6 29 a5 49
       79943.6 391926.1 2.1596002e+06 1.3530188e+06
000050 24 7a 82 4a 08 a7 02 2a ab a5 c0 47 89 92 f2 49
       4.275474e+06 1.160427e-13 98635.336 1.9871531e+06
000060 ac c5 33 47 de 7d e5 49 0c 48 cc 45 43 4f 25 49
       46021.67 1.8799958e+06 6537.006 677108.2
000070 10 f0 89 3f 43 d0 0a 48 8d 02 8b 49 8b 53 c3 37
       1.0776386 142145.05 1.1387696e+06 2.3284714e-05
000080 e7 8c 8c 49 46 8f c9 44 d9 5d 2c 48 71 8c 45 47
       1.1513889e+06 1612.4773 176503.39 50572.44
000090 5b ff b3 46 d4 23 9e 30 c7 9e 02 2a c7 9e 02 2a
       23039.678 1.1506196e-09 1.1601406e-13 1.1601406e-13
0000a0 cb 9e 02 2a 74 dc a8 48 e9 7a 12 48 e7 6e 02 2a
       1.1601412e-13 345827.62 149995.64 1.1584796e-13
0000b0 c0 0f a5 48 c7 9e 02 2a df d5 70 3a f7 49 c0 46
       338046.0 1.1601406e-13 0.0009187143 24612.982
0000c0 c7 9e 02 2a a7 ed a2 45 10 fe 02 2a a5 96 b4 3f
       1.1601406e-13 5213.7065 1.1634465e-13 1.4108473
0000d0 3d 7c 1d 48 43 d3 d0 45 37 f9 2a 4a c8 cf 0b 47
       161264.95 6682.4077 2.8012298e+06 35791.78
0000e0 22 ae 02 2a 8b ca 63 4a c7 9e 02 2a f5 ef d7 30
       1.1606734e-13 3.7321308e+06 1.1601406e-13 1.5711509e-09
0000f0 b2 51 0f 46 b7 f9 2d 30 7b 44 81 49 c0 f6 3b 30
       9172.424 6.32919e-10 1.0589594e+06 6.8380857e-10
000100 0e d0 0c 4a c7 9e 02 2a 9c b2 88 2c 17 b3 da 2c
       2.3070755e+06 1.1601406e-13 3.885182e-12 6.2158156e-12
000110 10 eb c6 47 c4 d1 8d 44 7e 56 a6 45 c7 9e 02 2a
       101846.125 1134.5552 5322.8115 1.1601406e-13
000120 83 6e c4 48 24 28 9e 46 c7 9e 02 2a 4a 6d 47 43
       402292.1 20244.07 1.1601406e-13 199.42691
000130 12 13 79 3c 29 c5 1c 49 fc 6c ec 49 dd 9d 5e 4a
       0.015202301 642130.56 1.9367995e+06 3.6473512e+06
000140 ad 4c 31 45 8f c1 9a 48 7c cc 3f 4a 5a 55 bc 49
       2836.7922 316940.47 3.142431e+06 1.5428272e+06
000150 f9 c3 9e 48 af 95 86 48 c7 9e 02 2a c7 9e 02 2a
       325151.78 275629.47 1.1601406e-13 1.1601406e-13
000160 1f 9d 20 49 a0 28 a5 45 e2 41 2b 47 60 dc 06 49
       657873.94 5285.078 43841.883 552390.0
000170 c7 9e 02 2a 32 bb e8 49 d3 f3 80 49 f4 c7 a1 48
       1.1601406e-13 1.9065342e+06 1.0563784e+06 331327.62
000180 c7 9e 02 2a 3c 7f 9a 45 c7 9e 02 2a c7 9e 02 2a
       1.1601406e-13 4943.9043 1.1601406e-13 1.1601406e-13
000190 c1 55 31 49 c7 9e 02 2a b2 a3 7e 35 15 27 44 47
       726364.06 1.1601406e-13 9.486058e-07 50215.082
0001a0 2c dc de 43 bf 53 06 2a 37 ed a8 45 a9 88 ae 47
       445.7201 1.1930646e-13 5405.652 89361.32
0001b0 ec 9e 02 2a fc b8 80 49 c7 9e 02 2a f0 7a c4 49
       1.1601457e-13 1.0544955e+06 1.1601406e-13 1.609566e+06
0001c0 20 09 7c 40 fe 54 b1 47 df 47 1a 4a a8 bf ba 47
       3.938057 90793.984 2.5277358e+06 95615.31
0001d0 f9 33 e7 48 1d 9d 07 49 eb 9f 02 2a 9c e3 79 48
       473503.78 555473.8 1.1601802e-13 255886.44
0001e0 42 25 8a 48 d4 cf a8 2a 8d 47 c8 48 15 8f a9 48
       282922.06 2.9987005e-13 410172.4 347256.66
0001f0 69 3b 0a 46 fa 47 0c 2a c7 9e 02 2a 5e 8e ea 48
       8846.853 1.245947e-13 1.1601406e-13 480370.94
000200 c8 9e 02 2a c7 9e 02 2a db 69 ef 48 fd 78 bf 48
       1.1601408e-13 1.1601406e-13 490318.84 392135.9
000210 c7 9e 02 2a c7 9e 02 2a c7 9e 02 2a 77 80 e8 32
       1.1601406e-13 1.1601406e-13 1.1601406e-13 2.7066774e-08
000220 b0 10 fc 48 37 71 50 4a b5 ed 12 49 59 94 0b 48
       516229.5 3.4151178e+06 601819.3 142929.39
000230 c7 9e 02 2a 09 0d eb 43 df fa 77 46 87 07 23 49
       1.1601406e-13 470.10184 15870.718 667768.44
000240 c7 9e 02 2a 1e 09 b0 44 1e 40 72 35 c7 9e 02 2a
       1.1601406e-13 1408.2849 9.024533e-07 1.1601406e-13
000250 9c df b7 3c c8 9e 02 2a 2e b1 1f 47 99 43 a9 48
       0.022445492 1.1601408e-13 40881.18 346652.78
000260 97 a8 02 2a 10 91 0d 45 2d 4f 9a 3e c7 9e 02 2a
       1.1604811e-13 2265.0664 0.3013853 1.1601406e-13
000270 c7 9e 02 2a 9f 8d 84 44 c7 9e 02 2a 0c 79 2d 49
       1.1601406e-13 1060.4257 1.1601406e-13 710544.75
000280 da 37 39 48 c7 9e 02 2a 2d 9f 07 49 a2 81 18 4a
       189663.4 1.1601406e-13 555506.8 2.4986645e+06
000290 bd ec 39 48 29 49 a4 4a 9c 89 64 44 65 95 a1 49
       190386.95 5.3833165e+06 914.15015 1.3236926e+06
0002a0 c7 9e 02 2a c7 9e 02 2a e6 9f 8d 49 cd bd b5 45
       1.1601406e-13 1.1601406e-13 1.1601888e+06 5815.725
0002b0 75 5f 4e 49 c7 9e 02 2a a5 a2 c4 47 c7 9e 02 2a
       845303.3 1.1601406e-13 100677.29 1.1601406e-13
0002c0 b7 8c 92 46 c7 9e 02 2a d7 7d 67 4a e2 f4 20 43
       18758.357 1.1601406e-13 3.7927578e+06 160.95657
0002d0 c7 9e 02 2a c6 9e 02 2a 74 79 10 41 c7 9e 02 2a
       1.1601406e-13 1.1601405e-13 9.029652 1.1601406e-13
0002e0 c5 94 ab 4a c7 9e 02 2a c7 9e 02 2a b3 67 16 47
       5.6223705e+06 1.1601406e-13 1.1601406e-13 38503.7
0002f0 1e 6a 11 49 c7 9e 02 2a f4 ee da 47 c7 9e 02 2a
       595617.9 1.1601406e-13 112093.91 1.1601406e-13
000300 c7 9e 02 2a 54 53 c0 45 c4 59 e9 36 c7 9e 02 2a
       1.1601406e-13 6154.416 6.954391e-06 1.1601406e-13
000310 77 8f b0 43 bb 13 d3 42 86 78 44 48 c7 9e 02 2a
       353.12082 105.538536 201186.1 1.1601406e-13
000320 c7 9e 02 2a c7 9e 02 2a c7 9e 02 2a ca 22 28 46
       1.1601406e-13 1.1601406e-13 1.1601406e-13 10760.697
000330 c7 9e 02 2a c7 9e 02 2a 53 d4 8e 49 db cc 71 4b
       1.1601406e-13 1.1601406e-13 1.1700584e+06 1.5846619e+07
000340 c7 9e 02 2a 4e 70 63 48 09 a7 5c 45 7d c6 14 46
       1.1601406e-13 232897.22 3530.4397 9521.622
000350 50 72 8a 48 c7 9e 02 2a 26 ac 4b 49 36 19 0e 49
       283538.5 1.1601406e-13 834242.4 582035.4
000360 d5 7e b8 49 16 c3 ac 48 9d 86 69 48 c7 9e 02 2a
       1.5113866e+06 353816.7 239130.45 1.1601406e-13
000370 67 b9 04 48 c7 9e 02 2a fe ca 57 4a 76 67 61 46
       135909.61 1.1601406e-13 3.5355515e+06 14425.865
000380 f7 ca e0 49 42 7c 1b 48 4d c3 40 45 c7 9e 02 2a
       1.8415029e+06 159217.03 3084.2063 1.1601406e-13
000390 17 7e e2 49 c7 9e 02 2a 25 e6 54 46 c7 9e 02 2a
       1.8554269e+06 1.1601406e-13 13625.536 1.1601406e-13
0003a0 92 45 ad 2a 88 7f fc 35 24 04 02 46 36 a0 e7 2a
       3.0779247e-13 1.881258e-06 8321.035 4.1145012e-13
0003b0 c9 9e 02 2a c7 9e 02 2a 00 a1 b4 44 ef c9 54 47
       1.1601409e-13 1.1601406e-13 1445.0312 54473.934
0003c0 af e4 2e 34 c7 9e 02 2a 16 5c 39 46 e0 4f c6 2d
       1.6288207e-07 1.1601406e-13 11863.021 2.2545465e-11
0003d0 c7 9e 02 2a ef 96 c2 46 c7 9e 02 2a c7 9e 02 2a
       1.1601406e-13 24907.467 1.1601406e-13 1.1601406e-13
0003e0 c7 9e 02 2a 27 44 2a 49 e1 03 b4 48 f4 ad 4b 3d
       1.1601406e-13 697410.44 368671.03 0.04972644
0003f0 c7 9e 02 2a c7 9e 02 2a 8c 58 a0 49 e4 9e 02 2a
       1.1601406e-13 1.1601406e-13 1.3135535e+06 1.1601446e-13

fc2.weight f4 [128, 256]
000000 42 d3 1a be 56 36 dc bd 5f 08 27 bd a5 4f 8c bd
       -0.15119651 -0.10752551 -0.040779468 -0.068511285
000010 b8 72 0d 3d 88 53 a1 3d 85 8f 02 be b2 f0 2c bd
       0.034533232 0.078772604 -0.12750061 -0.042221732
000020 04 6b 22 be 44 0a 45 3c cb bf 53 bd 9d f9 99 bd
       -0.15861136 0.012026373 -0.05169658 -0.07518313
000030 f3 c4 41 bc 7a 47 41 3d 71 38 32 bd 58 af 01 be
       -0.0118267415 0.047187306 -0.043510858 -0.12664545
000040 6e 74 eb bc ff 19 eb bd 44 55 ba 3c ec d1 11 3e
       -0.028742041 -0.11479568 0.022745736 0.14240235
000050 c0 2d 98 bb 3b ea 37 bc 09 1b 8e bd a9 be d5 bd
       -0.0046441257 -0.0112252785 -0.0693875 -0.10436756
000060 8a c2 92 bd 99 aa e5 3c 67 26 09 3b 44 8d f2 bc
       -0.07166012 0.028035449 0.002092743 -0.029608376
000070 f0 ad 0c be 1f 98 eb bd a8 db de 3d ad 77 89 bc
       -0.13738227 -0.11503624 0.1088174 -0.016780699
000080 50 98 85 bd 31 6e 42 3d 88 0e 0c be f1 1a 2f be
       -0.06523192 0.047468368 -0.13677418 -0.17100121
000090 76 30 ca 39 ea 5c 45 3e e6 75 c7 3d f5 d8 bd bd
       0.0003856455 0.19273725 0.09739284 -0.09269897
0000a0 e0 0f 89 3c 59 80 5b 3d 8e bc 28 3d af ef a0 3c
       0.016731203 0.0535892 0.041195445 0.01964554
0000b0 c1 d0 8a bb ab f5 28 3d c9 1a 54 3d 7d 03 92 3d
       -0.004236311 0.041249912 0.051783357 0.071295716
0000c0 77 3f 26 3e 87 9c 8d bd 2c 6c 83 bd 0f ac 67 bd
       0.16235147 -0.06914621 -0.064171165 -0.056560572
0000d0 f3 ba eb 3c 4d 00 71 bd 0a c7 6d bb c9 2a 1d 3d
       0.028775668 -0.058838177 -0.0036281967 0.03837088
0000e0 99 e4 69 bc 31 d3 96 3c db ae b1 3d 52 9e 06 bd
       -0.014275693 0.01841125 0.08675929 -0.03286583
0000f0 e5 e1 8f bd a2 a8 06 3d db ce 47 bd 06 e0 3c bd
       -0.07025508 0.032875665 -0.048781257 -0.046112083
000100 88 d0 84 3d 83 71 39 3d cc bc 0a be 1e 31 21 be
       0.06485087 0.04527427 -0.13548583 -0.15741393
000110 d3 7d db 3c 7b dc 73 3d c3 a6 84 3d 20 2d 3e bd
       0.026793396 0.05953644 0.0647712 -0.046429753
000120 d1 00 7e bd fb 02 63 3d fe fc b5 3b 77 86 84 3d
       -0.062012497 0.055422764 0.0055538407 0.0647096
000130 b7 1d 43 bd 62 29 9d 3d 98 32 03 bd f3 53 6c 3d
       -0.04763576 0.07673909 -0.03203067 0.057697248
000140 64 ba ad bc 87 fa 9e 3d c4 36 89 bd 1b 03 aa 3d
       -0.021207042 0.07762628 -0.06699899 0.083013736
000150 81 9f 26 3c c2 ae 89 3c b4 8c 0b bd 91 08 42 bd
       0.010169865 0.016806964 -0.03406973 -0.04737145
000160 5a 13 be bb de 3a 86 bd c7 d3 b2 3c 3d a5 72 3b
       -0.0058006467 -0.06554197 0.021829499 0.003702476
000170 1a a0 7b bd 21 2c 93 3c df 18 02 bc f5 34 46 3d
       -0.06143198 0.017965378 -0.0079405 0.048390348
000180 94 fe f2 3d d1 8f 01 3b 0b ce d0 3a c3 20 1c 3c
       0.11864963 0.001976956 0.0015930546 0.009529295
000190 2c 7e a7 bc 79 64 ba bd d5 ad 3d bd af 1a 59 3b
       -0.020445906 -0.09101195 -0.046308357 0.0033127477
0001a0 17 af 4e 3e 82 4e 2e bd 3c 54 d8 bc ca fc c9 bd
       0.20183979 -0.04255534 -0.026407354 -0.09862669
0001b0 41 fc 74 bd 75 f5 04 be e8 df af 3c 07 ec 8c bd
       -0.05981088 -0.1298426 0.021469072 -0.06880956
0001c0 07 57 8e bc e0 33 db bd f2 a3 cb 3d 5f 87 e7 bc
       -0.017375482 -0.10703254 0.099433795 -0.028262792
0001d0 b5 8b 30 bd d7 08 01 be 14 8a ac bd 7b 5f 8d bd
       -0.043101985 -0.12601028 -0.08424774 -0.06902977
0001e0 a3 f6 2b 3d 85 91 03 be 79 7c bc bc 3c 9d c3 bd
       0.041983258 -0.1284848 -0.023008572 -0.095514745
0001f0 83 60 e2 bd 65 01 a6 3d a6 2f 02 3d 5c a7 11 3d
       -0.110535644 0.08105735 0.031783722 0.035559997
000200 bd 97 39 be ef cb 11 bd 7c 4c 18 3d 5a a5 92 bd
       -0.1812429 -0.035594877 0.037182316 -0.071604446
000210 59 1e 1f be d9 52 2b 3e 03 4e b8 bd bf e0 ea bd
       -0.1553892 0.16730823 -0.089992546 -0.11468648
000220 b7 ad db 3b 48 09 46 be 5f 06 92 3c a6 a1 13 3d
       0.006704058 -0.19339478 0.017825304 0.03604283
000230 ba c6 34 bd 99 ad f8 bc bb d8 84 bc ec ce ef 3c
       -0.044134833 -0.030356215 -0.016216626 0.029273473
000240 14 fb 29 bd 60 b2 92 3d a5 bb 53 bd dc 4e 29 3d
       -0.041499212 0.071629286 -0.051692624 0.04133497
000250 cb 87 e7 3c 78 bd 13 be c8 22 4c bd f0 1f ae bc
       0.028262993 -0.14427745 -0.049837857 -0.021255463
000260 44 9e 97 bc cf ae 5d bd ed db e2 bd fd 37 02 3d
       -0.018508084 -0.05412179 -0.11077104 0.031791676
000270 b1 53 b4 3d 68 1c 8e bd 9d 77 2a 3d da 51 be bd
       0.08805025 -0.06939012 0.04161798 -0.09292956
000280 a6 a8 21 bd 2b 81 6e bd 0b 40 b8 3c 55 e5 9e 3d
       -0.039467476 -0.058228653 0.022491476 0.07758585
000290 68 90 41 bd 82 da 8f bc ec bf 87 bd d8 71 90 3d
       -0.047256857 -0.017560247 -0.06628403 0.07052964
0002a0 8a 42 ac 3d 1a 6e 01 3e 3b 1a bd bd 95 a7 af bd
       0.08411129 0.12639657 -0.09233519 -0.085768856
0002b0 4b bb f9 bb da ce 63 bb e7 92 3d bd b6 89 9a bc
       -0.007621204 -0.0034760744 -0.046282675 -0.018864494
0002c0 98 ba 5a bd c4 6c dc 3d 60 ec 3f 3d 08 87 a1 bd
       -0.053400606 0.10762933 0.046856284 -0.07887083
0002d0 1b b5 86 3d 3c f1 c0 bd 4b dd 2e be 1e 91 5c 3d
       0.06577512 -0.09421012 -0.17076604 0.053849332
0002e0 28 30 68 3d 06 62 46 be 1d 29 5e bd cc 1c 1b bd
       0.05668655 -0.1937333 -0.054238427 -0.03786926
0002f0 e6 88 7b bc 28 c6 08 bc 21 d7 95 bd 4c 75 d0 3d
       -0.015352463 -0.008348025 -0.07316423 0.101786226
000300 6c bd 85 bd f5 cb ef 3d 50 5e cb 3d 54 10 80 bd
       -0.0653027 0.117088236 0.09930098 -0.06253114
000310 28 bc be bb 97 03 1d be 1a 1a a2 bc 19 c7 9c 3d
       -0.00582077 -0.153334 -0.019787837 0.07655162
000320 4f 93 4b 3d e4 53 b7 bc f4 f5 da bc 52 57 e4 bd
       0.04970103 -0.02237887 -0.026728608 -0.111494675
000330 31 fc 8f 3c 2d 19 ef 3c 32 86 28 bc 80 7b 36 3d
       0.017576309 0.02918681 -0.010285901 0.044551373
000340 4e ce ac 3c 65 01 15 bd f3 24 ff 3c f3 99 d6 3c
       0.021094467 -0.036378283 0.031145548 0.026196456
000350 ae 45 4c bb 74 13 11 bd 13 bd cb 3c 2e 92 81 bd
       -0.0031169462 -0.035418943 0.024870431 -0.0632671
000360 92 6f 2a 3d f1 99 11 3b d1 8d 9e bd ae de b1 3d
       0.041610308 0.0022217 -0.07741893 0.08685051
000370 f4 5e f2 bc d5 6d 16 bc d6 1d 17 3d d1 df 20 bd
       -0.029586293 -0.009181459 0.03689369 -0.039275948
000380 20 5c a9 bc c3 29 a0 3c c3 56 1b bd 96 33 9b 3b
       -0.020673811 0.019551164 -0.03792454 0.004736374
000390 21 6d b3 bb 45 77 a8 bd 2f e1 69 bb 37 cb 0e be
       -0.0054756557 -0.08225874 -0.0035687198 -0.13944708
0003a0 1d 2f 13 3d 90 06 a5 bd 6b 8e 03 3d 06 7d a3 bd
       0.035933603 -0.08057892 0.032118242 -0.07982831
0003b0 b6 19 6d 3d 8e d3 36 3e a5 95 55 bd 62 c7 16 3d
       0.057885848 0.17854139 -0.052144665 0.03681124
0003c0 7e f1 0e 3c 04 14 82 bd 04 72 b6 bd c6 75 99 bd
       0.008724568 -0.06351474 -0.089084655 -0.074931666
0003d0 14 4c 41 bd 3c e4 fd 3c fa 35 2b bc c0 44 03 3e
       -0.047191694 0.03099262 -0.010449881 0.12819195
0003e0 04 0f 40 3d 3a 22 71 3d 0b 18 6c bd 8d 51 e5 3c
       0.04688932 0.05887053 -0.057640117 0.027992988
0003f0 35 16 ce bc 52 ce 81 3d d2 59 4b 3d 37 51 01 3d
       -0.025157074 0.063381806 0.049646206 0.031571593
